models/[CV_best_model]TRAIN_sequence1folds_0.005lr_16batch_2ep.ckpt (torch, 141655 bytes, 12 tensors)

module.encoder.gru.weight_ih_l0 f4 [96, 32]
00000000: 2f60 b03c 75ef d33d f59e 143e 9042 1fbd
00000010: b908 0d3e c299 3ebe 6e32 59bd 78d7 063d
00000020: a10d 9e3d e31c a2bd 8c11 993d 5b47 0a3e
00000030: 34db 04be 7fa0 a2bc 2b2f 1a3d 380f 433e
00000040: 05df b93c 22b8 1dbe dced c43d 9346 473d
00000050: 998e 24be 2374 2abd d3be 4a3e 3f81 a93d
00000060: bb6a 0a3e bf3a 41be 62b3 babd 7df0 13be
00000070: 2a35 c13d 3796 db3d c710 233d 151f a0bd
00000080: b285 b73d 6299 bdbd d5cd 8fbd 35a0 d4bd
00000090: 8647 cabd 54bd 8dbd 8b08 e73d c4e5 c8bd
000000a0: d844 aebd d885 ce3c 4d6d 283e fb4e 143d
000000b0: 9e88 5f3d 4c5b 4cbe 7790 343e 9029 b93d
000000c0: 1df0 cc3d 2054 b93d 7bc5 afbd ce94 a93c
000000d0: 57b6 1abe 6ebf fe3d 8454 82bd 47cd 52bd
000000e0: e228 843c ca77 80bd 5435 aabd 8749 36bc
000000f0: 9b32 81bd 3be6 16bc d4d2 843c 7625 933c
00000100: cf9f bd3d fff7 153e 9cd0 083e 05ca f73d
00000110: 0d58 5ebc 3e4b ffbc 5186 693d 90de fcbc
00000120: 5ac5 e63d e590 14be 0782 123e ef65 3e3e
00000130: 1aab f93d 3ddc c8bc fc41 05be a67b cbbd
00000140: 72ad 143e 96c4 24bd bd4e 37bc 8fdd 78ba
00000150: 8506 4cbe 6219 223e 26cb dcbb fe37 3cbd
00000160: 78c3 56bd cc70 04be 8a7c a03d 69ad 35be
00000170: 20ec 403e 8c6e 15bd 672e 783d 0595 1b3d
00000180: 83a3 cc3c 5eb7 173e 86b7 d3bd e4e7 2b3e
00000190: 6cd8 eabd d6d0 783d e38f b23d 74d9 47bc
000001a0: a544 2d3e 0eb6 e23d 4f64 293e c290 ebbd
000001b0: 7137 0ebe a602 91bc c058 443e 616d fb3c
000001c0: d69c 9abc 6ee3 35be 5cad 5cbd d950 8f3d
000001d0: c215 50be 986a 2f3e 9b43 893d 66bd 02bd
000001e0: 6a3d f13d 4f4d 0fbe 4b0a 85bd bf80 0bbe
000001f0: bb43 a63b fa7f da3d 77ce 3bbe 5ad2 db3d
00000200: 86a3 5c3d 3e8d 073e c31a 87bd 1a40 203d
00000210: 92b9 49be a1b4 f83d 80e9 d1bd b104 17bd
00000220: 419b 5f3e 9e1e 74bc 8b25 1e3d d256 603e
00000230: 17c2 13bd 68de d23d cbee 6f3d 6c53 bcbd
00000240: a158 3f3e fa1d b7bd 5edc 41be 3d4c e0bd
00000250: 4ee4 80bc db4b ca3d 1ae0 093e e1fe 03be
00000260: 1505 a6bc d4d7 d4bc 058d 453e f0fd 17bd
00000270: 2fa3 e3bd 6b22 073e a7fc 88bd ff51 bdbb
00000280: 958d e6bd 8caf b63d 0452 b5bb 0f32 d83d
00000290: 2c90 61bd 9a8b c03b 92b6 8b3d 6a27 253e
000002a0: 0955 4abc bf5c 06be 03c4 013e 3713 813d
000002b0: ed1a 143e 705e 233e eb2e 223e 9303 c8bd
000002c0: 4b2f c5bd 6b5a d4bd a30b 263e 3fa6 1dbe
000002d0: 4892 e13d c637 503c 54a4 dc3d 0ac1 4bbd
000002e0: 8bad dd3d d571 023e 5be9 eebc 9d40 233e
000002f0: f7b1 703a 85f8 0cbe 1f9b bdbd d853 d93d
00000300: 01c4 2a3e ed36 f63d ffbf a7bd b32f ae3d
00000310: 2fdf b0bd 9f26 1d3e 506c 9d3d d543 3d3c
00000320: 84b2 1b3e a741 8bbd 4953 ddbd 64c6 21be
00000330: fe22 65bc d6bf b33d d082 013e 35f3 66bd
00000340: bd0c b4bd dd61 ba3c e0b4 f1bd e7f0 f2bd
00000350: 72ab 36bd 882d e4bb 5210 d0bc 18b3 c53d
00000360: 03c0 6f3c a56d c6bd 3dd9 403d a4c8 cd3a
00000370: d2a9 8bbd 6d33 1fbe d54f 243e 4ac8 a3bd
00000380: df12 0c3e 5b8a 04bd c172 1d3e 06b9 a13d
00000390: d653 313e 1ee9 553c a3f1 e6bd 8ca1 433e
000003a0: 6d66 ee3d 68d2 e23d fc8e 64be e7f9 f33d
000003b0: 664b 513e c96a 3abd ca2e 3abe 6014 83bd
000003c0: 6688 5abe 5e68 01bd b657 2d3d daed 96bd
000003d0: 35c1 a5bd 024f acbd 25bb cbbd ad68 153b
000003e0: 5ef7 e83d ea37 413e 977c 50be 92eb 2e3e
000003f0: 2401 41be da4d b93c da9b 4e3e cc01 1dbe
0.021530239 0.10348407 0.14513762 -0.03888184 0.13772859 -0.18613341 -0.05302661 0.03292033
0.07717443 -0.07915666 0.0747405 0.13503782 -0.12974244 -0.019851921 0.03764264 0.19048774
0.022689352 -0.15402272 0.096156806 0.04865129 -0.16070022 -0.041614663 0.19799356 0.08276605
0.13517277 -0.18870066 -0.09116246 -0.14447208 0.09433968 0.107220106 0.039810922 -0.078184284
0.08961047 -0.09257771 -0.07021681 -0.103821196 -0.09876923 -0.06920877 0.11280926 -0.09809449
-0.08509225 0.025210306 0.16447945 0.036208134 0.054573648 -0.19956702 0.17633234 0.090411305
0.100067355 0.09049249 -0.08582588 0.020700838 -0.1510862 0.12438856 -0.06363776 -0.0514653
0.016132776 -0.06272848 -0.08310953 -0.011125929 -0.0630848 -0.009210165 0.016213812 0.017962199
0.09258997 0.14645384 0.13360828 0.12099079 -0.013570798 -0.031163808 0.05701286 -0.030867845
0.112681106 -0.14508398 0.14307414 0.18593572 0.12190838 -0.02451908 -0.13013452 -0.099356934
0.14519289 -0.04022654 -0.011188206 -0.0009493464 -0.19924362 0.15829995 -0.0067380844 -0.045951836
-0.052432507 -0.12933654 0.07836254 -0.17741932 0.18840075 -0.03648238 0.060591128 0.037983913
0.024980312 0.14816043 -0.10337739 0.16787678 -0.114670604 0.060746036 0.087188505 -0.012197841
0.16920717 0.110698804 0.16542171 -0.1150222 -0.13888337 -0.017701458 0.1917448 0.030691804
-0.018873613 -0.17762539 -0.053876266 0.06997842 -0.203208 0.17130506 0.06702348 -0.031918906
0.11779292 -0.13994335 -0.06496104 -0.13623331 0.005073992 0.10668941 -0.18340479 0.10733481
0.053866886 0.13237473 -0.06596901 0.039123632 -0.19699696 0.12143827 -0.10249615 -0.03686971
0.21836568 -0.014899878 0.038610023 0.2190812 -0.03607377 0.10296327 0.05857734 -0.09195599
0.18686153 -0.089412645 -0.1893172 -0.10952041 -0.015733864 0.098777495 0.13464394 -0.12890197
-0.020266095 -0.025981821 0.19292076 -0.037107408 -0.11115109 0.13196723 -0.066888146 -0.005777597
-0.112574734 0.08920202 -0.0055334587 0.10556423 -0.055069134 0.005876017 0.06821932 0.16128317
-0.0123493755 -0.13121317 0.12672429 0.06302493 0.14463396 0.15953994 0.1583821 -0.09766307
-0.09628161 -0.10368808 0.16215377 -0.15395449 0.11014229 0.01270861 0.107735306 -0.049744643
0.10824116 0.12738736 -0.029164007 0.15942617 0.0009181792 -0.13766678 -0.092581026 0.10611695
0.16676332 0.12022195 -0.08190917 0.08505192 -0.08636319 0.15346764 0.076866746 0.011551817
0.15204817 -0.067996316 -0.10806901 -0.15798336 -0.013985394 0.08776824 0.12647557 -0.056384284
-0.08791492 0.022751743 -0.11802077 -0.11862355 -0.044597097 -0.0069634356 -0.025398407 0.096533
0.0146331815 -0.09688882 0.047082175 0.0015700054 -0.068195 -0.15546961 0.16046079 -0.079971865
0.13679074 -0.03235851 0.15375806 0.078966185 0.17317137 0.013056068 -0.11276557 0.19104594
0.1164063 0.11075288 -0.22320169 0.119128995 0.20438918 -0.045511995 -0.18181911 -0.064003706
-0.21341094 -0.031593673 0.042319976 -0.07369585 -0.08093492 -0.08413507 -0.09947804 0.0022797987
0.113753065 0.18868986 -0.20360027 0.1708205 -0.18848091 0.02262013 0.2017664 -0.15332717

module.encoder.gru.weight_hh_l0 f4 [96, 32]
00000000: 0e4a 1c3e ca8b 0d3e 22d8 773d ab25 2dbe
00000010: 68ce 4c3e abdc 4d3e 8518 20be 483d dd3d
00000020: 563c 9b3d 85bf 45be ba4b 97bd 63a9 993d
00000030: 67b7 b7bb 6737 353d 7dfb e43d 47a0 d2bb
00000040: 7d78 183e 3cd8 2dbe c486 82bd 4939 04be
00000050: 32db e1bd e098 e93d a47a 24be 9706 5b3c
00000060: fda7 07be 3831 0dbe 87b0 ed3c e2ba 92bc
00000070: 7484 503e 5f49 39be b6ec c2ba 9c07 16bd
00000080: 6cf4 663e 849a 70bd 49d9 453e 030b 5fbe
00000090: 9f41 b43c bbff 2f3d f0d6 febc 2039 9c3d
000000a0: 6571 b5bd ad5a 40be 9a5a ccbd cd74 4a3c
000000b0: a5ab 56be 5fda 313d ae79 53bd 34fb cc3d
000000c0: 525b 293e 2ab8 21bd 480b 8f3d 6285 dc3d
000000d0: 95b3 523d ca39 eebc d9d6 8f3d 492b 30be
000000e0: b54d bdba 22cc 5dbe 7157 31bd ab77 bfbd
000000f0: 126d 69bd 872d 04be 1c66 b23d fc2b 073e
00000100: 54ca ab3c 2683 7dbd c963 753d 4e9a f23d
00000110: 2f0c 453d 4cfe 48bc ff6f 55bd 65c6 0a3d
00000120: c156 d8bd a883 ce3d 6757 0bbe 62ce 683d
00000130: f0c7 af3d 75de e3bd 6561 f1bd 43e3 703d
00000140: 987c 0cbe 64ab 1abc f6d5 86bd 4d80 8abd
00000150: f27b 143e 63b3 2abe 67bb 143e 784a 9abd
00000160: 26f9 bc3d d88e 943d 3c90 f8bc cfcd cc3d
00000170: 4f2d 0e3e adc8 f7bd 6e9b a3bd f40c 16be
00000180: 51a1 debd e0e3 e4bb 5d15 bbbd 4b42 a43c
00000190: 1b33 e63c d397 0f3e 44ee 6bbb d876 263e
000001a0: c3f2 70bd e1e3 4139 6063 4dbe 1cf9 3cbe
000001b0: dd63 29bd 8924 a53d 277a 11bc 0528 ab3d
000001c0: 0a71 a63d 965f 08be e2f4 243e 78a2 053d
000001d0: 6450 033d 1692 223d 8a0f 59be bede 09be
000001e0: 9544 b53d 3bda 2fbe 2015 e03d ed37 483e
000001f0: 17c7 733d e20a 9bbd 31cf 4e3c 1cbf bb3d
00000200: 6c2f 9d3d b597 00be 2a31 3a3e 011f 523d
00000210: 90b6 d7bd fc20 093e 06cf 80bd 1fe6 04bd
00000220: 73a1 1f3e 7bd3 54bd 3666 c9bd 0498 53be
00000230: 05b9 48bb 10bf c1bd 92ab eabd adbb 1ebd
00000240: 0ef4 92bd 7036 18be d4fb 443e 4205 283d
00000250: f7ec 0c3d 216b b03d bea5 10be 899a 8ebd
00000260: 8326 d1bd 5a3a d6bd e601 463e 846b cebb
00000270: 234d 74bd 0cbf a5bd 2c90 98bc cb0e 053d
00000280: 9d20 123e 060f 88bd e6c9 193e 07ee 053e
00000290: a159 0b3e 32f1 283d bdcd a9bd 6af2 023c
000002a0: 9212 e93d 7ca8 4f3d 8bee 793d d840 17be
000002b0: 0624 a1bd 31b8 d23d 431f c8bb 0a89 55be
000002c0: 86b1 c0bd 3af4 0e3e 2b79 ad3d 7ae0 053e
000002d0: bcda 623d 3346 c73d e19d 67bd b572 5b3c
000002e0: 634b 323e b6ba f03c 1072 68bb c8e4 bebc
000002f0: 1be5 b3bc 469a eebc 66b7 3dbe 5e67 3abd
00000300: b170 ed39 c2e7 67bd ba26 853d 6c6c e9bd
00000310: 1aac 4cbd f399 19be 926b e9bb 718f 573c
00000320: 4a7e c63c 38cb 1c3d be3f 233e 0f94 40bc
00000330: 5265 41bd 352f 1dbe 0fa9 03be 44ae 173e
00000340: 8ff5 14be ad91 313e 4a31 8bbd f694 ecbc
00000350: c975 32be d041 08be e433 db3d fe0d a33d
00000360: 125f b73d 4558 0ebe e08b f5bd ea98 1cbe
00000370: 5a3a 10be e549 76bd 4f29 c83d 253f 2bbe
00000380: 9c7d cb3b d7a3 7abd f295 1a3d 7eb1 043e
00000390: 3d6b 53be d56a aabd a4bf 46bd 935d 13bc
000003a0: a261 ebbd 3c9c 583e 8b0e 9dbd a4d3 853d
000003b0: 1200 e7bd 7210 243e c5c7 2abe 08cc 14bd
000003c0: 46c3 943d 1f8f f0bd 4917 b9bd f792 4d3e
000003d0: 9c31 98bb c05e 893d 9d09 223e 42f8 263e
000003e0: af53 47be 3d5b d1bc c217 eb3d dc0f 1e3d
000003f0: f367 923d 2f59 23bd 9800 343e ec0b c73d
0.15262625 0.13822857 0.060508855 -0.169089 0.20000613 0.2010371 -0.15634353 0.10802704
0.075798675 -0.1931134 -0.073874906 0.07503011 -0.00560658 0.04424229 0.1118078 -0.006427798
0.14889713 -0.16977018 -0.06373361 -0.12912478 -0.11028136 0.11406112 -0.16062409 0.01336827
-0.13247676 -0.13788307 0.029014839 -0.017911378 0.20363027 -0.18094395 -0.0014871571 -0.03662835
0.22554177 -0.058741108 0.19321169 -0.21781544 0.022003947 0.042968493 -0.03110835 0.07628083
-0.08859519 -0.1878459 -0.099782184 0.012356949 -0.20963915 0.043421146 -0.051629715 0.10008851
0.16538742 -0.039482273 0.069845736 0.10767628 0.051440794 -0.02908029 0.07023401 -0.17204012
-0.0014442714 -0.21659902 -0.04329628 -0.09348997 -0.056988783 -0.12907992 0.08710882 0.13200372
0.020970501 -0.06189265 0.059909616 0.118458375 0.048107322 -0.01226766 -0.05210876 0.03388061
-0.10563422 0.10083705 -0.1360756 0.056837447 0.08583057 -0.11126415 -0.11786155 0.058810484
-0.13719404 -0.009440277 -0.065837786 -0.06762753 0.14500406 -0.16669993 0.14524613 -0.07533735
0.09227209 0.07253808 -0.030342214 0.100001924 0.13884471 -0.12098823 -0.0798863 -0.14653379
-0.108706124 -0.0069851726 -0.09134934 0.020051142 0.02810054 0.1402276 -0.0036000172 0.16256273
-0.058825266 0.00018490806 -0.2005744 -0.18454403 -0.041355003 0.08063609 -0.008879221 0.083572425
0.08127029 -0.13317713 0.1610904 0.032625645 0.03205909 0.0396901 -0.21197334 -0.13463876
0.088509716 -0.17173092 0.10941529 0.19552584 0.05951604 -0.07570435 0.0126226405 0.091673106
0.07675061 -0.12557872 0.18182817 0.0512991 -0.10532868 0.13391489 -0.062894866 -0.032446023
0.15588932 -0.051959496 -0.09833948 -0.20663458 -0.0030627858 -0.094602704 -0.11458506 -0.0387532
-0.07175456 -0.14864516 0.1923669 0.04102064 0.034405675 0.08614183 -0.14125726 -0.06963069
-0.10212424 -0.104603484 0.19336662 -0.006299438 -0.059643876 -0.0809308 -0.018623434 0.03248481
0.14270253 -0.066434905 0.15018424 0.13079081 0.1360841 0.041245647 -0.082911946 0.007992366
0.11380495 0.05069779 0.061018508 -0.1477083 -0.07868199 0.10289038 -0.0061072423 -0.20853058
-0.0940886 0.13960353 0.084703766 0.13073912 0.055384383 0.09730186 -0.05654705 0.0133940475
0.1741157 0.029385906 -0.0035468377 -0.02330245 -0.021959832 -0.029126298 -0.18526992 -0.045508735
0.00045288124 -0.056617506 0.06501527 -0.11397633 -0.049968816 -0.15000133 -0.007123419 0.013156758
0.024230141 0.038279742 0.15942284 -0.01175405 -0.047215767 -0.1535004 -0.1285746 0.14812571
-0.14546798 0.17340727 -0.067965105 -0.028879624 -0.17427744 -0.13306355 0.10703257 0.07961653
0.0895368 -0.1390086 -0.1198957 -0.15292707 -0.1408476 -0.060129065 0.09773504 -0.16723306
0.006210042 -0.061191406 0.037740655 0.12958333 -0.20646377 -0.08321158 -0.048522606 -0.008994478
-0.11493231 0.21153349 -0.076687895 0.06534508 -0.1127931 0.16021898 -0.16677769 -0.036327392
0.07263808 -0.11746048 -0.090376444 0.20075594 -0.004644586 0.06707525 0.1582398 0.1630564
-0.19465517 -0.025556201 0.11479141 0.038589343 0.07148733 -0.039879974 0.17578351 0.09719071

module.encoder.gru.bias_ih_l0 f4 [96]
00000000: a527 0b3e 8fee 2b3e 4925 fc3d 8fd0 0fbc
00000010: 1a9b f5bc 0277 573c 83be cdbc b731 4abd
00000020: 5ecf 01be a282 aabc 3054 6f3d f460 d6bc
00000030: 012e b8bc d4c9 0dbe 6b8f 3abe 4617 b8bd
00000040: 1afd ce3c f95c ea3d 80c8 123e 768e b83c
00000050: 4396 453e 2eff b2bc e742 0cbe 5ed5 ebbc
00000060: bb2a b23d 90c7 493d 7394 fbbc c20a e63d
00000070: 0fa1 e03d 01b5 f8bd 0b1b df3d b3d1 4ebc
00000080: 7e7c debd b230 393d f463 cc3d a276 20be
00000090: 8d50 9a3d a591 103e f181 a33d 75c4 37bd
000000a0: cfb0 7cbc d254 ddbd ec10 fb3d f43d b0bc
000000b0: c1da 15be 72f8 4fbd f180 163e 894a 993d
000000c0: a52a 6bbb 6eb9 2b3d 2ba9 413d 533b 32be
000000d0: acd0 b2bc 9b0b 9bbc df05 99bd 36b6 c6bd
000000e0: 76f6 01be c5cc adbd 5b00 dd3d dbb0 d2bd
000000f0: 8661 88bc f51a 1fbd 3d3c 283e d410 a33d
00000100: 508c 65bd 7443 f6bd 8b19 89bd a0be 963b
00000110: 5e15 583e edaf 23bc 7ae6 52be b84e 5fbe
00000120: 5eba c03c 0d8d f8bc 9a71 8fbd dd19 01bd
00000130: 80a6 e13d 4406 35be 6a5c e6bd 1016 aebd
00000140: cff7 b2bc bf9c 21be 5c3c 563e 79ea 34bb
00000150: 4139 473e bc27 363d 91a7 55be 33a1 e7bb
00000160: 5e61 683e b3cf 9e3d 30c0 fc3d d937 f7bc
00000170: ef23 483e 5d2b 673d 41e6 02be c72b 1fbd
0.13589342 0.16790222 0.12311799 -0.008777752 -0.029981185 0.013150932 -0.025115257 -0.049363818
-0.1267676 -0.020814244 0.058429897 -0.026169278 -0.022482874 -0.13846523 -0.18218772 -0.08988814
0.025267173 0.114435144 0.14334297 0.022528868 0.19295602 -0.021850195 -0.13697396 -0.028788265
0.086995564 0.049262583 -0.030710435 0.11232521 0.109682195 -0.12143899 0.1089383 -0.012623238
-0.10863589 0.045212455 0.09980002 -0.15670255 0.07534895 0.14118059 0.07983769 -0.04486509
-0.015423014 -0.10807194 0.12259087 -0.021513917 -0.14634229 -0.050774045 0.14697625 0.074849196
-0.0035883572 0.041924886 0.04728047 -0.17405443 -0.021828018 -0.018926432 -0.07471823 -0.09702723
-0.12691674 -0.08486322 0.107910834 -0.10287639 -0.016648065 -0.038844068 0.16429229 0.07962194
-0.056042016 -0.120245844 -0.06694325 0.004600361 0.21101901 -0.009990674 -0.20595732 -0.21807373
0.023526367 -0.030340696 -0.0700409 -0.031518806 0.110180855 -0.17678171 -0.11248095 -0.08500302
-0.02184668 -0.1578245 0.20921463 -0.0027605577 0.19455434 0.044471487 -0.20864703 -0.007068777
0.22693393 0.07754459 0.12341344 -0.030177997 0.19544958 0.05643784 -0.12783147 -0.03886011

module.encoder.gru.bias_hh_l0 f4 [96]
00000000: 4281 a9bd 5c48 1c3e 1b4d 3b3e 1681 433e
00000010: 06b3 fdbc cb5a 4abd 0bbf 0ebe ebd6 52bd
00000020: 74cc 01be 3a61 d739 089e 4fbb e2ea 0c3c
00000030: 6e2b 9ebd 2e6c ba3d 4f83 6bbd 091c 19be
00000040: 87a3 193e deaf 03bd 6333 4f3d da86 c53d
00000050: 9365 563c 6bb2 d33c 4109 0fbe b994 df3d
00000060: 6d75 10be d1f2 113e f431 c03d 16e6 37bd
00000070: 6b2f 003d d4b5 42be 6881 0d3e b48a 04bd
00000080: f1bd 92bd 9e26 963d c190 073c 105d efbd
00000090: f214 f23b f1cd 8bbd 84aa fa3d e9aa 59bd
000000a0: 8b53 54bd 6fa2 b2bd 6c6d 2fbe 462f e0bd
000000b0: 3059 da3d 7543 0d3d cfd7 11bd c5df c43d
000000c0: 4c6e 1b3e cc47 f83d 10dc 7f3d 7392 f7bc
000000d0: 5a86 c03d da9b 7b3d 1223 dbbd 74f2 113e
000000e0: ea4d 1bbe cec1 e53d 7881 8b3a 3e65 4c3e
000000f0: a6dd 92bd ebab fd3c 269b 91bd 58f4 8d3d
00000100: d3a2 cc3d 6ec2 ea3c 38ab 003e 4261 0d3d
00000110: 7a83 cebc e797 77bd b962 19be 81ba 933d
00000120: 9bb3 a93d 145f 37be e763 febd 1e06 0b3d
00000130: 13cb 47bd 2961 063b 0d47 37bc ba44 283d
00000140: be1d 293e bfbf 533a c203 c33d 5410 2fbe
00000150: 5677 253e 15e5 14be ca01 e63d 1c08 963c
00000160: d067 ca3d f056 8ebd bdb0 193d d2b6 b03d
00000170: 85db 383e a59e 65bd a2bd e23c 0844 c23d
-0.08276607 0.15261978 0.18291132 0.19092211 -0.030969154 -0.049402993 -0.13940065 -0.051474493
-0.12675649 0.00041080435 -0.0031679887 0.008600922 -0.07723127 0.09102665 -0.057498273 -0.14952101
0.15003787 -0.032150142 0.050586116 0.096448615 0.013085741 0.025841912 -0.13968374 0.109170385
-0.14107294 0.14252783 0.09384528 -0.04489716 0.03129522 -0.19014674 0.13818896 -0.03235884
-0.07165135 0.073315844 0.008274258 -0.11687672 0.007387751 -0.068263896 0.122395545 -0.05314151
-0.051837485 -0.08722388 -0.17131585 -0.10946517 0.106615424 0.03448816 -0.0356062 0.09612993
0.15178794 0.12123069 0.062465727 -0.0302212 0.094006255 0.06142793 -0.107000485 0.14252645
-0.1516644 0.11218606 0.0010643443 0.19960496 -0.07171182 0.030965766 -0.0710967 0.069313705
0.09991994 0.028657164 0.12565315 0.03451658 -0.025209177 -0.0604476 -0.14979066 0.07213307
0.0828621 -0.17907363 -0.124213986 0.03394138 -0.04877765 0.002050469 -0.011186373 0.041081168
0.16515252 0.00080775836 0.09522201 -0.17096072 0.16158804 -0.14540513 0.1123081 0.018314414
0.09883082 -0.06950176 0.037522066 0.0862862 0.1805249 -0.0560595 0.027678315 0.09485632

module.encoder.embedding.weight f4 [227, 32]
00000000: 92e4 d1bf 0f04 afbf 8bb0 a33d 14b5 8d3f
00000010: d7f9 713e 8a8a 263f d178 a4be de5d 8dbf
00000020: eb46 acbf c133 afbe eddb 20bf f479 b93e
00000030: 9ede 64be afe3 0f3e b86d e93f 1994 3ebd
00000040: bcd8 64bf 1aca fabb 2cf8 8a3f 4fb2 aebe
00000050: bfa5 a2bf 754f 603f 5293 b13e 2d87 d7be
00000060: c454 0640 9da0 56bf 4d06 a7be f762 ce3f
00000070: 4ab5 1ec0 dd19 7fbe 9528 f2be 878d 9a3f
00000080: fe10 0f3f 2f3d 1cbf 80d4 83be a45e 3abf
00000090: 2983 973f 5aae 083f 1fa7 2540 519b ab3f
000000a0: ee7e a7bf 96fd 2440 bcee 40bf 79d9 11be
000000b0: edeb fb3f b4f7 973e 7304 643f 621c 8c3e
000000c0: 41ec 373e dcf9 513f 7251 5cbd 6e1a c3bf
000000d0: 0069 f53f f3ba 26be 131b b93e 90bf 93bf
000000e0: 57fc b2bf bf66 bbbf 2b63 e13d 76c0 963f
000000f0: 0973 b93e e767 643e 4c5b dbbe 8231 c5be
00000100: 0076 60bf 78b9 88be c9fc 74bf 7fc6 e03e
00000110: 1775 87be 6f85 eabe 8649 02bf f16d 0f3e
00000120: 1b4c 4ebf 67ca 113f 2063 3e3f 5085 5dbf
00000130: a68a 423e 4edc 993e 41aa b73f 118e 4f3f
00000140: 321b f6be 1426 113e 4c97 1640 88c2 05c0
00000150: 8deb 6e3f 1d31 6b3e 51e2 a53e 7d04 4dbf
00000160: 02c5 39bc 3062 183f aae6 a5bf 8625 8a3f
00000170: 5bde f4be 12a1 e13f 0e61 b4bf f42e 6fbe
00000180: 4be6 dcbe 4f72 1e3f 192b ac3d 363f 10bf
00000190: c319 2a3f 766c 7a3e 9014 3a3f ae98 d7be
000001a0: efc3 e63d 5843 5abe 7f46 7a3f b7c5 8b3e
000001b0: 4219 b2be de53 f13e 40b7 c4bf 2590 1e3e
000001c0: 4a20 9cbe 1c11 8a3f c1e7 813f 01db d6bf
000001d0: dae2 b0be 43dd e23e ff4a 1a3d fd1d e73d
000001e0: b50d 46be 5b1d a3bf 540b a23e 9109 743f
000001f0: 5baf 6f3f 8ccf 0bc0 b041 e33e a720 a33e
00000200: 9acf e9be 245a e83f f805 d83e 335c a9bf
00000210: bd49 5abf 5003 163f 6b0e c5be f64d f33d
00000220: ce01 863f 19de 013f 20ab 9b3e c4ba 0ebf
00000230: ea56 a03f 0401 343f b52a 403f 74dc eabe
00000240: d7dd c5be 9527 213f a3af b33f 5f1b 84be
00000250: 310d 0e3c 4d2d 3a3f abb9 a43f ab0c d4bf
00000260: cb89 45bf 9e76 403f 4f49 513e 1f05 b3be
00000270: a1fb 5a3e 24d5 9ebe afab 03c0 3dec 1f3f
00000280: 366a b5bd d91d 08c0 5469 c6bf b25e 8a3e
00000290: e9be a5bf 7288 a4bf b6d0 f03f e1a3 c5bf
000002a0: 1c06 843f 7776 75bf d2cb 65bf a7f5 4bbe
000002b0: c1c7 65bf 162b 06bf 4635 3c3f 7900 8dbf
000002c0: cd09 803f 8fd1 4a3f fcc8 91bf 4e87 b33f
000002d0: ae82 0fc0 4d7e b7be c1f6 ae3d c790 ac3f
000002e0: 9ae1 ddbf e10f cabf b628 8a3f 6f36 16bf
000002f0: 0edc c0bf f539 10bf 6813 8d3f 82cb 4c3d
00000300: 940c a53f bb32 6a3f 8d6b 883e 656b a43f
00000310: 19f1 41bf 2c29 babe 3083 a73f d863 a8bf
00000320: 77ce 5d3e d18e 533f 0e2f c0bf 8d6d 4dbe
00000330: 7336 19bc 86ea 053f e9af 60be 8191 903f
00000340: 9b22 12bf 95e8 b13e 2706 8abc 3ff7 72be
00000350: 85b7 4f3f 8150 273f 5631 e03f 6abf 47bf
00000360: b22c 833f 07c3 92bf b4bd 62be b612 4b3d
00000370: 9768 25bf fd61 103e b327 4b3f f3ad 3140
00000380: 4a43 e53f 4611 80bf a2c3 ef3f ee7e f93e
00000390: 1d01 fabe d53c 953e 18ef 16bf ea61 f9bd
000003a0: 7cc0 9ebf ae0e 573f 6ca4 6c3f 093a c7bf
000003b0: 4cd9 80bf b28e 5d3e 3d09 e8bf 4e52 2bbd
000003c0: b27d 543f 21f7 3a3f 353e 3f3d aa62 0f40
000003d0: f5fc 03bf 48d3 083f a18b 163f badc d63e
000003e0: 2425 76bf 7f9e 0cc0 f7b4 94bf 3111 fd3c
000003f0: 1d8f eebf dd1f 7d3f 8d79 c7bf 952b 58bf
-1.6397879 -1.3673114 0.07992657 1.1070886 0.23630463 0.65055144 -0.32123426 -1.1044271
-1.3459142 -0.34219173 -0.6283558 0.36225855 -0.22350547 0.14051698 1.8236609 -0.046527956
-0.8939321 -0.007653487 1.0856986 -0.34120414 -1.2706832 0.8762124 0.3468271 -0.42095318
2.0989237 -0.83838826 -0.32621995 1.6123952 -2.479815 -0.2491221 -0.47296587 1.2074441
0.55885303 -0.6103086 -0.25748062 -0.7280066 1.1836902 0.5339104 2.5883253 1.3406774
-1.3085611 2.5779777 -0.7536428 -0.14243115 1.9681374 0.2968117 0.8906929 0.27365404
0.17961217 0.8202188 -0.05378861 -1.5242441 1.9172668 -0.16282253 0.36153468 -1.1542835
-1.3983258 -1.4640731 0.11005243 1.1777484 0.36220577 0.2230526 -0.4284309 -0.38514334
-0.87680054 -0.26704 -0.9569822 0.4390144 -0.2645652 -0.45804927 -0.5089344 0.14006783
-0.8058488 0.56949466 0.7437 -0.86531544 0.18998203 0.30050892 1.4348832 0.8107615
-0.48067623 0.14174682 2.3529844 -2.0899982 0.9332817 0.22967954 0.32399228 -0.80084974
-0.011338474 0.5952482 -1.2961018 1.0792701 -0.47825894 1.762728 -1.4092119 -0.23357755
-0.4314445 0.6189317 0.08406658 -0.5634645 0.6644556 0.24455437 0.72687626 -0.42108673
0.1126784 -0.21314752 0.9776382 0.27299282 -0.34784895 0.47134298 -1.5368423 0.15484674
-0.30493385 1.0786471 1.0148851 -1.6785585 -0.34548074 0.44309434 0.037669178 0.11285017
-0.19341166 -1.2743334 0.31649268 0.953271 0.93626946 -2.1845427 0.44386053 0.3186085
-0.456662 1.8152509 0.42192054 -1.3231262 -0.85268766 0.58598804 -0.38487563 0.11880104
1.0469301 0.5072952 0.30403996 -0.5575373 1.2526524 0.7031405 0.75065166 -0.45871317
-0.38645813 0.6295102 1.4037975 -0.25802132 0.008670137 0.72725374 1.2869161 -1.6566366
-0.7716338 0.75180995 0.20438121 -0.34964845 0.21385051 -0.31021988 -2.0573537 0.62469846
-0.08858149 -2.1268218 -1.5500894 0.27025372 -1.2948886 -1.285414 1.8813694 -1.5440637
1.0314364 -0.9588389 -0.8976413 -0.19917928 -0.89757925 -0.52409494 0.7351879 -1.1015769
1.0002991 0.7922601 -1.138946 1.4025667 -2.242351 -0.35838547 0.08543158 1.3481683
-1.7334473 -1.5786096 1.0793674 -0.5867681 -1.5067155 -0.56338435 1.1021547 0.049998768
1.2894464 0.9148366 0.26644555 1.2845274 -0.7575851 -0.36359537 1.308691 -1.315547
0.21660791 0.82639796 -1.501436 -0.20061322 -0.009351361 0.5231098 -0.21942104 1.1294404
-0.57084054 0.34747759 -0.016848637 -0.2372713 0.81139404 0.65357214 1.7515056 -0.7802645
1.0248015 -1.1465768 -0.22142678 0.04957839 -0.64612716 0.1409988 0.7935745 2.776242
1.791116 -1.0005271 1.8731577 0.48729652 -0.48828974 0.29147974 -0.5895858 -0.12176879
-1.2402492 0.84006774 0.9243839 -1.5564586 -1.0066314 0.21636465 -1.8127819 -0.04182654
0.83004296 0.7303334 0.046690185 2.240397 -0.51557857 0.5344739 0.58806807 0.41965276
-0.9615042 -2.1971738 -1.1617726 0.030891987 -1.8637425 0.98876745 -1.5583969 -0.844415

module.decoder.gru.weight_ih_l0 f4 [96, 32]
00000000: 184e 2f3d 3f6e b13d 743b 0c3e e7f9 9d3d
00000010: 6346 943b fc2f 633d f61d 163d 1a4e ce3d
00000020: 0ab2 35be 3b9c 073d c27b e7bd ec88 853c
00000030: e061 623c 3dc0 f5bd 6fea fb3c 5471 c03d
00000040: 6624 2abe 1eab 65bc 854d b33d b3a9 363d
00000050: 80b2 bc3d 138d 283e 25d0 ac3d 673e 8cbd
00000060: 1742 90bd a66f 04be 1c4c 48bd 606f d13d
00000070: ca62 a7bd b07a ec3d 8969 18be c57c b8bd
00000080: db13 d13d 0ac8 013e a53a 1fbc 9e03 35be
00000090: 4070 6dbd 0780 a838 3114 98ba e975 643d
000000a0: d14f 1b3e 9fdc ffbd 90dd c9bd aad5 6fbd
000000b0: 5155 983d cc69 8fbc 2ef7 f43b 798a 30be
000000c0: 4be3 0cbe a365 9fbd db79 1a3b dfcd 493e
000000d0: 1b78 a93d b3d7 5bbd 57fa 11be 6e27 94bd
000000e0: 6345 ac3d 4ec9 8b3d 18ee 293e 93c0 7c3d
000000f0: 3240 81bd cfaf d5bc 1aba 14be 0989 8abc
00000100: cf08 9bbc 8f81 9c3d b9c6 db3a 0e32 66bd
00000110: f196 ca3d 97b1 8ebd 278d 353d 9e99 03be
00000120: 0611 963d fb1d fe3d ef6d 3dba 07ea 513e
00000130: a532 193e c701 183e 8c94 82bd 4090 223d
00000140: 6fd3 b23c 7dc8 663d 37b8 8e3d 807f ffbd
00000150: 339d 443e 0322 96bd b9af 1ebd 48dd 42be
00000160: ad8b 32bd 3de4 b0bd 1a94 91bd a7a7 2ebd
00000170: 0ee8 debc c934 093e 9305 313e 30f0 32be
00000180: 27c1 48be 3924 17be 51fe ab3d 16cb b23d
00000190: f9d6 8abd 705d 823d 034e 1d3e b17f d3bd
000001a0: fb09 58bd e2a8 613e 9be4 97bd 19cf a0bd
000001b0: 689e 4d3e 9bfe 5bbd a489 babc 8471 d1bb
000001c0: 14ed 51bc 98a8 693e 690a 3a3e 9a27 7dbd
000001d0: aee3 433e 45ea 53be 1ee6 553e b753 90bd
000001e0: 780e 133e 96de b1bc a525 9fbd 533b c83d
000001f0: 028f ea3d 0b4a 2bbe c901 4d3d d9ab 433d
00000200: 0c4c 093e bc2f a1bd 32d0 113e 70e4 bcbd
00000210: 31b0 a73d b90b 393c cf08 d1bd ec32 bd3d
00000220: 4ebf f8bd a0d6 0abe b36e 94bc ded0 803b
00000230: 5183 f5bc b0d4 debd a812 d6bd b34f 6e3d
00000240: 80cb 853b 6ccb 47bd 2091 d93d 583c 9e3d
00000250: b2ee 9bbd 7860 44be f34c a63d 4b88 c53c
00000260: e06e 113e d3b2 bfbd 2fb5 cd3d d410 0dbe
00000270: eb75 1abe 4c27 c03c 1af4 da3d fb16 9fbd
00000280: 8b03 a83d f7b4 123d e803 2d3d edef 33be
00000290: 3adc c0bd 973a 493e 1011 5e3d a6a7 12be
000002a0: 4352 1d3d 81f5 7fbd 7394 ac3d d4d3 ec3c
000002b0: 70ed e93c a5cd aabd 7a0d 1cbe 0ab5 10bd
000002c0: d5de 85bc d44a 253d d2aa 94bd 9285 ba3d
000002d0: 02d3 b0bc 6125 203c 58f8 9e3c bb54 3dbe
000002e0: 70bc d33d 2aa3 babd 0011 adbc 8509 99bd
000002f0: 50f1 f4bc d206 80bd fd4a 1abd 0d5c e83d
00000300: ecd1 0abe 7882 98bd ba8e e6bd 2b03 543d
00000310: f2b9 293e ff53 63be 5256 2dbe bda0 bcbd
00000320: bb72 d13d 3a29 c03c fcc2 ee3d 67ec a9bc
00000330: 1b1f ca3d 3235 d3bc 9979 bbbd 7b01 d5bd
00000340: 9b15 913d 5448 c83d c7fa 16bd 91eb b13d
00000350: 8fcb 88bd ace6 00bc 22ec 743d fdbd d63d
00000360: add2 03bc d331 82bd 6ff1 9abd 1f47 1a3e
00000370: 0831 42be 7bf5 513e 7040 2a3e 97f2 dc3d
00000380: e323 48be 9493 cebd 2e37 20bb 9566 82bd
00000390: 9171 993d f652 fb3d 21b8 a43d 6f55 973c
000003a0: 5aa0 06be c2ec 72bd 7b09 c2bd a45b f0bd
000003b0: a20d 383e 62d8 5dbe 3936 04be b5b8 b8bd
000003c0: b2bc 163e abde cfbd 664e a43d 5460 4a3e
000003d0: f02b 673d 8a54 0dbc 8a8f 243e 2d89 47bc
000003e0: 5acc f23d 68e2 4a3e 47a6 673e e2de 6c3e
000003f0: e4f4 0f3e 32d1 893d 1bdb dcbd c0a2 953d
0.042799085 0.08663606 0.13694555 0.07713681 0.0045249923 0.055465683 0.036649667 0.100734904
-0.17743698 0.033107977 -0.11302902 0.016300641 0.0138172805 -0.11999557 0.030751435 0.093966156
-0.16615447 -0.014017848 0.0875502 0.04459543 0.09213734 0.16460066 0.08438138 -0.0684784
-0.07043856 -0.12933215 -0.04890071 0.10226321 -0.081731394 0.11546838 -0.14884008 -0.09008173
0.10208865 0.12673965 -0.009718572 -0.17677161 -0.057968378 8.034711e-05 -0.0011602697 0.05577651
0.15167166 -0.12493252 -0.09856713 -0.058553375 0.07438148 -0.017506503 0.007475755 -0.17240323
-0.1375858 -0.077830575 0.0023571167 0.1970744 0.082748614 -0.053672504 -0.14255653 -0.07234083
0.08411672 0.06825505 0.16594732 0.06170709 -0.063110724 -0.026084809 -0.14524117 -0.016911047
-0.018925099 0.07641899 0.0016767598 -0.05620008 0.09892071 -0.06967466 0.044324066 -0.12851569
0.07327466 0.12408062 -0.0007226159 0.2049943 0.14960726 0.14844428 -0.06375989 0.03968835
0.021829335 0.056343544 0.0696873 -0.124754906 0.19200592 -0.07330706 -0.0387418 -0.19029725
-0.043590236 -0.08637283 -0.07108326 -0.042640354 -0.027210262 0.13399042 0.17287283 -0.17474437
-0.19604932 -0.14759912 0.083981164 0.08730142 -0.06779284 0.06365478 0.1536179 -0.103270896
-0.052743893 0.2203708 -0.0741665 -0.07852001 0.20079958 -0.053709608 -0.02277071 -0.006391706
-0.0128128715 0.2281822 0.18168034 -0.061805345 0.19129822 -0.20694835 0.20888564 -0.07047217
0.14360988 -0.021712583 -0.07770852 0.0977694 0.11453058 -0.16727464 0.05005053 0.04777131
0.13407916 -0.07870433 0.14239576 -0.092232585 0.08187903 0.011294299 -0.10206758 0.09238228
-0.121458635 -0.13558435 -0.018119192 0.003931149 -0.029969843 -0.10880411 -0.10452777 0.058181476
0.004083097 -0.048777983 0.106233835 0.077263534 -0.07613887 -0.19177425 0.08120146 0.024112841
0.14202452 -0.0936028 0.10044324 -0.1377595 -0.15084045 0.023456238 0.1069109 -0.07768055
0.08203801 0.035817113 0.042240053 -0.17571993 -0.09417005 0.19651257 0.05421549 -0.14321765
0.03840853 -0.06248999 0.08426752 0.028909601 0.028555602 -0.08340005 -0.15239516 -0.035328902
-0.016341606 0.040354565 -0.07259144 0.09107508 -0.021584991 0.009774537 0.019405529 -0.18489353
0.10338676 -0.09113152 -0.02112627 -0.07472519 -0.029900223 -0.06251301 -0.03766917 0.11345682
-0.13556641 -0.0744676 -0.11257692 0.051760834 0.16574839 -0.2220001 -0.1692746 -0.09210346
0.10226961 0.023457158 0.11658284 -0.020742608 0.09869214 -0.025782201 -0.09154052 -0.10400673
0.07084199 0.097794205 -0.036860254 0.08687509 -0.06679451 -0.007867496 0.059795506 0.10485456
-0.0080458345 -0.063571595 -0.07565581 0.15066193 -0.18964016 0.205038 0.16626143 0.10788458
-0.1954494 -0.10086742 -0.0024446952 -0.06367222 0.07492364 0.12271683 0.08042932 0.018473355
-0.13147107 -0.05930782 -0.094744645 -0.11736229 0.1797395 -0.21664575 -0.1291131 -0.09019605
0.14720419 -0.101498924 0.08022766 0.19763309 0.056438386 -0.008626113 0.16070381 -0.012178701
0.11855383 0.1981293 0.22622024 0.23131898 0.14058262 0.06729354 -0.107839786 0.07306433

module.decoder.gru.weight_hh_l0 f4 [96, 32]
00000000: 617f e33d cff4 b93d 0f39 483e 58b7 cebd
00000010: 2747 9bbd 3d8e 853b 3b14 a33c c8e7 ffbc
00000020: 413d 1cbe b34f 91bd f1a3 113d 0787 c53d
00000030: 9080 073e 05b9 1ebe 72b5 653d be0f 1c3d
00000040: d416 1a3e cd61 29be ece4 acbd f7fd e5bd
00000050: c5ce e6bc 449e e23d c9b6 2a3c 5f9d 26bd
00000060: ea28 29bd 15bd b3bd d15c cabd 11ee b1bd
00000070: eecd c8bd 0455 603d a8e1 963d e02f 043e
00000080: b3b5 be3d 7ec5 c9bd da94 c73d 419e 263d
00000090: 7148 023e 0598 62be e752 543c 7c83 d73c
000000a0: a889 f4bd 2c28 00bd e845 afbd 86d8 4d3e
000000b0: 3f44 553e d689 943d 4a99 33bd 82f4 e83d
000000c0: c2e3 1bbe 2e6f 32bd 55ee 09be a59a fa3d
000000d0: 9129 b23d 6f83 b63d d7d8 64bd 7c98 813d
000000e0: 8087 81bd 7dbe 163e a5a8 ff3d 6241 0e3d
000000f0: f83d 46bd abe7 22bd d198 00be 0e73 26be
00000100: f7da 2bbe a7ad 10be 1e85 41bd e2f5 d8bd
00000110: 5665 98bc ce95 cc3c a254 783d 42ae 2abe
00000120: 1973 303e b090 5c3d 85eb 0a3d 7ca0 fe3d
00000130: c84b 1e3e 5c77 443e ba15 403d 7384 0c3e
00000140: 8395 00be bd67 b93d 400d 31be 31e2 70bc
00000150: df9d d13d 9694 aa3d b30f b3bb 7ae5 193e
00000160: 22c0 0dbd 0e24 313e 1f37 92bd ed2b f03d
00000170: 00a8 03be e1c2 393e 03d2 03bd 9b2a e0bd
00000180: 7721 0ebe 310a 253e d86b e7bd ea30 e23d
00000190: 9cd4 edbd 727c 193e 6c4e cd3d 8998 0fbe
000001a0: 1ace d2bd 2472 1bbe 8b29 acbb ddf8 023e
000001b0: 0b98 af3d e710 0b3e 81e9 003e 351a 69be
000001c0: a409 823d 5064 49be 4706 34be 2187 e1bd
000001d0: 3838 20bc 9bdf 9a3d 2416 30be 11d5 51bd
000001e0: 36d5 25bd 729d 403e e899 a03c bbc9 293e
000001f0: e349 c23c 0d22 683d 3c42 1abe 8ebd 073d
00000200: c8eb ebbd 4b06 c2bc fb17 4cbe b952 41be
00000210: f9fc efbd fcf5 fabd 3cf1 dbbd 1b1d 42bd
00000220: 579a 17be 219c 00bd 8912 243e 820a debb
00000230: 9272 0f3e 4c70 c53d ade5 fb3d a59c 0cbe
00000240: dc38 503e b501 81bc 46eb ee3d 4e4c eb3d
00000250: 499d b23c 4039 07be af30 c8bc 9c61 013e
00000260: 2ade fc3d 9828 d2bd 865f 3d3c d68b 51bd
00000270: af8b 353e c0b9 33bd 92f9 83bd e13c 9ebd
00000280: 710c 223d c98e 523d 1f75 fcbd e7c4 f1bc
00000290: 57f9 1a3e 1751 983d 2988 183d d92a 76bd
000002a0: c199 3f3e 8efb da3d 4ecb 6dbb bbae 4a3e
000002b0: a36e 10be 2dce 43bc b503 2b3d 9ee4 2e3d
000002c0: 0c6c a8bd cf69 83bd 8a9b 90bb a019 833c
000002d0: 31b3 7dbd bac8 c6bd bd68 e4bc d7d6 c7bd
000002e0: 3032 19be ea5f bdbc 2861 e0bd c264 5e3d
000002f0: 1442 6abc 54e7 edbd 446b 493d 349d 43be
00000300: 3f94 3bbd 25ae ee3d 7060 f73c dfea a0bd
00000310: 0dd1 f6bd bd8e b9bd 2b65 f93d 43da ce3b
00000320: b6d7 37bd 6868 d63d 105d ddbd 71bc bfbd
00000330: 72a7 09be bdc4 4d3d 2b81 fd3d d9d2 fbbd
00000340: e2d6 203e 9e29 babd 0885 403e a2fe 12be
00000350: 5413 2b3c c4ed afbc 5732 8c3d c906 f3bd
00000360: afec 923c e073 0abe 2c63 fb3d c805 2abe
00000370: 2daf 983d ae4d 60bd 2bb9 1d3e f433 8f3d
00000380: 7fed 8cbd 3909 12be 1666 313c f93b 76bd
00000390: 523c a53b 0618 243e cac3 48bd 0b3b 613d
000003a0: 346f 243e 1e10 d7bc a7b1 f33d ed19 163e
000003b0: b8cc 7cbd ec3f 9f3c aef8 6ebd a506 13be
000003c0: ae0c 5f3d 11e6 40be 4828 cc3d 132d dfbb
000003d0: f2f5 e8bd ca81 e8bd cde1 033e c117 2f3d
000003e0: 111b 2e3e 7bc8 fdbd 52ab 34bd 26de 163d
000003f0: 9667 1abe 9b81 853a 41ba edbd c388 1abe
0.1110828 0.09079897 0.19553016 -0.10093564 -0.075819306 0.004075794 0.019907108 -0.031238452
-0.15257742 -0.070952795 0.035556737 0.09644895 0.13232636 -0.15500267 0.056081243 0.03810095
0.1504777 -0.16541214 -0.08442101 -0.112300806 -0.028174767 0.11065343 0.010419556 -0.040677425
-0.041298784 -0.08776299 -0.098809846 -0.08687986 -0.09804903 0.054768577 0.07367259 0.12908888
0.09312 -0.09852122 0.09745188 0.040678266 0.12722947 -0.22128303 0.012959219 0.026307814
-0.11940318 -0.03128831 -0.085582554 0.20102128 0.20826815 0.072528526 -0.04384736 0.11374761
-0.15223601 -0.04356306 -0.13469823 0.12236527 0.086993344 0.08911788 -0.055870857 0.06327912
-0.06324673 0.14721103 0.12483338 0.034730323 -0.04839894 -0.039771717 -0.12558295 -0.16254827
-0.16782747 -0.14128743 -0.04724609 -0.105937734 -0.018603008 0.024973776 0.060627587 -0.16668037
0.17231406 0.053848922 0.033916015 0.12432954 0.15458596 0.19186157 0.04689572 0.137224
-0.12557034 0.0905299 -0.1729021 -0.014702366 0.1023519 0.08329122 -0.005464518 0.15028945
-0.03460706 0.1729891 -0.0713942 0.11727128 -0.12857056 0.18140747 -0.032182705 -0.10945626
-0.13879953 0.16117169 -0.112998664 0.11044486 -0.11612818 0.14988878 0.100247234 -0.14023031
-0.10293217 -0.1518026 -0.0052539757 0.12790246 0.08573922 0.13580666 0.12589075 -0.22763903
0.06349495 -0.19667172 -0.1758052 -0.11012102 -0.009779029 0.075621806 -0.17195946 -0.051228587
-0.040486537 0.1881006 0.019604638 0.1658086 0.023716873 0.0566731 -0.15064329 0.033139758
-0.11519581 -0.023684641 -0.19931023 -0.18879212 -0.117181726 -0.12253949 -0.10739371 -0.04739104
-0.1480497 -0.031398896 0.16022696 -0.006776155 0.14008549 0.096405596 0.122996666 -0.1373163
0.2033419 -0.015747884 0.116659686 0.11489163 0.021803515 -0.13205433 -0.024437277 0.12634891
0.12347062 -0.10261649 0.011558419 -0.05115875 0.17729066 -0.043878317 -0.06444086 -0.077264555
0.039562646 0.0514057 -0.123270266 -0.029512836 0.15134178 0.07437342 0.037239227 -0.060099456
0.18710996 0.106925115 -0.003628451 0.19793217 -0.14104705 -0.011951012 0.041751582 0.042698495
-0.08223733 -0.06416666 -0.004413073 0.01600343 -0.06193847 -0.09706254 -0.027881974 -0.09757774
-0.14960551 -0.023117024 -0.10956031 0.05429531 -0.014297981 -0.11616388 0.049174562 -0.19102937
-0.045795675 0.11654309 0.030197352 -0.07857298 -0.12051592 -0.09060428 0.121774994 0.00631264
-0.044883452 0.10469133 -0.10808766 -0.09362114 -0.13442782 0.050236452 0.123781525 -0.122960754
0.15706971 -0.09089969 0.18800747 -0.14354947 0.01044162 -0.02147568 0.06845539 -0.118665285
0.017935125 -0.13520765 0.12274775 -0.16603768 0.07455287 -0.05476158 0.15402667 0.06992331
-0.06881236 -0.1426133 0.010827562 -0.060115788 0.005042591 0.16024789 -0.049014844 0.05498795
0.16058046 -0.026252802 0.11899119 0.14658327 -0.061718673 0.01943966 -0.05834263 -0.14358003
0.05445545 -0.18837763 0.099686205 -0.006810793 -0.11375035 -0.1135288 0.12879105 0.042747263
0.17002513 -0.12391754 -0.044108696 0.03683295 -0.15078577 0.001018572 -0.11607791 -0.15091233

module.decoder.gru.bias_ih_l0 f4 [96]
00000000: 6ebd 71bd bf19 02be 4985 b83d ea08 a5bd
00000010: 4f4b a83d f9b7 683e f63d 0ebe 72b4 b3bc
00000020: 8744 d0bd b152 01be 54f3 09be d434 e5bb
00000030: 6b95 1dbe 396c 78bd 8985 133d ae1a 0abe
00000040: 9fcb 6cbb e47a f2bd 1c13 633d 7852 a3bd
00000050: f656 94bd 4a94 ce3c 38f7 9e3d d96b acbd
00000060: 7856 54bd 76c5 f83c 9fbb ee3d 8a8b 843d
00000070: 5bee 603e d8ef 403e 48b3 26be 3a78 adba
00000080: 3b8f 283e ab0b d9bd 9afc 32be c3f3 0cbe
00000090: 86a4 e83d eadf 23be d639 213d 5ad3 053d
000000a0: f1d4 82bd 1e04 24be 8a99 6dbd 215e f33d
000000b0: 0402 61bd 5fb0 babd 777c 5b3c 4462 afbd
000000c0: a8a4 363c 8925 1d3e 20e3 093e 18f3 87bd
000000d0: c294 613b fe09 5e3d 31ee 8fbd 4f79 e33d
000000e0: 6d3c 343d 97aa efbd e95b 093e 9fd4 11be
000000f0: 5bda 61bc 4b55 633c e960 abbd 8e7b b73d
00000100: 3206 d6bd b2c4 043e baf6 25bb c78f 70be
00000110: 1181 633e e7ac 20be 9b4e a3bd 21d0 f93c
00000120: 3b8f f43d 269a dcbd 0994 863d 535c 273e
00000130: 0f9f 3b3e f2c8 2ebd 8427 eabd 7c5e 6cbe
00000140: 976a 4c3e fe55 41be 28a0 0abe e7bb da3d
00000150: 6516 df3d 4592 d1bd 1b90 853d e943 d5bc
00000160: b7f4 d9bc a913 893d 7702 fb3d 6d6e 923d
00000170: 642e e3bd c955 763d 1bbe c53c 3270 713d
-0.059018545 -0.12705134 0.09009797 -0.08058341 0.08217489 0.2272643 -0.13890824 -0.021936629
-0.101693206 -0.126292 -0.13471729 -0.006994823 -0.1538903 -0.060650084 0.03601602 -0.1348674
-0.003613211 -0.11839846 0.055438146 -0.07974714 -0.07243149 0.025217194 0.07761997 -0.08419008
-0.051840276 0.030367594 0.1165688 0.064719275 0.21965925 0.18841493 -0.16279328 -0.0013234683
0.16460888 -0.105979286 -0.17479172 -0.13764863 0.11359505 -0.16003385 0.039361797 0.032672264
-0.063882716 -0.16017196 -0.058007754 0.11883188 -0.054933563 -0.09115671 0.013396374 -0.085636646
0.011147656 0.1534635 0.13465548 -0.06638163 0.0034420942 0.054208748 -0.07027853 0.11107122
0.04400294 -0.11702459 0.13413967 -0.14241265 -0.01378497 0.013875316 -0.083680935 0.08959113
-0.104504004 0.12965658 -0.0025324062 -0.23492347 0.22217204 -0.15690957 -0.07973977 0.030494751
0.119413815 -0.10771589 0.06571204 0.16343813 0.18322395 -0.042672105 -0.11433318 -0.23082918
0.19962536 -0.1888046 -0.13537657 0.10680371 0.10892943 -0.10232977 0.065216266 -0.026033359
-0.026605947 0.06693203 0.122563295 0.07149968 -0.11092833 0.060140405 0.0241385 0.05894489

module.decoder.gru.bias_hh_l0 f4 [96]
00000000: 6bd4 39be 1c04 0dbe c0f2 563c a410 1f3e
00000010: 038c c0bc 3d43 173e 381d 22bd c3d7 fabc
00000020: b111 a63d 0665 593d 8438 113e 2905 0a3e
00000030: 8222 8ebd d443 d33d e452 d73d c94d b0bd
00000040: f73e 38bd 66fa c63d fc6b 3b3c 18cc 2ebe
00000050: aa63 c4bb 8eb5 883d e751 30be 801a 25bd
00000060: 8ded 37bd abe2 5e3d fdc7 9d3d e187 d73d
00000070: 264b 5a3e 50f7 883d 12e5 17be a29c 13bd
00000080: 74f3 743d fa3a 2b3d 8d12 0b3c b968 873d
00000090: f0e6 673d e388 1c3d 443b 58bc 7704 16be
000000a0: 0ae2 34be 2596 08be 0f1f 0c3e 27dc 3a3c
000000b0: daec 8f3d 3aa0 47be 6319 e23d dbb5 893d
000000c0: 38a4 e93c 421e ee3d ada4 acba fdfb 0b3e
000000d0: 4764 9bbd 1ad2 e83d 90f2 0f3d b1d7 e33d
000000e0: dde6 f13d a631 43bd 78ab 19bd f28d 533c
000000f0: 624b f8bd 9670 13be a147 0dbe 46cb 263d
00000100: 42c1 04be 5031 393e a117 10be 8467 04be
00000110: ea29 6cbd 6f03 803d f091 79bd 15f8 0fbd
00000120: c2f6 f63d 24f9 10be a5db 023e 0219 d7bd
00000130: a8dd 30bd 4c70 7c3d 56b8 163c 9d41 49bd
00000140: b571 cbbd b77d 71be 843f 803c 5e0e af3d
00000150: c0ec be3d 2732 52be ebfb e73d fdd1 be3c
00000160: 76b6 fb3d 4daa d23d b19f 953d e3fa d33b
00000170: f0fb 153e 8cdd 5f3e 2a4c 9a3d 460b d7bc
-0.18147437 -0.13771099 0.0131194 0.15533692 -0.023504263 0.14771743 -0.039578646 -0.030620461
0.08108843 0.05307486 0.14181715 0.13478531 -0.069401756 0.103156716 0.10513857 -0.08608586
-0.044981923 0.097157285 0.01143932 -0.17070043 -0.005993326 0.06675254 -0.17218743 -0.040308475
-0.04490428 0.054415386 0.0770416 0.10523964 0.2131773 0.06687796 -0.14833477 -0.03603805
0.059802487 0.04180429 0.00848831 0.06611771 0.056616724 0.038216483 -0.013197724 -0.1465014
-0.17664352 -0.13338526 0.13683723 0.0114050275 0.07027598 -0.19494715 0.110399984 0.06724139
0.028520688 0.11626865 -0.0013171636 0.13670345 -0.07587486 0.11368199 0.035143435 0.11125124
0.11811612 -0.04765477 -0.03751704 0.01291226 -0.12123753 -0.14398417 -0.13796856 0.0407212
-0.12964347 0.18085217 -0.14071514 -0.12930113 -0.05765716 0.06250655 -0.060930192 -0.0351487
0.12058784 -0.1415754 0.127791 -0.10502817 -0.043180138 0.061630532 0.009199223 -0.04913484
-0.09933797 -0.23583113 0.015655287 0.08547662 0.093225 -0.20526944 0.113273464 0.02329349
0.12290661 0.102863885 0.07305849 0.006469117 0.14646888 0.21861857 0.075340584 -0.026250493

module.decoder.embedding.weight f4 [227, 32]
00000000: a1ef 233e 8073 983f 665a 893f c448 b23f
00000010: bd9f 7e3f c8bf 3c3f 4dd5 913f 0840 c23f
00000020: c8e1 5bbf f6cb 143f fef0 1bbf 0f0b 87bf
00000030: 0c2e 8c3e 039a 71bd e9e1 d73e 8f05 d8bf
00000040: c580 86be 958d 91bf f804 a2bf 4f9e 483f
00000050: d414 eabe 6f27 e13d a27e abbe f62a c63f
00000060: 4f5a 33bf 11a6 a3bd 8745 66bf ebb9 e1bf
00000070: 95a9 72bf d9bf 5fbf 086c 8f3f 9d92 34bf
00000080: 8908 893f f8ed f2bf 0b38 51bf dae8 2040
00000090: fd77 3c3e 9f84 f13f f621 b1bc c45a 283f
000000a0: 5eda 90be 9221 31bf e8b6 ec3e 29e8 afbe
000000b0: 7632 983e d5e8 793e 91d8 be3d 2f13 8b3f
000000c0: 54f5 b4bf a5c2 ffbf b81f ecbe 8a1b 9b3d
000000d0: 3b62 b33e 9476 a43f e7d1 cf3d 633b c7be
000000e0: ff86 2c3f dd0d 38be e4cd 4bbf a845 403f
000000f0: 84d2 32be 2f32 85be c252 0140 ce9a a1bf
00000100: e171 14bf ab12 603f 6a3a b63e 3333 74be
00000110: 3630 0abf db10 f63f 044a c6bf 63f9 633f
00000120: 806f f23f 2289 15bf 7e10 f23f c765 b83f
00000130: 12f0 023f ec7c 243e 4e68 653d e0c7 0440
00000140: 5359 13c0 2060 79bd c20c 59be 30f3 ab3f
00000150: 15c6 ef3f 7483 8ebf f550 ae3e 0be2 04be
00000160: a7ae 7dbf f997 5d3f bf35 8b3e 3b7a 2d40
00000170: d714 7b3d 9633 f73d f6f2 2ebf 5a71 f33f
00000180: 1793 7f3f 72c1 dc3c 9995 ec3e 29fc a13f
00000190: 42a9 0c3f 7abe 7fbf aba2 50bf 7b0b 34bf
000001a0: d3c7 843e 4a41 79bc ac73 1b40 1fc4 3ebf
000001b0: d6f7 b0bd b4b1 4bbe c440 30bf fbe1 5ebf
000001c0: 0151 78bf 770e 383f 44e0 94bf 7d97 3f3e
000001d0: e8b5 dfbe 4317 9abf cc78 77bf 1a65 083f
000001e0: a5da f5bf cfdc 10bf 78dc 2e3f e3d0 98be
000001f0: f791 b7bf dcf7 543f dcf0 a0be 398f b93e
00000200: 3507 613d 8275 0fbf c0cf 87bf 678a 54bf
00000210: e5c5 003f 9536 b5be a3d3 3140 ce98 8c3f
00000220: 1425 2d3f 8630 58bf 7d42 313e d353 79bf
00000230: c4e5 19bf 37d6 bebf 91a4 c43a 8104 a6be
00000240: 277d 473f 4fd8 84bf f592 313f 4080 05c0
00000250: dd10 a13d 298a f73f dd79 72be aee5 b7be
00000260: b13b 54bf 09b4 ffbf 3f9b 853e 4426 423f
00000270: 680d 643f 0852 f0bf e6bd ac3f a6f1 25bf
00000280: 9e01 543f 81e9 543d 9d1a c03d 6842 903e
00000290: 68fa fe3d 101a 9e3e c828 673f 30e6 973f
000002a0: f6fd 8c3f 1421 2bbf 10a1 05bf 9d96 493f
000002b0: 3506 813f 3bc8 e4bf ffeb eb3f 6a64 41bf
000002c0: e832 0ebf e7a7 753f e3b8 8b3f f606 54bf
000002d0: 385c 9d3d f698 973f dfd4 efbf b771 c4be
000002e0: ebdb a2be d8e9 183e 6723 a3bf 797f bebf
000002f0: 9463 193f 9982 7c3f da22 ea3f 9bd2 96bf
00000300: ac60 1140 b837 d6be 3dd9 6a3f c73b 803f
00000310: 7f37 a33d 9068 c1be cd2a 97bd 9237 b1bf
00000320: bdf9 d9bc 2464 a2be 60bc 8ebf 93e7 e7be
00000330: ced0 24bf 61d0 04bf 264b d73c 7011 bc3f
00000340: 4af7 64bf af95 363f e500 8cbf cf3f cc3f
00000350: 929d 893e de94 e1bd 7841 95bf f961 93be
00000360: 6c56 923b 6f7e 243f 95d9 49bf 65e0 75be
00000370: e899 53bf eda0 1d3f 8d24 673f d62c 1dbe
00000380: 53a4 dcbe 48bc 6cbf 4afb d43f 67a7 9e3f
00000390: 9e5d f03d ed3f cf3a 7203 893f 3a97 4bbe
000003a0: 3688 273f 3579 273e ec52 f33e 644b 83bf
000003b0: 0653 893e 42ed fa3f 5fd5 1bbf 8cf0 1740
000003c0: bf2b edbe 8175 603f 9849 4ebf bbc1 cabe
000003d0: 9cdd 0f3e c528 78bf 920d db3e e3a3 f73e
000003e0: c142 773f 4a43 cf3d bae5 92bf ee2b 23be
000003f0: 327a a8be 0f97 90bf 5e19 4fbd 2c39 b63e
0.1600938 1.1910248 1.0730712 1.3928456 0.9946249 0.73730135 1.1393219 1.5175791
-0.8589139 0.5812372 -0.609146 -1.055025 0.2737888 -0.058984768 0.42164543 -1.6876696
-0.26270118 -1.1371332 -1.2657766 0.7836656 -0.45719016 0.109938495 -0.3349505 1.5481861
-0.70059675 -0.07990659 -0.8994984 -1.7634863 -0.9479001 -0.8740211 1.1204844 -0.70536214
1.070573 -1.8978872 -0.8172614 2.5142121 0.18405147 1.8868598 -0.02162264 0.657635
-0.282916 -0.6919185 0.46233296 -0.34356812 0.29726 0.24405225 0.093186505 1.0865229
-1.4137368 -1.9981276 -0.4611795 0.07573612 0.3503588 1.2848687 0.101474576 -0.38912496
0.6739349 -0.17974038 -0.7961104 0.75106287 -0.17463118 -0.2601485 2.0206761 -1.2625368
-0.57986265 0.87528485 0.3559144 -0.23847656 -0.53979814 1.9223894 -1.5491338 0.8905241
1.8940277 -0.58412373 1.8911283 1.440606 0.5114757 0.16063279 0.056007676 2.0746994
-2.302327 -0.060882688 -0.21196273 1.343359 1.8732325 -1.1133866 0.3404614 -0.12976854
-0.99094623 0.86560017 0.27189443 2.7105854 0.06129917 0.12070386 -0.6833948 1.9018967
0.99833816 0.02694771 0.46207884 1.2655078 0.54945767 -0.9990002 -0.8149821 -0.7033002
0.25933704 -0.01521332 2.428935 -0.7451801 -0.08641021 -0.19892007 -0.68848825 -0.8706357
-0.969986 0.7189707 -1.163094 0.18710132 -0.4369347 -1.2038349 -0.96668696 0.5327927
-1.920735 -0.5658693 0.6830516 -0.29846868 -1.434142 0.83190703 -0.3143376 0.36242083
0.054938514 -0.5603868 -1.0610275 -0.83023685 0.50301963 -0.35393205 2.7785423 1.0984132
0.676347 -0.8444904 0.1731052 -0.9739353 -0.6011622 -1.4909123 0.0015002658 -0.3242531
0.7792534 -1.0378512 0.69364864 -2.0859528 0.078645445 1.9339038 -0.236793 -0.3591742
-0.8290358 -1.9976817 0.26095006 0.7583964 0.89082956 -1.8775034 1.3495452 -0.6482185
0.8281497 0.0519805 0.09380076 0.28175664 0.12450105 0.3087926 0.902966 1.1867123
1.1015003 -0.6684735 -0.52198887 0.7874544 1.0080019 -1.7873605 1.8431395 -0.75543845
-0.55546427 0.95959324 1.0915798 -0.8282312 0.07683605 1.1843555 -1.8736838 -0.38368008
-0.3180841 0.14932954 -1.2745179 -1.4882652 0.5991757 0.98636776 1.8291886 -1.1783022
2.2715254 -0.41839385 0.9173773 1.0018243 0.079695694 -0.37775087 -0.073812105 -1.3845084
-0.026608342 -0.31717026 -1.1151237 -0.45293865 -0.6438111 -0.5188046 0.02628095 1.4692822
-0.89439833 0.7132215 -1.0937773 1.5956973 0.2687803 -0.11014722 -1.1660604 -0.28785685
0.0044658687 0.6425542 -0.7884763 -0.24011381 -0.8265672 0.6157368 0.9029015 -0.15349135
-0.4309412 -0.92474794 1.6639187 1.2394837 0.11736606 0.0015811898 1.0704176 -0.19881907
0.65442216 0.1635483 0.47524202 -1.0257382 0.26821154 1.9603655 -0.60872453 2.3740568
-0.46322438 0.87679297 -0.80581045 -0.3960093 0.14049381 -0.9693721 0.4278379 0.48367223
0.96586233 0.10120256 -1.1476357 -0.15934727 -0.32905728 -1.12961 -0.0505613 0.35590494
