models/[CV_best_model]TRAIN_sequence1folds_0.005lr_32batch_50ep.ckpt (torch, 809175 bytes, 12 tensors)

encoder.gru.weight_ih_l0 f4 [384, 32]
00000000: 1803 b6bc e79c a5bd 957e a23d bff5 f53d
00000010: 053d f73c 639b 653c 820d 1c3d 9370 143d
00000020: b748 ebbb fbcf 8b3d 5ccf c4bc cabe c83c
00000030: e9a1 ac3d 0083 ecbd e44c e2bd fff1 973c
00000040: 22c2 1e3b 0aec f43b 8cc1 4dbd b3ae 723d
00000050: d51c c13d 9061 ecbc d2b0 36bd e8ce 5dbd
00000060: d1da cdbd 386b a1bd 810d b23d 3134 dfbc
00000070: 8a02 f1bd ff6b e6bc 18c5 f3bd 2e9c 9a3c
00000080: b7fc 003d 5d10 aa3c 82f9 7a3d 5ab9 913d
00000090: 2868 aabd 79e9 c6bd d7d8 1c3d cb18 cbbc
000000a0: a190 5c3d 51f5 a03d a614 863d b58d 14bd
000000b0: f8d9 463d 5120 71bd fa48 8ebc 84c6 dd3b
000000c0: 8531 e23d 30ce d83c 36e4 3ebc e018 f0bc
000000d0: 4c11 01bd 5838 c23d b681 3dbb 1477 dabc
000000e0: 3848 8b3c 9212 2abc f35f 18bc 8ad0 b6bd
000000f0: 384c dabd 8b16 1a3d c3bf cabd fa72 f8bc
00000100: 3770 163c ad23 30bc ce12 1c3d 3ebd 7abd
00000110: 941c 25bd ff64 4abd cd94 503d eef8 14bc
00000120: 4607 1c3d 6a22 9fbc 6ee7 933d f23c d9bd
00000130: 700d b1bc 0b1e bd3d aad2 7fbd cf8d 44bd
00000140: e524 593d 28e9 babd 5116 c23d 9416 d2bd
00000150: 9596 afbc 5def bbbd 61a5 dabb 038d 853d
00000160: 9fe2 e33d a9b6 3e3c d5aa 82bd 87ba 5e3c
00000170: 6d76 cdbb 1b45 91bd b615 a63d 94e2 7cbd
00000180: b059 69bd 3d73 363c bb81 24bd e559 ec3d
00000190: 4035 cbbd 3c9e 9bbd bab9 633d d4d9 3cbd
000001a0: 91a1 75bb 08aa 553d 9cba 1fbb d764 ed3d
000001b0: f5fc 9c3d 4995 17bd 0fc6 0f3d 310e 9c3d
000001c0: a7c5 1abd a8ad 363d bc1f 8abd 0dc1 893b
000001d0: 38a5 21bd ccb5 8abc 9a03 603d 6c50 e0bc
000001e0: 22cf cbbd 63d7 b0bd 6589 593d aac7 d7bd
000001f0: c09a 23bc 3f61 813d 095d 183c f889 22bd
00000200: ab08 02be a695 00bd 866c 8d3d d1b2 233d
00000210: 6b7f 05bd 22a4 853c 9b5c 603d ba76 f0bc
00000220: 9e52 ec3d 8870 be3d 251f f5bd 98a3 343d
00000230: 2fe2 433d 218c 8bbd 6947 89bd 5484 f33d
00000240: 7fca 0e3d a560 d23c 5a57 a0ba b971 b23d
00000250: 67d9 0cbd 731a e23b 8616 373d e52a 093e
00000260: ae46 78bd f845 3abd 77f5 943d 1a18 e2bb
00000270: 814e c63b 5fb3 8f3b d626 2bbd 3678 0b3d
00000280: 54fd 573d 9d20 33ba ef16 d1bc 2328 48bd
00000290: 8c8c 713d 8afd 8b3d 76db 87bd 9c88 7a3d
000002a0: 427e 97bd 92bb ed3c fbb0 83bc 9498 9d3d
000002b0: e7ba 92bd 96fb 223c 880b 92bb 9076 a2bc
000002c0: bdb5 3d3c 4e54 b93d 61c6 063c 5f8c 6fbd
000002d0: 921a 813d 5427 8c3d 204b 35bd 897b bf3d
000002e0: 9898 9ebd 9b69 82bd 037f 3b3d 105a 413d
000002f0: 448b 20bd 14cf 9c3c 29de babd 7288 ca3d
00000300: d0e5 39bd a33d e7bd 2921 cf3d 3c36 383d
00000310: af60 a7bc e030 e5bd bd72 093c bf9a 743c
00000320: efc6 e33d 6c4a 603d 3123 97bd 7543 66bc
00000330: 81e3 3b3d 9865 2b3c 3309 46bd f1d0 1bbd
00000340: b4ad 823d e0b2 dc3b f8bf e0bd 20d4 b93d
00000350: 3c69 5e3d 85dd 0f3c 8e48 9d3b e469 983d
00000360: 2063 913c dbf7 423d a05b 533c fb66 53bd
00000370: 08f4 0e3c bd21 c23b b03a 9abd df19 4f3b
00000380: 657e 7dbb 2e82 1dbd 7610 de3d 5852 6b3c
00000390: fe12 2bbc 00bd 033c 4593 33bd fa4b e0bd
000003a0: 69e6 433d ef3a 013d d1b9 6cbd 2f16 c03d
000003b0: d2b0 ac3d e0ae ddbb c327 f1bd 2477 813d
000003c0: 09ed 923c 4f51 8b3d db6a b93c 7339 3e3d
000003d0: f322 623d 81c5 49bc 1790 7fbc 9797 893d
000003e0: 8e6b 4fbd 5c69 d9bd 8ac3 b33d 6b82 3d3d
000003f0: 97af f8bc ccd2 12bd a329 82bc b930 0cbd
-0.022218272 -0.08086567 0.079343 0.12009763 0.030180464 0.014014098 0.03809882 0.03624017
-0.007180299 0.068267785 -0.024024658 0.024505038 0.084293194 -0.11548424 -0.11049822 0.01854801
0.00242246 0.007474427 -0.05023341 0.059248637 0.094293274 -0.028855115 -0.044602223 -0.0541524
-0.100515015 -0.078817785 0.08693982 -0.027246566 -0.117680624 -0.028127668 -0.11902827 0.0188733
0.031491008 0.020759756 0.061273105 0.07115431 -0.083206475 -0.097125 0.038292732 -0.024792096
0.053848866 0.078592904 0.06546907 -0.036267955 0.048547715 -0.05886871 -0.017368782 0.0067680497
0.11044601 0.026465505 -0.011651089 -0.029308736 -0.031510636 0.09483403 -0.0028916425 -0.026668109
0.01700221 -0.010380404 -0.00930022 -0.089264944 -0.10659069 0.037619155 -0.09899857 -0.030328263
0.009182028 -0.010750693 0.03810387 -0.06121563 -0.040310457 -0.049412724 0.050923157 -0.009092553
0.038092874 -0.01942559 0.07221876 -0.106073275 -0.021612853 0.09234246 -0.062456764 -0.0479868
0.0530137 -0.09126502 0.09476913 -0.10258213 -0.021434108 -0.09176514 -0.0066725467 0.065210365
0.11127209 0.011640229 -0.0638024 0.013594276 -0.006270221 -0.07093259 0.0810961 -0.06173952
-0.0569703 0.011135873 -0.040162783 0.115405835 -0.09922266 -0.0759854 0.055597045 -0.046106175
-0.0037480334 0.052164108 -0.0024372702 0.11591499 0.07665435 -0.037007604 0.035100993 0.07619894
-0.037786152 0.044599205 -0.06744334 0.0042039216 -0.039464206 -0.01693239 0.054690935 -0.027382098
-0.09951617 -0.08634832 0.053109545 -0.1053613 -0.009985626 0.06317376 0.009299525 -0.03968236
-0.12698619 -0.031392716 0.06905465 0.039965454 -0.03259222 0.016313616 0.054775815 -0.029353488
0.115391955 0.092988074 -0.11968831 0.044101328 0.047823127 -0.06813837 -0.067030735 0.11890474
0.034861084 0.02568085 -0.0012233064 0.08713097 -0.03438702 0.0069001256 0.044699214 0.13395269
-0.06061428 -0.045476884 0.07273381 -0.006899846 0.006051839 0.0043853964 -0.041785084 0.03405019
0.052731827 -0.0006833168 -0.02552363 -0.048866402 0.058971927 0.06835468 -0.06633656 0.061165437
-0.07397129 0.029020105 -0.016075602 0.076951176 -0.07164555 0.009947678 -0.004456941 -0.019831926
0.011578974 0.09049283 0.008226008 -0.058483478 0.06303896 0.06843439 -0.044261098 0.09349734
-0.07743949 -0.06367799 0.045775425 0.04720503 -0.039195314 0.019141711 -0.09124405 0.09889306
-0.045385182 -0.11291053 0.10113747 0.044973597 -0.020431845 -0.11190963 0.008389172 0.0149294725
0.11121928 0.054758474 -0.07379759 -0.014054169 0.04587126 0.010461234 -0.048348617 -0.03804106
0.063807875 0.0067351907 -0.10974115 0.09073663 0.054299578 0.008780842 0.004799909 0.07442072
0.017747462 0.047599655 0.012900263 -0.05161188 0.008725174 0.005924432 -0.07530725 0.0031601114
-0.0038680073 -0.038454227 0.108429834 0.014362894 -0.01044154 0.008040667 -0.04384162 -0.109519914
0.047827158 0.031550344 -0.057794396 0.09379231 0.08432163 -0.0067652315 -0.11775162 0.063215524
0.017935293 0.06802618 0.02263396 0.046441507 0.05520911 -0.012315155 -0.015598319 0.067183666
-0.05063968 -0.10615799 0.087775305 0.046266954 -0.030357165 -0.035845563 -0.015888995 -0.034226153

encoder.gru.weight_hh_l0 f4 [384, 128]
00000000: afd3 eb3d efd6 5cbb aad5 d2bd ffbd 79b9
00000010: 26bf 0c3c aaaf c9bc 6f07 b8bc c6bb dd3d
00000020: 17af 17bd a893 a0bd f675 5fbd 25aa eabd
00000030: 43fb bc3d d0a6 773d a264 2f3d 6442 a2bd
00000040: 4e87 b1bd c83e f6bc 7569 2e3d b980 40bc
00000050: 1c1e 0ebd a399 74bc fce2 52bd 2447 3fbd
00000060: 76ea 783d 1919 193d f1a8 fb3d d2f9 e0bd
00000070: a5d5 46bd bf2a c83d d25c 44bd a2c6 e33b
00000080: 5970 ce3d c3c0 9a3d a7ae 41bb bb33 d13d
00000090: cd7a 3c3d 3049 373d adfe a43d fc85 953d
000000a0: 13bb 57bd c0f1 ab3c 46ee 68bb 4052 0fbd
000000b0: 08db ea3d 40be 34bd a592 7d3c 7df8 42bd
000000c0: 48b6 8f3c 5886 cb3d 68f1 94bd 1af1 3f3d
000000d0: fefc 06bd 12cb 28bd 63a9 ed3d 39ea 9d3d
000000e0: 0ebf e6bc 7162 65bd f328 663d 65ba f0bd
000000f0: 819b 983d bfab 2fbc e132 04be 8ac6 f83c
00000100: b137 8f3d c04c 863c 7e36 bbbd 3818 de3d
00000110: 0c80 cabd 516e 383c d357 a73d abec c0bc
00000120: 12e9 5bbc 6dcf e23c ab41 243c a0fc f53c
00000130: cd85 3f3c 90a7 b5bd de81 95bd 5757 9e3d
00000140: ef0d c1bd 040b d33b 8768 6a3a 8c09 96bc
00000150: 3957 fa3d 6f7a 33bd 5c4a aa3d dbdc 42bc
00000160: 96d1 fb3c ce0d b7bc ade6 473c 8c1e d3ba
00000170: 1a7c a63d 70fd fbbd c114 ef3d d02c 5a3d
00000180: d4bf aebd aba6 bc3c d494 8fbd 9914 acba
00000190: 692d 44bd 2828 f83d a020 d73c 93ab 0bbc
000001a0: 8d38 e539 4436 86bc 6bca d93d ed94 823d
000001b0: 819e 75bb e78d d93c c8fc 0f3d ab01 98bc
000001c0: d632 ee3c 6b2d ccbc 8770 05be 7447 bcbd
000001d0: 1aca 653c 3312 133c 84c6 d13d 853e b43b
000001e0: 9210 b73d 21a6 fbbc 9e90 873d b548 813c
000001f0: 4be2 a3bd ca8f 073e 7739 473d 0b1b 4f3d
00000200: d5eb 1bbb bc8a c9bd 9ed6 fe3b a17a 46bd
00000210: 2f8b d8bc d67d d4bd 549c 0dbd e927 cb3d
00000220: b1d1 243d 76c7 ddbc f808 a63c c9da debd
00000230: d0a3 363d 3f05 17bd 7d92 81bd aec1 8c3c
00000240: 046c 2d3d 90b0 cd3d b2cf 753c 408d 0d3d
00000250: 4c86 ac3d 421b dc3d 8b4a db3d 7e05 cabd
00000260: cdc5 7c3d dfec b1bd 44a6 1fbd bd1e d33c
00000270: c330 fabc aa70 9e3b c04a 6bbd 7b52 723d
00000280: 6a8a f2bc 0518 853c e433 533d fe39 9d3c
00000290: 7deb db3d 75fa 183d 66ed 6b3d ee8f 3ebc
000002a0: de5f 5b3d 823d ac3d 24b5 b0ba 09b0 73bc
000002b0: 934c 013d 2e57 1b3b 2fd5 4fbd 10d1 52bd
000002c0: 98a5 93bd 1187 de3d 655d 29bd e149 533d
000002d0: e547 afbd 6f45 ea3c 1529 513d 4d3b df3d
000002e0: 6c44 443d 9cd8 debd c131 453c 49e5 bdbd
000002f0: 13ac 293d d535 afbd d10d 063d 23f5 c83d
00000300: 77a0 823d ea5a d53d da99 403d 8e74 ce3d
00000310: 4cab 183d a2b7 90bc 13dd b23c 0153 f9bb
00000320: 6212 d03d 0574 29bb 6267 dabc b1cf b43b
00000330: 0125 0a3c ef99 15bd 87bb dfbd cbd5 75bd
00000340: 497f 59bd d3bd 96bc 8034 ff3a d98d 6d3d
00000350: e296 d83d b1f1 f73c a011 6a3d ab9d 0fbd
00000360: de4a c3bd b1fd c5bd 1e9e 6bbb b72e 623c
00000370: f3a6 c43d 95ce d8bc 6f57 483d 556c d3bd
00000380: 53d3 9ebd 401a c5bd 3dc9 c1bd 3258 33bb
00000390: 7a25 35bd cdfa df3d 680d 473d e736 76bd
000003a0: 7cf1 84bd 3478 bfbd 36fd f43c c89f 55bc
000003b0: 4088 6cba 8a48 d4bc b946 e83c 66c9 c03d
000003c0: 271e c5bc 6256 d23d ae2e 01bd dbff 14bd
000003d0: cb13 0c3c 5b80 6cbc 27a7 593d 30af a1bc
000003e0: 67d2 50bd 7e2f 8b3d dc37 4abd f7f9 4ebd
000003f0: a962 c4bd a464 843d be2c 01bd fcfe df3d
0.11514985 -0.0033697446 -0.102946594 -0.0002381727 0.008590495 -0.024619896 -0.022464482 0.108268306
-0.037032213 -0.07840663 -0.054555856 -0.11458234 0.09227612 0.06046182 0.04282058 -0.07922819
-0.086683854 -0.030059233 0.04258104 -0.01174944 -0.034696683 -0.014929208 -0.051486 -0.046698704
0.060770474 0.03737745 0.122880824 -0.109851494 -0.04854359 0.09773778 -0.047940083 0.006951169
0.10080022 0.07556298 -0.0029553564 0.10214945 0.04601555 0.04474753 0.08056388 0.07300946
-0.052668642 0.020989299 -0.0035542413 -0.03499055 0.11467558 -0.04412675 0.015476857 -0.04760026
0.017542973 0.099377334 -0.07272607 0.04686079 -0.032956116 -0.041209288 0.116045736 0.0771069
-0.028167274 -0.056002084 0.056191396 -0.11754302 0.07451535 -0.0107221 -0.12910034 0.030368108
0.06993044 0.01639402 -0.09141253 0.10844463 -0.09887704 0.01125677 0.08171048 -0.023550352
-0.0134222675 0.027686799 0.010025422 0.030027688 0.011689615 -0.08869851 -0.07300161 0.077315025
-0.09426486 0.006440522 0.00089419674 -0.0183151 0.12223668 -0.043817934 0.08314964 -0.011893476
0.030739587 -0.02234545 0.0122009935 -0.0016107126 0.08129139 -0.12304199 0.1167388 0.053265393
-0.08532682 0.023028692 -0.070108086 -0.0013128697 -0.04789487 0.12117034 0.026260674 -0.008524793
0.00043720417 -0.016383298 0.10634311 0.063760616 -0.003747851 0.026556922 0.03515318 -0.018555483
0.029076975 -0.024924 -0.13031207 -0.09193316 0.014025236 0.008976507 0.10242942 0.005500617
0.089387074 -0.030718865 0.066193804 0.01578174 -0.08002146 0.13238445 0.048638787 0.0505629
-0.002379169 -0.098409146 0.007777049 -0.04845679 -0.026433555 -0.10375564 -0.034572914 0.09919722
0.04023904 -0.02707265 0.020267949 -0.10881574 0.044589818 -0.036870237 -0.063267685 0.017182197
0.04233934 0.10043442 0.015003132 0.034558535 0.084240526 0.107473865 0.10707577 -0.09864329
0.061712075 -0.08687758 -0.038976923 0.025771493 -0.03054083 0.004835208 -0.057444334 0.05916069
-0.029607017 0.016246805 0.05156316 0.019192692 0.10738275 0.03734823 0.057599448 -0.011630995
0.053558223 0.08410169 -0.0013481718 -0.014873513 0.031567167 0.0023703086 -0.050740417 -0.05146891
-0.07209319 0.108656056 -0.041348834 0.05158413 -0.08558635 0.028597562 0.05106457 0.108999826
0.047916815 -0.10881159 0.012035788 -0.09272248 0.04142387 -0.085551895 0.03272802 0.09812381
0.063782625 0.10417731 0.047021724 0.10080825 0.037272736 -0.017665688 0.021833932 -0.007608772
0.10159756 -0.0025856507 -0.026660625 0.005517923 0.008431674 -0.036523756 -0.1092444 -0.060018342
-0.053099904 -0.018401062 0.0019470602 0.057996605 0.105756536 0.030266615 0.057145715 -0.035062473
-0.09535764 -0.096675284 -0.00359524 0.013805083 0.096021555 -0.026465693 0.04891151 -0.10323397
-0.07755151 -0.096241474 -0.09462211 -0.00273658 -0.044225194 0.10936508 0.04859677 -0.060110953
-0.06491372 -0.09349099 0.029905897 -0.013038583 -0.00090229884 -0.025913496 0.028354036 0.09413414
-0.02406223 0.102703825 -0.031538658 -0.036376815 0.008549641 -0.014434899 0.053137925 -0.019736856
-0.050981905 0.06796168 -0.049369678 -0.050531354 -0.095891304 0.06464508 -0.03153681 0.10937306

encoder.gru.bias_ih_l0 f4 [384]
00000000: 7120 29bc c2f0 e63c e64f 83bc 7cdd 823d
00000010: 3eb5 f83d 170d 80bd fd71 453d 952e ad3d
00000020: 861a 8c3d 8969 d83d e683 893d d33d 06bd
00000030: ad48 ec3d 27d9 19bd e639 bb3d cb67 79bd
00000040: fb51 aa3d 4f6c f03c b292 e9bc 60e9 c03d
00000050: c79c 083d 36a4 bf3c 0bd0 983d 16d4 01bd
00000060: 6718 e93d d7ab ec3d 6bc0 1b3d 838c ebbc
00000070: fdef 803d ec6b ea3d 4423 953d 922c a2ba
00000080: 422d 743d 6a00 7d3c 857a 043e 3f82 673d
00000090: ae6c 8f3d 1f87 58bd fb09 be3d 3758 ccbc
000000a0: a444 e23d b300 c13d 81b4 773d bbab 153c
000000b0: 4f28 243b a7c1 f8bc d914 243d 8fcf d73d
000000c0: c42a a8bc a354 42bd b8ca ee3d a196 4a3d
000000d0: 738c 8abd 286f 303d 890c 143a 13fe 593b
000000e0: fa2d f13d a499 6ebd f58c ca3d e0db 983c
000000f0: ec49 92bc 4a3a cf3d eea1 0b3d 42c1 153c
00000100: 9a3e fbbc 27f0 083e 0979 eeba a085 bc3d
00000110: 385a 04bd 23e7 6a3d 0332 e03d 3a42 783d
00000120: 6fa5 ab3c 88c3 1f3d 2be1 c33d d80c b8bd
00000130: 37df c83d b261 fb3b 42a5 0cbd 5b6b d03d
00000140: 9f2f d4bc cc5f bd3c 09c0 bbbd 925f 993b
00000150: a5b1 7f3c 9b5a c73d a8c2 9b3d 89b1 c93d
00000160: 6519 cdbc 6bdd 2f3d cdf1 4c3d 563a 383c
00000170: c6d6 f8bc da35 83bd 4301 e33d 3599 1f3d
00000180: 95d4 ddbc 1bf2 ab3c 72a6 3d3a cf70 e33d
00000190: 6b03 4c3d f282 033e e710 ba3d 38ae 983d
000001a0: f618 14bd b98e ff3d fc92 f5bc 7ba9 eebc
000001b0: 4cf6 adbc d431 043e 5c1c b63b 5535 4dbd
000001c0: 132e aa3d e055 0f3c ec15 d4bb 15ea a73c
000001d0: eb49 ccbc 4b04 933d d0c0 5cbc f471 e7bc
000001e0: aaf2 1e3d 7182 05bd 2b0b 413c fb06 483d
000001f0: 8c30 ea3d f04f 41bd 5676 603d 94ee 1b3d
00000200: b897 5bbc 5c8d 28bc c106 d73c aa6c b1bd
00000210: 581c 3b3d 3a03 1ebc 596b 3b3c 3494 d6bd
00000220: d864 83bc d756 b3bd ec63 eebd 6d01 b8bd
00000230: 5ea4 c0bd 4bea 88ba 5474 1d3d fd75 cf3d
00000240: 2954 773d 935d 82bd fd8a 0ebe ddf9 b7bc
00000250: 98b4 19bd 18ef 5f3c 73b5 ebbd 73ab 08be
00000260: 2a6f b4bd 3647 a9bd bd17 263b 235f 4c3c
00000270: c59b 9e3c b45f 4fbb 1c99 06ba 407f 5ebc
00000280: 8ce0 f9bc 7699 cebd 485c abbd de2d 5bbd
00000290: fac4 93bd cd68 80bc c297 32bc fd93 7dbd
000002a0: 1935 98bd 70cc 223d f972 5fbc b263 b4bd
000002b0: 70ce 0f3c 1a51 ea3b a3e3 323d eb6f 03be
000002c0: d44f 96bd b7c4 31bd 699a 63bd c9cb 98bd
000002d0: 78f0 18bd 2fba e6bd 8de3 9d3c 09bc e6bc
000002e0: 7561 163d f7e6 8ebd 6073 52bd fc2a bdbb
000002f0: 73b7 143d 4b81 42bd 6297 2cbc b48f 35b9
00000300: 0c48 36bc 4fd5 99bd 2625 2dbc 868e d4bc
00000310: 956a 1cbc 6d21 83bd 39b0 4abd 3c2b dcbd
00000320: 338c 94bb 8c6e 1b3b 839a 8fbd cb87 f93d
00000330: 2269 b6bb 916a 9cbc 0e5a 513c 9afa f2bd
00000340: 5483 8e3b 2d84 b2bd 32ba a2bc 7888 163d
00000350: 943d 75bd e783 fe3a c3f6 90bd fe38 92bd
00000360: 83ab 04bc f6d1 943c caca a83c 9968 17bd
00000370: fede 103d e40c c4bd 8aea d8bd a281 e7bd
00000380: f73d 8cbd f98f 373d da01 35bd dae4 c9bd
00000390: 58b3 00bc 5836 7bbb 13bb 81bd f1ab f8bd
000003a0: 9a20 db3c 29a0 94bc ee8b 74bd e2c1 13be
000003b0: 8c17 bbbd 80e2 c53b 7797 b03c 8dc0 8c3c
000003c0: 2d19 8dbd 1954 d13c c746 ec3c b509 9dbc
000003d0: a6c6 f33c 85ea a1bd 4f7e aabd 35c7 efbc
000003e0: f4d0 aa3c d2de 06bb 6834 17bd 11af c2bd
000003f0: 6c1a 82bb 28c6 3dbd 5292 edbd 86f1 efbd
-0.010322676 0.028190974 -0.01602931 0.06389901 0.12143944 -0.06252497 0.04820441 0.084561504
0.068409964 0.10567004 0.06714611 -0.032773804 0.11537299 -0.03756061 0.091419026 -0.06089
0.08316418 0.02934852 -0.028512333 0.09419513 0.03335264 0.023393732 0.07461556 -0.0316964
0.113816075 0.11556213 0.0380253 -0.028753525 0.06295774 0.11446366 0.07282117 -0.0012372902
0.059613474 0.015441993 0.12937362 0.056520697 0.07003151 -0.052863237 0.092792474 -0.024944408
0.110482484 0.094239615 0.060474876 0.009135182 0.002504844 -0.030365778 0.040058944 0.105376355
-0.020528205 -0.047443997 0.11659759 0.049460057 -0.0676507 0.043074757 0.000564762 0.0033263012
0.117763475 -0.058251992 0.09890167 0.018659532 -0.017857514 0.1011854 0.034089975 0.0091403145
-0.0306695 0.13372861 -0.001819403 0.092051744 -0.0323126 0.057349335 0.10947039 0.060610034
0.020952908 0.039004833 0.09564432 -0.08986825 0.098082 0.0076715583 -0.03433729 0.101767264
-0.025901614 0.023116969 -0.09167487 0.0046805823 0.015606319 0.097340785 0.07605487 0.09848315
-0.025036523 0.04293577 0.050035287 0.011244377 -0.03037585 -0.06406756 0.11084225 0.03896447
-0.027078906 0.020989468 0.000723458 0.11105501 0.049807947 0.1284292 0.09085255 0.074551046
-0.036156617 0.12478394 -0.029977314 -0.029133549 -0.021235608 0.12909633 0.00555758 -0.05009969
0.08309569 0.008748502 -0.00647234 0.020497361 -0.02493759 0.07178553 -0.013473704 -0.02825258
0.03880564 -0.0325951 0.011782448 0.048834782 0.11435041 -0.047195375 0.054800354 0.038069323
-0.013402872 -0.010287609 0.026248338 -0.08663304 0.045681328 -0.009644324 0.011439168 -0.10477486
-0.016039297 -0.08756798 -0.11640152 -0.08984647 -0.094063506 -0.0010445801 0.038441017 0.10129926
0.060382996 -0.06365504 -0.13920207 -0.022458011 -0.037525743 0.013667844 -0.11509218 -0.13346653
-0.08810265 -0.082655355 0.002534374 0.012473854 0.019361386 -0.0031642737 -0.00051345094 -0.013580143
-0.03050258 -0.10087864 -0.083672106 -0.05351054 -0.07215305 -0.015674973 -0.01090044 -0.06190871
-0.074320026 0.039745748 -0.013638251 -0.08808078 0.008777246 0.0071507813 0.043674123 -0.12835662
-0.07339445 -0.043400493 -0.05556718 -0.07460744 -0.037338704 -0.112659805 0.019273544 -0.028165834
0.036714036 -0.06977647 -0.05137956 -0.0057729464 0.036307763 -0.047486585 -0.010534139 -0.00017315039
-0.011125576 -0.075113885 -0.010567939 -0.025946867 -0.0095468955 -0.0640286 -0.049484465 -0.10750434
-0.0045333146 0.0023717014 -0.07011893 0.121841036 -0.005566732 -0.019093784 0.012777818 -0.11864205
0.0043491516 -0.08716617 -0.019864175 0.03675124 -0.05987318 0.0019417972 -0.07078316 -0.07139777
-0.008097532 0.018166523 0.02060451 -0.036964986 0.035368912 -0.09572771 -0.1059161 -0.11304022
-0.06847756 0.044815037 -0.04419122 -0.09858103 -0.007855259 -0.0038331952 -0.0633451 -0.1214217
0.026748944 -0.018142777 -0.05970376 -0.14429429 -0.091353506 0.006038964 0.021556599 0.01718166
-0.068895675 0.025552796 0.028842343 -0.019169668 0.029757809 -0.07906059 -0.08324873 -0.029269794
0.02085159 -0.0020579589 -0.036915213 -0.095060475 -0.003970435 -0.046331555 -0.11600174 -0.11715989

encoder.gru.bias_hh_l0 f4 [384]
00000000: 2988 373d f5cf 683d e4bb 42bd 0654 a53d
00000010: 6159 693d aeb8 003d f755 b43d 5029 863b
00000020: 40b6 3ebb 2ff1 ad3d 4c10 c7bc 2f72 9b3d
00000030: e1fc c13d e19d b63d 8ddd 813d 811c cdbd
00000040: 6e27 0b3d a3ad 51bd 36fd 973d 81ea b03d
00000050: f324 15bd 01d7 b43c c17b be3d 9776 513a
00000060: c96e 3f3d ba52 6e3d b657 23bd e921 aa3d
00000070: 2de7 3f3d 6d16 883d bc31 cd3d b616 303d
00000080: bc1c 30bc 0933 c1bc 4c6a 01bd e6aa 1f3d
00000090: 5c2e 8ebd 2569 a13d ab8e b73d 5dc6 43bb
000000a0: 158f d6bc 4b7b c6bc adde 5cbd f42f 08bc
000000b0: 76c8 f8bc df32 41bc 4d04 1f3c a1b5 003e
000000c0: 13fa c3bb cab0 0cbd 75b1 d43d 2e02 23bd
000000d0: 7d29 833c e99f 13bd 41a1 ba3d 0f0c 993d
000000e0: aa50 0e3e 5744 a53d 5b47 d63d a84c 8abd
000000f0: 2232 5ebd 71d5 613d 5e2a 0e3d 6ce2 793d
00000100: 7a03 e13d cdaa db3d 63b1 9c3d 7c22 26bc
00000110: 934d ad3d 058b 833c d45f 7c3d 7b05 9dbd
00000120: c120 f33d 2692 a03d 8eb6 0d3d a53b 543d
00000130: 2bb3 0fbd 2eaa bd3b 8175 053c 798f 8c3d
00000140: 80b0 fbbc 30c6 bf3d 1772 82bc ee43 4dbd
00000150: 5510 953b f3d6 0b3e 7a3e 033e 1703 3fbd
00000160: 3c36 d43d 032c 963d 57b5 df3d b35d 223d
00000170: 41f4 213d 3dcf d0bd 5e0f 223c 8c77 963c
00000180: b72e 663c 5c52 1bbc 8786 b13d 498a 33bc
00000190: e7af 95bb f68e 043e 0d6d e33d ebcb bdbc
000001a0: ea50 a73d ddc7 c7bc 0fe6 a33c 40eb 773d
000001b0: aaa6 57bc a73e 753c 74fc ce3c 0d5c f6bc
000001c0: 57b8 e33c 1cc3 023d a84d 973c 7157 f33d
000001d0: 52d2 e03d c6e5 b03d d29b d53c 6dfc 3bbd
000001e0: 4564 7bbd 1737 a63d cde6 1dbd c058 38bd
000001f0: efbb bb3c a56a 1ebd cd80 56bc 3321 c23d
00000200: 6222 723c 93ac c8bd c7e2 babd 4b01 e9bd
00000210: c284 1fbb 7c0d 9bbd 28cc 523c c48d 05be
00000220: b413 dcbd 9c4d f63a ebd9 95bd c296 143d
00000230: e5b2 fdbd 4495 c1bd 9149 d93c 736c cebc
00000240: 39f8 99bd facd d0bd 4815 f6bd 5559 4fbd
00000250: 6737 99bd b4b9 cbbc 26ad 99bd ae56 a3bd
00000260: 02df fd3b 0951 44bd e1ca f9bd b330 01be
00000270: 8b6c 36bc 73c1 94bd 0882 143d 37ff b0bd
00000280: bd20 b2bc 76b3 2cbc 0571 f6bd 3bdc f9bc
00000290: c5b8 83bd a21e 3b3d fdf0 a1bd 167d aebd
000002a0: 3c8a 0b3d e0d3 a9bd 6381 4f3c f587 30bd
000002b0: 1b15 4f3c e3d8 133d f94d d53d d4dc 6dbd
000002c0: b68a edbd c728 ea3d 0db9 953c 2f13 94bb
000002d0: 2d1b 653b dacc 7cbc 3863 77bd 4444 403c
000002e0: a045 91bd 559e 863b 1d88 eb3c bc75 26bd
000002f0: 8a6a e3bd 8de5 d0bc 2f91 04ba 40dd 9dbd
00000300: 47d8 e2bb e88b da3c ca54 20bd 7dfa f5bd
00000310: d808 54bd f126 d2bd 9456 133c 875c 43bd
00000320: a06f 51bd 4710 c63b 4617 40bd b233 f83b
00000330: d1f4 893c 1761 1a3a 70c6 30bd 94f6 d8bd
00000340: 50ed bd3c f712 ffbd 1c2c 27bd 7c83 87bd
00000350: e1e1 c2bd a691 c1bd 9791 40bd 3f12 183c
00000360: 6104 bfbd 031d 0abe a96d d7bd 6893 b43c
00000370: 5fdc d93c 5360 ecbc ba1d e03c e971 0fbd
00000380: 9e84 e1bc c304 0f3d a4f8 c3bb 3b56 5bbd
00000390: 53d6 52bd 3d24 263d 1bfa 6fbd f991 c7bc
000003a0: a5a6 7bbd 1f4d aabd b991 af3c ee2c c0bd
000003b0: 806b a5bd 1d7a fa3c 9d0b 2ebd 8b2a 4bbd
000003c0: e563 073d 3068 e5b9 3fba 203d a5f6 c8bb
000003d0: 9692 d9bc 582a a7bd 360d 07be f97f 9b3c
000003e0: ff71 aabd 1da0 a9bd 9040 8dbc 9eb1 ebbd
000003f0: 5b5e fc3c e7f6 a2bb dfe6 d83b 7b8e 8ebd
0.044807587 0.05683895 -0.047542468 0.08072667 0.056970004 0.031426124 0.08805459 0.0040942803
-0.0029100329 0.08493268 -0.024299763 0.07590138 0.09472061 0.08916832 0.063410856 -0.10015202
0.03397315 -0.051190984 0.07421343 0.08638478 -0.03641219 0.022075178 0.09300948 0.00079903885
0.046736512 0.058184363 -0.03987857 0.08307249 0.046851326 0.066449024 0.10019252 0.04299041
-0.010749038 -0.023583906 -0.031595513 0.03898134 -0.06942436 0.07881383 0.08962759 -0.0029872872
-0.026191274 -0.024228713 -0.053923298 -0.008312214 -0.030369025 -0.011791914 0.009705615 0.12569286
-0.005980739 -0.034348287 0.1038541 -0.039797 0.016010994 -0.036041174 0.09112788 0.07473003
0.13897958 0.080696754 0.10462829 -0.06752902 -0.05424703 0.055135194 0.034708373 0.06100695
0.10986991 0.10725937 0.07651021 -0.010140058 0.08462062 0.0160575 0.061614826 -0.07667061
0.11871482 0.078403756 0.034597926 0.051814694 -0.035082977 0.0057881093 0.008145691 0.06863303
-0.03072381 0.09363973 -0.015923543 -0.05011361 0.004549066 0.13656215 0.12816802 -0.046633806
0.10361907 0.07332613 0.1092326 0.03964014 0.03953958 -0.101957776 0.009891359 0.018367551
0.014049224 -0.009480085 0.08668237 -0.010958263 -0.0045680883 0.1294516 0.11104784 -0.023168525
0.0816973 -0.024387294 0.020007161 0.060527086 -0.013162294 0.014968551 0.025266863 -0.03007319
0.027797861 0.031924352 0.018469647 0.118819125 0.109776154 0.08637576 0.026075277 -0.04589503
-0.06137492 0.08115976 -0.038550187 -0.045006514 0.022916762 -0.038675923 -0.013092232 0.094789885
0.014778705 -0.09798541 -0.091252856 -0.113772 -0.0024340604 -0.07570931 0.012866057 -0.1304236
-0.107459456 0.001879144 -0.07316955 0.036276586 -0.12387637 -0.09452298 0.026524337 -0.025198197
-0.07518048 -0.10195537 -0.12015778 -0.050622303 -0.0748127 -0.024868824 -0.075037286 -0.07975517
0.007747532 -0.047928844 -0.12196899 -0.12616234 -0.011134277 -0.0726346 0.03625682 -0.08642428
-0.021744126 -0.010540834 -0.120332755 -0.030500522 -0.06431726 0.04568351 -0.07907293 -0.08519952
0.034067377 -0.08292365 0.012665126 -0.04309841 0.012639309 0.03609551 0.10415263 -0.058071926
-0.11598723 0.11433559 0.018276716 -0.0045188884 0.0034958825 -0.0154297 -0.060397357 0.011735026
-0.07093358 0.00410823 0.028751427 -0.040639624 -0.11104305 -0.025500083 -0.00050570344 -0.07708216
-0.006922755 0.02667804 -0.03914336 -0.120106675 -0.051766247 -0.10261334 0.00899281 -0.047695663
-0.051131845 0.006044421 -0.046897195 0.007574522 0.01684037 0.00058891013 -0.043157995 -0.10593906
0.023184448 -0.12454789 -0.04081355 -0.066168755 -0.09515739 -0.09451608 -0.047013845 0.009281694
-0.09327007 -0.1348763 -0.10518963 0.022042945 0.026594339 -0.028854525 0.027357925 -0.035020743
-0.027529057 0.03491665 -0.005980568 -0.053549033 -0.051473927 0.040561903 -0.05858813 -0.024361597
-0.06143822 -0.08315491 0.02143179 -0.0938357 -0.080771446 0.030575806 -0.042491544 -0.04960112
0.03305425 -0.0004375591 0.039240118 -0.006132918 -0.026559155 -0.08162373 -0.13188633 0.01898192
-0.08322524 -0.08282492 -0.0172427 -0.11508487 0.030806711 -0.0049732807 0.006619319 -0.0696077

encoder.embedding.weight f4 [400, 32]
00000000: 375b ed3f fc50 42bf 1517 c73f 074d 0040
00000010: 9b00 6f3e f1f3 be3e 1602 133f 8f32 063f
00000020: 3d5a 4b3e df4f fc3e 76c7 313e a093 6d3f
00000030: c916 1fbe 4af3 1d3f 1455 883f 07f1 90bf
00000040: 7738 1ebf 704e d63d 1fbf 35bf 77bd 103e
00000050: cd57 00bf 0802 c63f 16ed 113f 483f 3f3f
00000060: ac84 edbf ec95 55bf 06b5 15bd 22e4 8fbf
00000070: cffd e63e f1e2 81be cae7 0a3f ed5d 473f
00000080: 3f7c f2be 7f05 27bd da14 7cbf 3620 e03e
00000090: c0e1 84bf c90b ecbe 8ec4 cdbf 19ed af3f
000000a0: 488e 1d3f 20be b23e 596e 243e 09a9 8cbe
000000b0: 5179 c4be 1c67 ec3d 45b7 d3be 3c6a 9c3f
000000c0: 13ee 3abd c1ce 133f a855 423e 95a3 85bf
000000d0: acb5 963d ccf2 91bf 2465 283f 711c 023f
000000e0: a4f4 013f dc8c 433f de01 13bd d2fb 0ebe
000000f0: 2f6c 93be a24b 2ebf b46a 0fbf 2235 7abe
00000100: f471 c1be 2301 813e 7b85 aa3f 5681 503f
00000110: f1a9 d73e 83b1 0abf 50d3 dcbe ec43 133e
00000120: 414a 083f 292a aabe 4b90 9f3f 0b81 d8be
00000130: f26e 06bf d33c d0bd 9b50 a23f 591e 10bf
00000140: 5cf9 713f a290 83bf 52c5 dcbf 494f debe
00000150: 7877 303f 4207 723f 5286 bcbf 91eb d03e
00000160: 70f9 d63e c80d b53f 6ad2 d1bf 30a8 1c3e
00000170: fe20 29bf ead3 c7bf 210a 313f 4f7b 283f
00000180: 4bf5 543f 3d70 2f3f 2099 f5be f90d 79bf
00000190: 8b1f 5d3f 81ba 5a3f 44cd 1f3f bdcf 8d3f
000001a0: 133b acbf 24a4 713f 14c9 703f 67f1 63be
000001b0: d7d4 c53e 71fb c2be 2b1c 84bd 2a24 70be
000001c0: 751c 95be e093 473f 3dbf eabf a239 523f
000001d0: 5d10 c2bf ba1f bd3f 3179 9fbf 840e 61be
000001e0: 7b8f 88bf 9b7a 893d ee71 a6be 9d7c 9d3e
000001f0: 525d 0fc0 846c 86bc dd3a 14c0 906e 373f
00000200: 4e9b b03f 050c 113f 9c52 85bf a2a5 9abf
00000210: d6bc 74bf 5a31 a83d 4e06 a8be 6bf7 93bf
00000220: 06bb 1940 6def 873d 9023 a2bf f971 dd3f
00000230: 55e8 b93f d46c dd3e 326b cb3e ca66 373f
00000240: f631 78be 598f f2bd ee40 ed3a 8425 9f3f
00000250: 8f9a 4e3e eac5 de3d b4a6 b73e 8840 09bf
00000260: 825e 043f 7d58 98be ba9e b23f 80fa 013f
00000270: 1568 b8be c430 a73f 5000 1fbf 7e70 603f
00000280: 73a9 c53d 33f2 843e d1da 34bf fb8a d6be
00000290: ba5d 853f 4d69 ce3e 9649 153d 0eb1 b1be
000002a0: 917e 0540 1f5f f93f bf5e 413f 6cd1 073e
000002b0: 76c2 873e 68a5 35bf 0302 f2bf 3d06 913f
000002c0: 3e34 49bd 96da 8a3e ba82 18bf d302 063f
000002d0: 2c4d a13f 62c7 a6bf 6ff8 9d3f d280 fabc
000002e0: 15f0 823d b38d cabf f906 5e3d ebab f1be
000002f0: a504 4ebf 94aa ccbe c78c 2dbf 31f3 253f
00000300: 9e7b f93e dec3 3cbf 77b6 d63e 6173 abbf
00000310: 81f9 8ebf 5569 5d3e 23cf 06bf 2873 2b3f
00000320: b033 7a3f a1e9 67bf ab3e b53e ac74 abbf
00000330: 6582 8f3f 64f5 e43e 84dc 0cbe 2338 9f3e
00000340: ddab 9c3f 17fc 8a3e c79b 713f 7c76 6abe
00000350: db70 29bf 4bdf 25c0 cbc8 e4bf 1408 853f
00000360: 610e c3be 1941 7abf 9c16 cd3e 32b7 47bf
00000370: aaa4 643f d03f 0abf fd96 42bf e792 183f
00000380: dc4b 62bf c9e9 633e 3323 8f3f b778 95be
00000390: 526d 633e 73f1 31bd ac2c 59bf 197a afbf
000003a0: dcce adbe 2bd1 833e 1e79 913f 48a9 8c3f
000003b0: a062 c93e 1de4 8cbf 8729 be3d d130 f1bf
000003c0: 676a 443f d477 afbd ad0c 8bbe 3abf f9bf
000003d0: 675e f2be 25e9 9c3f 5e23 c93e b9d1 1dbf
000003e0: 9c65 8abf d641 05bf 44c3 4dbe ae67 963f
000003f0: f164 933f 83f8 173f 7317 09bf e75d f03e
1.8543462 -0.7590482 1.5553919 2.0047014 0.23340075 0.37295488 0.5742506 0.52420896
0.19858642 0.49279687 0.17361245 0.9280338 -0.15536036 0.61699355 1.0650964 -1.1323556
-0.6180491 0.104641795 -0.7099475 0.14134775 -0.50133973 1.546937 0.5700239 0.74705935
-1.8556113 -0.8343189 -0.03654959 -1.1241496 0.45115516 -0.25368455 0.5425993 0.77877694
-0.47360417 -0.040776726 -0.98469317 0.43774575 -1.0381393 -0.4610274 -1.6075609 1.3744231
0.6154523 0.3491068 0.1605772 -0.27472714 -0.38373807 0.11543104 -0.4135076 1.221992
-0.0456372 0.57737356 0.18977988 -1.0440546 0.0735887 -1.1402221 0.6577933 0.5082465
0.50763917 0.7638681 -0.035890453 -0.1396325 -0.28793475 -0.68084157 -0.5602219 -0.24434331
-0.37782252 0.2519618 1.3321985 0.8144735 0.42121843 -0.5417711 -0.4312997 0.14381379
0.532383 -0.3323529 1.246591 -0.42285952 -0.5251304 -0.10167851 1.2680849 -0.56296307
0.9452112 -1.0278513 -1.7247717 -0.43419865 0.68932295 0.94542325 -1.4728491 0.40804723
0.4198718 1.4144831 -1.6392338 0.15298533 -0.6606597 -1.5611546 0.6915608 0.65813154
0.8318679 0.6853064 -0.47968388 -0.97286946 0.86376256 0.8544083 0.62422585 1.1079022
-1.3455528 0.94391084 0.9405682 -0.22260056 0.38638946 -0.3808246 -0.06450685 -0.23451295
-0.29123273 0.77960014 -1.8339611 0.8211919 -1.5161244 1.4775307 -1.245886 -0.21978194
-1.0668787 0.06712838 -0.32508796 0.30759135 -2.2400708 -0.016409166 -2.3160927 0.7165308
1.3797395 0.56658965 -1.0415835 -1.2081797 -0.9560064 0.08212538 -0.3281731 -1.1559881
2.40204 0.06637464 -1.2667103 1.7300407 1.4524027 0.43247092 0.3973022 0.7164122
-0.24237809 -0.11843748 0.0018101016 1.2433324 0.20176147 0.10877593 0.35869372 -0.5361409
0.5170671 -0.2975501 1.395469 0.5077286 -0.36016908 1.3061757 -0.6210985 0.8767165
0.096514605 0.25966033 -0.7064639 -0.4190291 1.0419228 0.40314713 0.03644713 -0.34705395
2.08585 1.9482154 0.75535196 0.13263482 0.2651555 -0.70955515 -1.8906864 1.1330029
-0.049122088 0.27119893 -0.5957447 0.5234806 1.2601676 -1.3029597 1.2341441 -0.030579004
0.06393448 -1.5824493 0.05420587 -0.47201476 -0.80475837 -0.3997389 -0.67792934 0.64824206
0.48727125 -0.7373637 0.41936085 -1.3394586 -1.1169893 0.21622212 -0.52659816 0.6697259
0.9773512 -0.90590864 0.35399374 -1.339498 1.1211668 0.44718468 -0.13755995 0.31097516
1.2239949 0.27145454 0.9437832 -0.2289676 -0.6618783 -2.5917537 -1.7873777 1.039309
-0.38096908 -0.9775558 0.40056312 -0.7801391 0.8931376 -0.5400362 -0.7601164 0.59599155
-0.88397 0.2225715 1.1182617 -0.2919366 0.22209671 -0.043443155 -0.8483379 -1.3709136
-0.33946884 0.2574552 1.1365087 1.098916 0.39333057 -1.1007115 0.092852645 -1.8843023
0.7672486 -0.08567777 -0.27158108 -1.9511483 -0.47337648 1.225865 0.39284796 -0.61648136
-1.0812259 -0.5205358 -0.20094019 1.175039 1.151518 0.59363574 -0.53551406 0.46946642

decoder.gru.weight_ih_l0 f4 [384, 32]
00000000: 8232 463d dfd6 1b3d e81a a7bb 6575 0a3e
00000010: fde7 15be 4e3a db3c e5b3 a6bc c849 a93d
00000020: aa5b b13c fbc0 3abd cb68 c93d 880c d33c
00000030: 87f0 c5ba 7fb6 fbbc 0a8d 28bd 0e0d 003e
00000040: 1f04 b13b 42ec fdbd d9ea fe3c 69d2 00be
00000050: 9f70 853d 6d1e f2bb 3583 26bd 8a38 f13c
00000060: 45da d4bc 2303 f6bc dfba 3e3c e0e9 e53d
00000070: c158 96bd ebb1 e33c 06bd 03bd 8bd9 843d
00000080: 71a6 9f3d f1eb 913d 6d33 febd 1421 c73d
00000090: bd2a 8dbd bfd4 a6bc 2084 4b3d 9a49 913d
000000a0: 610e 46bc 2cc8 883d bd48 4a3c f1b5 7bbc
000000b0: 47ae 853c b441 3e3d d3bb 0ebd e729 633d
000000c0: 8e1d e0bd 6d6e 02bb 9ae5 963c 36dc a6bd
000000d0: 9ffd 67ba 1aa1 983d b555 8a3d 83d6 68bc
000000e0: fd40 cdbd fc64 a1bc 07d9 eb39 0033 f43d
000000f0: 0195 ba3c 9c2e a53c 6147 6b3d 5c88 0b3d
00000100: 9a7e a53d 7674 383d ec8e a8bd 91cf 20bd
00000110: 8b20 97bc b8a0 a1bc be8b 083e de19 a7bd
00000120: 592b 87bc e283 dc3d e561 953d 8e9c 0a3d
00000130: 2d06 cabd 0e37 eb3c 4483 d5bd 8c9f e83b
00000140: 802f bc3c edf7 0ebd c101 013d 3c92 14bd
00000150: 86e6 c2ba 1d25 c33d fc8b c3bd 1278 dbbd
00000160: e19f 193c 35ca f83d 49a3 103d 8d92 b93c
00000170: fdb5 62bd 71ac 49bd ae2b 13bd 665b 83bc
00000180: 9a25 833c beed 253d de5a cf3c 7d49 e83d
00000190: 0a74 a3bd efcc eebd 4b90 813d 6f0d 593d
000001a0: 3913 dbbd 88aa 353d 14ac a0bb 8495 583c
000001b0: b12a 2cbd 0350 033d bf8b cebd 67ad ad3d
000001c0: 6b29 e13c 5e78 22bd b634 733d c25a f8bc
000001d0: 24b2 793d b4dd b63d 1645 d83d 9a6d d7bd
000001e0: 43f2 d1bc 5249 03bd 9b71 363d 0acb 063e
000001f0: d46e a23c d284 343d a95f efbc 7a7a af3d
00000200: fa03 593d d800 cc3d 0c84 eebd 90a8 2ebc
00000210: d9b4 dbbd c158 fd3c b02a 613d f57e 373d
00000220: bb60 283c c2ac 9f3d edd2 8b3d f346 d4bc
00000230: 9499 07bd 8b19 063d 56f1 07be ff1d de3d
00000240: 7f54 5ebc 226e 313c edbb a03c 205a 15bd
00000250: 39ba ea3c 813e 0b3b 1606 8cbd 1795 e7bd
00000260: 9cd7 3dbd e040 0d3e dc6d afbd 18c9 b53d
00000270: cd30 823d d601 b43b 6a0a 093e 506e 873c
00000280: 9174 123c d504 7b3d 12f6 213c b152 723d
00000290: 2d82 f1bd 8039 21bd 8f31 453d 1ced 483c
000002a0: 3aaf b9bd e250 9bbc d632 493d 5a18 a2bd
000002b0: 1965 9dbd f0ea 5b3d f32f ffbd 0287 543d
000002c0: e48d fcbd f4a4 b93c c713 41bc 194e 2fbd
000002d0: 5d0e 5d3a b371 b13c 1b08 613c 75df 75bb
000002e0: 9260 a83b 8116 1c3d 574d 04bd c596 533c
000002f0: 37b6 b53c f2a4 88bc 6f28 ea3c 6c2c 703d
00000300: b096 24bd d70c fe3d fdfb 603c 0115 e13c
00000310: a6c9 1abd 2bc3 63bd b5e2 98bc e385 d8bc
00000320: 4cb7 a0bd e6e6 883c af14 e23d 584e 023d
00000330: d3c3 e4bd cd11 403d f403 9d3b 9fb4 c33c
00000340: 9104 64bd 9d73 89bc 9575 fc3d a0c8 a1bb
00000350: 3fa2 383d 7dbc f1bb adf8 803d 26d1 aabd
00000360: 0820 e9bd a14f f0bb 390c c0bc 9881 fa3d
00000370: 7b6e d93b 9b00 edbd 916d 813d 1823 a63d
00000380: 042b 89bb a89a f03c ab7d bfbd a460 053d
00000390: e493 263d 4656 f53a 3850 4c3d ae11 1c3d
000003a0: b2f5 a9bd 35b4 b53d 88a3 d23a 522d e1bc
000003b0: ca0f 54bc ffa4 bcbb ae39 423c a50f 643d
000003c0: b06f 7bbd 7792 d3bd 62eb 423d 2117 58bd
000003d0: 3b6c 2f3c 17dd f13c e5c5 51bd 511b 063c
000003e0: d062 4dbc 11b8 963c 46f8 82bd 95a3 a63d
000003f0: 6cbb cd3c 6000 ebbd f985 ab3b c4e7 c63c
0.04838801 0.038046714 -0.005099643 0.13521345 -0.14639278 0.0267612 -0.020349452 0.08266026
0.021650154 -0.045594197 0.09834441 0.025762811 -0.001510159 -0.03072667 -0.04115013 0.1250498
0.0054021026 -0.12398578 0.031117843 -0.12580265 0.065156214 -0.007388881 -0.040652473 0.029445905
-0.025982985 -0.030030793 0.011641233 0.11226249 -0.07341147 0.027794799 -0.03216269 0.064868055
0.07795418 0.071250804 -0.124121524 0.09723106 -0.06892917 -0.020365117 0.04968655 0.070941165
-0.012088389 0.06678805 0.012346444 -0.015363202 0.016318453 0.046449378 -0.034847092 0.055459883
-0.10943137 -0.0019902245 0.01842003 -0.08147471 -0.0008849743 0.07452603 0.067546286 -0.0142113
-0.10022161 -0.019701473 0.0004498439 0.1192379 0.022776129 0.020163827 0.05744112 0.03406559
0.08080788 0.04503294 -0.08230385 -0.03926045 -0.018448135 -0.019729957 0.13334557 -0.08159231
-0.016500162 0.10767342 0.072940625 0.03384071 -0.09864459 0.028712776 -0.104254276 0.0070990976
0.022971869 -0.03490441 0.031495813 -0.036272272 -0.0014869727 0.09528563 -0.09548184 -0.10716261
0.009376497 0.12147943 0.03531197 0.022652889 -0.05534934 -0.04923672 -0.035930328 -0.016034793
0.01600914 0.04050993 0.025311884 0.11342142 -0.07981117 -0.11660182 0.0632635 0.052991327
-0.10697026 0.044352084 -0.004903326 0.013219241 -0.0420329 0.032058727 -0.10085248 0.084803395
0.02748557 -0.039665572 0.05937644 -0.030316714 0.060960904 0.08929005 0.10560052 -0.10518952
-0.025628215 -0.032052346 0.044541936 0.13163391 0.019828238 0.04407198 -0.029220419 0.085682824
0.052982308 0.099610984 -0.1164628 -0.010660306 -0.10727853 0.03092611 0.05497235 0.04479881
0.010276969 0.07796623 0.0682734 -0.025912737 -0.033105448 0.032739203 -0.13275656 0.10845565
-0.01356995 0.01082948 0.01962086 -0.036462903 0.028653251 0.0021246972 -0.06837098 -0.113077335
-0.0463482 0.13794279 -0.08565876 0.08876246 0.06356964 0.005493383 0.13382879 0.016532093
0.008938924 0.061283905 0.009885328 0.059160892 -0.11792407 -0.039361477 0.048142966 0.0122635625
-0.09066625 -0.018959466 0.049120747 -0.07914801 -0.076852985 0.05369085 -0.124603175 0.051886566
-0.12331751 0.022661664 -0.0117845 -0.04279909 0.0008432621 0.021660661 0.013734843 -0.0037517224
0.005138465 0.0381074 -0.03230032 0.012914364 0.022181613 -0.016680215 0.028583733 0.058636114
-0.04018277 0.12404793 0.013731954 0.027475836 -0.037789963 -0.05560605 -0.01866279 -0.02643103
-0.07847461 0.016711663 0.11039101 0.031812996 -0.11170163 0.046891976 0.004791731 0.023889838
-0.055668417 -0.016778762 0.123271145 -0.0049372464 0.045076605 -0.007377206 0.06297431 -0.08340673
-0.113830626 -0.0073337113 -0.023443328 0.12231749 0.0066354848 -0.11572381 0.06319726 0.08112162
-0.004186036 0.02937062 -0.09350141 0.032562867 0.040668383 0.0018717728 0.04988119 0.0381028
-0.08298816 0.088722624 0.0016070465 -0.02748743 -0.0129432175 -0.0057569738 0.011854572 0.055678982
-0.06138581 -0.1033067 0.04758776 -0.052756432 0.0107069565 0.02952437 -0.051214118 0.008185224
-0.012535766 0.018398317 -0.06395011 0.081366695 0.025113784 -0.11474681 0.0052344766 0.024280436

decoder.gru.weight_hh_l0 f4 [384, 128]
00000000: 68e6 f03d c161 babb f59f 81bd 0ad0 6ebd
00000010: 1418 d03d 188b 96bd 60f7 55bc 1103 01be
00000020: fcc8 edbd 32b2 99bd 098d aabd d2af 82bc
00000030: cd74 da3c 5ed3 fabd 39f7 c63d 3ce6 f9bd
00000040: 447b b0bc 5de0 20bd 501d c8bd 2a2a 333d
00000050: 79c3 873d 2e14 7a3d fd27 99bd 0da1 74bd
00000060: d52a 513d a55f 79bd 7e10 983d eea0 8cbd
00000070: 4b15 edbc 57f7 463d f5b5 e9bc a62d f5bc
00000080: b993 ffbd 3a5a b43c 9c37 43bd c342 f83d
00000090: b069 2a3d d4d9 e3bd 55ee f33d 5ed2 803d
000000a0: 6186 803d d51d 063e 7e18 d33d faca 4cbc
000000b0: 06fd a83d ed93 9fbd f910 d7bd 8d24 a1bd
000000c0: af04 c93c a22d 97bd 494e 78bd c1d2 763b
000000d0: 8c73 ef3d 9f28 93bd 5abd 6fbc b5c1 513d
000000e0: 6654 dc3d a310 a7bc be6e 633d b0dd 383d
000000f0: 2dfd 97bd f802 c33c 21a6 8bbd 287e 103e
00000100: 1985 debb e7c0 9f3d d01e 92bd 373d a03c
00000110: c7ce f9bd e368 05ba 1a76 033e b0ca 64bd
00000120: 592f 9e3d f1b3 aa3d 9027 50bc 3054 8cbd
00000130: 7244 f63d 31f6 67bd afcb ccbd 2ca5 0b3e
00000140: ea32 1cbd a256 35bd ba11 02bd f674 073e
00000150: da4e d93b 053d 7f3c 4ccd 17bd df01 d1bd
00000160: 3f17 bcbc 0c2b 0e3e e78f 303d 95a2 963b
00000170: ce69 4e3d 5257 d43d 92ac e53d ef80 d9bd
00000180: cb19 d3bd 559b 2ebd 8882 85bc 1ad7 4f3d
00000190: 3d06 db3d 76d1 a83d b1a2 3d3d df43 ed3d
000001a0: 3348 acbd 509e ffbd bc43 093e 0969 f8bd
000001b0: 683a 72bd cd2e a03b 3ab1 bcbd c67f 25bc
000001c0: 21b8 b13d 47f2 0cbe a20c 373c 6a80 90bd
000001d0: 6358 603c f1d7 a23d a9a0 7c3d 3e8f d03b
000001e0: 8f53 aebd c3b4 cbbc 9e43 19bd 98dd 49bd
000001f0: 3c2c 05be b627 f93d bf8a d5bc 60f0 c73c
00000200: c048 c83d 5677 2bbd 527d 843c d576 d33b
00000210: 8565 913d 5559 023c e57b 973d 8a0a ce3c
00000220: fcf8 c0bd 9c96 65bd 74ca 65bd 748b 71bd
00000230: 7136 d33d 9fa1 b9bd 976e 463d 2073 a1bd
00000240: 8cc2 54bd ba82 143c c331 db3b 7724 d73d
00000250: 9f16 e0bb 9d8f ff3d 3770 11bd 076d 00be
00000260: 2459 f33d 6d01 abbd 4079 803c 9c42 4d3c
00000270: c925 b4bd 7fd6 fd3c 3708 2ebd c574 d73b
00000280: e56f f13c 8805 033e 3768 f1bd fd1b 5f3d
00000290: da51 c83c 7875 0cbe 7296 3a3d ddc2 983d
000002a0: 0d79 a83d b5dd 963d bc4d fa3c d4d5 ecbd
000002b0: 7de2 e33d 0648 a7bd 5bf5 98bc 3da8 0fbd
000002c0: 80f8 a03d 1ade 1ebd f956 aabc 15e4 66bc
000002d0: 2dd4 b53a b72d e5bd d12d 143d 1c27 fe3d
000002e0: 3a4a 293d 399c 7c3d 3887 ec3d 893e 943d
000002f0: 43c4 f6bc 4175 d1bb 7025 94bd a988 e43d
00000300: 3034 933d 9925 ba3d f4aa 4abc 2172 eabb
00000310: 4ecb a4bd fdfa 453d d48e ff3c ac45 05bd
00000320: ca26 b33c fd82 d73d 0a45 523c a516 91bd
00000330: 2c94 f53d 7178 e5bc e10a 75bb 2a97 b63d
00000340: 0188 f7bd 71c6 aa3c 9abc 1ebb 329f 0c3d
00000350: 07b8 0d3e cd65 9a3d 69eb ce3d 440a f1bd
00000360: 086c aebd 4766 febb 02f4 a63c 31e8 333d
00000370: dba3 053e f665 cc3d 5230 b33d ee38 dd3c
00000380: acf0 e2bd cac9 21bd 25b2 9cbc 4045 e23d
00000390: 71c2 1dbc af55 233d 090b e63b c75d fb3d
000003a0: 6ac4 09be 30ba 51bd d673 973d 85e6 c7bd
000003b0: 12dd 91bd d154 93bc 5ecc 76bd 7e3d b53d
000003c0: 2d6e 763d 5c5f 07be ffba 9cbd ee25 a63c
000003d0: b81e 013e 026a 8a3c 7eb6 763d 45ba f53d
000003e0: 2226 99bd caf4 51bd 5aaa d1bc e050 b8bc
000003f0: d794 1abc 1a20 933d e63d 9b3d 319b bbbc
0.117626965 -0.0056879227 -0.063293375 -0.05830387 0.101608425 -0.07350749 -0.013059467 -0.12598826
-0.116106 -0.07504691 -0.083276816 -0.015952978 0.026667023 -0.12247346 0.09715123 -0.12202117
-0.021543153 -0.03927647 -0.09771216 0.043741383 0.0662908 0.0610544 -0.0747833 -0.059723902
0.05106624 -0.06088223 0.07425021 -0.068666324 -0.028940817 0.048575725 -0.028529147 -0.029928993
-0.12479348 0.02201568 -0.047660455 0.12122109 0.041604698 -0.11125532 0.119106926 0.06290124
0.06275631 0.13097318 0.10307406 -0.012499565 0.082513854 -0.077918865 -0.10501284 -0.078683
0.024538366 -0.07381751 -0.060621534 0.003766224 0.11691961 -0.07185482 -0.014632547 0.051210124
0.10758285 -0.020393675 0.055525534 0.045133293 -0.07421336 0.023805127 -0.06818796 0.14110625
-0.006790769 0.07800465 -0.07134783 0.01956044 -0.12197643 -0.00050891767 0.12838021 -0.05585736
0.077238746 0.08335102 -0.012704745 -0.06851995 0.12024774 -0.05663127 -0.09999787 0.13637227
-0.038134493 -0.044272073 -0.031755187 0.13228211 0.0066317143 0.015578513 -0.03706102 -0.10205435
-0.022960303 0.13883609 0.043105986 0.004597018 0.050393872 0.103682175 0.11214556 -0.10620295
-0.10307654 -0.042628605 -0.016297594 0.050742246 0.10694549 0.082430765 0.046297733 0.11585211
-0.084122084 -0.124813676 0.13404745 -0.12129409 -0.05913773 0.0048883916 -0.09213491 -0.010101264
0.08677698 -0.13764296 0.0111724455 -0.07055743 0.013692948 0.07951344 0.061676655 0.006364732
-0.08512031 -0.024866467 -0.037418 -0.049283594 -0.13005155 0.121657774 -0.026067136 0.024406612
0.09779501 -0.041861854 0.016173039 0.006453375 0.070994414 0.007955869 0.07396678 0.02515151
-0.0942249 -0.056051835 -0.056101277 -0.058970883 0.10313118 -0.0906403 0.04844531 -0.078832865
-0.051943347 0.009064371 0.0066892817 0.10505002 -0.006838634 0.12478564 -0.035507407 -0.1254159
0.118822366 -0.08349881 0.015682817 0.012528088 -0.087962694 0.030986069 -0.042488303 0.0065751993
0.0294723 0.12795079 -0.117874555 0.05447005 0.024453092 -0.13716686 0.045553632 0.07459042
0.082262136 0.07366506 0.030554645 -0.11564222 0.111271836 -0.08168034 -0.018671682 -0.035072554
0.078598976 -0.03878603 -0.020793425 -0.014092465 0.0013872437 -0.1119036 0.036176506 0.12409803
0.041330554 0.061672423 0.115492284 0.0723849 -0.030122882 -0.0063921516 -0.07233703 0.11158878
0.07187688 0.090892024 -0.01236986 -0.0071547185 -0.0804659 0.048335064 0.031196035 -0.032537147
0.021869082 0.10523031 0.012833843 -0.07084397 0.11991152 -0.028011533 -0.0037390518 0.08915551
-0.120864876 0.020846577 -0.0024221302 0.034331508 0.13839732 0.07538948 0.10103495 -0.11769536
-0.08516699 -0.0077636573 0.020380024 0.043922607 0.13050787 0.09980385 0.08749451 0.027004685
-0.11081061 -0.03949908 -0.019127915 0.11048365 -0.009628878 0.039876636 0.0070203585 0.12273746
-0.13453832 -0.051202953 0.07395141 -0.09760765 -0.07122244 -0.01798478 -0.060253493 0.08849619
0.060163666 -0.1321997 -0.07652854 0.020281758 0.12609375 0.016896252 0.06023263 0.11998419
-0.074779764 -0.05125884 -0.025593925 -0.022499502 -0.0094349 0.07183857 0.075801656 -0.02290115

decoder.gru.bias_ih_l0 f4 [384]
00000000: 52a9 043e f83a 0fbd 1e53 963d 9a0f 483d
00000010: 5c22 983c 2cb2 7a3d 08a5 21bd 64dd 213d
00000020: 515d 0a3e 20f3 4b3d 7791 023d e49a 433c
00000030: a22d 8a3b d12e c83d c4c8 753d 3b6c cf3d
00000040: fce9 dc3d 7631 53bc c221 0d3e bbcb 033e
00000050: 1831 6ebc d65d 02bd bfe1 1fbc 54fe a23d
00000060: ac45 ea3d 8135 783c 3b63 003e f8c3 f23d
00000070: 2965 aa3c 632a f33d e269 8d3d d5e2 8c3d
00000080: 4485 893c d0f7 5fbc 2fcd e23c 9538 8f3d
00000090: 7e41 cf3d a6b0 9e3d 92ca 9d3d 9f9a 9e3d
000000a0: ceef 7b3d aed9 633d 16d6 863d b459 a03d
000000b0: 20df 9b3d 2fd0 e03d 6422 cbbc 1495 bdbc
000000c0: 18c7 d83d 31d5 af3d 6eff e73a f66e 043e
000000d0: 65b2 063d cdd7 973d 7069 8f3d 7f43 813d
000000e0: 85ad 8a3d 21ef b2bb a2ea 4b3d 1755 163e
000000f0: e92c 0e3e 4e7d fd3d 323b 5f3d fc3a ab3d
00000100: ad75 0b3e b86c b13d d85e 9e3d 8c82 41ba
00000110: 9470 38bc 0847 023e 440f 39bd ec65 90bb
00000120: c884 0cbd 378b 02bc 9081 d23c b8bd 8e3c
00000130: 00f3 a23c a4cb 6a3d c8a9 733d 9780 f63d
00000140: 6e45 bf3d ed43 083e 056d c43d 6c69 99bc
00000150: cbb1 5e3d e6dc 883d d8ed 32bd 5b99 123e
00000160: 40b6 033e 2504 cc3d 9e6b a0bb ef3b e73c
00000170: 0a50 b63c 6fe6 cd3d be14 c6bc 7ea8 f33d
00000180: 91c9 eb3d e303 0b3e c234 0f3e 6162 babb
00000190: 9a5f 733d 0a2f 1b3b 1c26 0a3e 2c6f c93d
000001a0: 3bbe e33d 6f67 6a3d ec2a 223d 7c41 02bd
000001b0: ec83 1e3d f74c 953d eeca 943c 83a6 2b3d
000001c0: 9f23 bdbc c9fc ae3c 2883 113d e1db 0b3e
000001d0: 5178 023e f740 c53d 8ae0 09bd bf88 b3bd
000001e0: 3123 52bc 129d ddbc d130 4d3c f2c5 d7bc
000001f0: ac8a f33d 4fb3 973d 0a17 0a3e dfde d53d
00000200: deed 12be dd07 20bd f391 9fbd bc57 03be
00000210: 30fe a9bb 6b84 eb3c 2014 0cbd 3fc4 b8bd
00000220: 3976 023e b91d e6bd 0782 f5bd 2bd6 c3bc
00000230: 143c a339 e296 efbd ff89 983c e4a5 9a3c
00000240: a716 09bd 0ec4 983b 026a 8ebb 30b2 143b
00000250: 5086 fbbd 2d24 9f3d 58ee 06bd ff61 87bd
00000260: 5264 c1bd f301 a33d 6977 a0bd 6772 80bd
00000270: e47b 28bd 6108 d2b9 cfb7 043c a4b4 d4bd
00000280: 7889 27bc 8a3f bebc fd2f dcbd 8db1 a03d
00000290: 8b3a b7bd 4b6f f8bd 490e 6a3c fe21 543d
000002a0: 9ed3 9fbd 9ede 3abd fdc0 d9bc e5a3 923c
000002b0: 3786 863c 37d2 a4bd dfcc 8aba c835 c9bc
000002c0: 325e a9bc 0211 26bd 2a24 20bd 95e5 06bd
000002d0: 8119 9abc 7dae b7bb dacd 8f3c 1b79 eabd
000002e0: 122d 5d3b 66af cfbd a38a 92bd 4f53 b43c
000002f0: 3715 09bd 0d37 b8bd ccb3 cf3d c43a e8bd
00000300: 1c70 243b 8aa0 0bbe 31e1 c3bb 0e53 41bd
00000310: 430e 00be e4f0 32bb c99b a2bd de23 373d
00000320: 4c65 9bbc 94cd 8f3c c014 893c 503d 58bd
00000330: 2e92 00be 77a4 5fbc 8a54 e8bd 74ac 923d
00000340: 7192 09bc 7080 2e3c 27ed 47bd 5f9a 56bc
00000350: 8b19 ccbd b7c9 b8bd 7a58 393d ac0a c4bd
00000360: 9b55 d73c d7ba d83c c43f 73bd bd07 6dbd
00000370: ddb6 83bc 61c1 ed3c 68b5 363d d480 023e
00000380: ba01 28bc 414c 54bc 9b1e 85bd 73bd 0a3d
00000390: 2c26 eebd 7703 95bd 6580 bbbd 3381 fdbb
000003a0: f7c5 7abd 7b4d acbc 1b32 053d 1f5f 5fbd
000003b0: 2a9f 213b 171a b8bc e294 71bd 3738 60bc
000003c0: 5bed cbbd 24a2 9abd 5b60 d0bd b130 41bd
000003d0: 7ef2 d83d 6a25 0abe 41db 9ebd 6a86 573c
000003e0: a99b dfbd 4b0a c5bd ead1 463d 150a b8bd
000003f0: 3895 223c 0820 f6bd e500 76bd cd29 c53c
0.12955216 -0.034968346 0.07340072 0.048843004 0.018571071 0.061205074 -0.039464027 0.039517775
0.1351216 0.04979241 0.031877007 0.011938784 0.0042168656 0.097745545 0.06000592 0.10128065
0.107868165 -0.01289021 0.13782409 0.12870686 -0.014538072 -0.03182777 -0.009758412 0.079586655
0.1143907 0.015149475 0.12537853 0.11853784 0.02080019 0.11873319 0.06904961 0.06879202
0.016787179 -0.013669923 0.02768573 0.06993214 0.101199135 0.07748537 0.07704653 0.077443354
0.061507992 0.055627517 0.065838024 0.078296095 0.07610917 0.10977208 -0.024796672 -0.023142375
0.10584849 0.08585585 0.0017700025 0.12932953 0.032884974 0.074142076 0.070025325 0.06311702
0.067713775 -0.0054606353 0.04978431 0.14680897 0.1388432 0.123774156 0.054499812 0.0836086
0.13619108 0.086633146 0.07732934 -0.0007381819 -0.0112573095 0.12722409 -0.045180574 -0.0044066813
-0.034306318 -0.007967762 0.025696546 0.01742445 0.019891262 0.057323113 0.059488088 0.12036245
0.093394145 0.13307162 0.09591106 -0.018727027 0.054368775 0.06682758 -0.043683857 0.14316313
0.12862492 0.09961728 -0.0048956415 0.02822682 0.022254962 0.10053717 -0.024179813 0.11897372
0.11513055 0.13575701 0.1398497 -0.005687997 0.059417345 0.002367916 0.134911 0.098356575
0.11120268 0.05722755 0.039591715 -0.031800732 0.03870003 0.072900705 0.01816317 0.041906845
-0.023088275 0.021360772 0.03552547 0.13658096 0.1274121 0.09631532 -0.033661403 -0.087663166
-0.012825773 -0.027052436 0.012523846 -0.026339505 0.11891684 0.07407247 0.13485351 0.104429
-0.14348552 -0.03907 -0.077915095 -0.12826437 -0.005187772 0.028749665 -0.03419888 -0.09021806
0.12740411 -0.11236138 -0.119876914 -0.023905834 0.00031134544 -0.116987005 0.01862049 0.018877931
-0.03346887 0.0046620434 -0.004346133 0.0022689216 -0.122814775 0.07770572 -0.032942146 -0.06610488
-0.09442963 0.07959356 -0.07835276 -0.062718205 -0.041133776 -0.00040060564 0.008100464 -0.10386017
-0.010225646 -0.023223657 -0.107513405 0.07846365 -0.08946713 -0.121306024 0.014285632 0.05179023
-0.07804035 -0.04562246 -0.026581282 0.017900417 0.01642142 -0.08047908 -0.0010589621 -0.024561778
-0.020674799 -0.040543564 -0.03909699 -0.03293379 -0.01881099 -0.0056055174 0.017554212 -0.1144888
0.0033748788 -0.101408765 -0.07155349 0.02201238 -0.033467498 -0.08994875 0.101417154 -0.11339334
0.0025091236 -0.1363546 -0.0059777726 -0.047198348 -0.1250544 -0.0027304227 -0.0793987 0.04471194
-0.0189692 0.017554082 0.016733527 -0.052792847 -0.12555763 -0.013650051 -0.113442495 0.07161799
-0.008396731 0.010650739 -0.04881015 -0.013098328 -0.099658094 -0.09022849 0.045250393 -0.09572348
0.026285937 0.02645628 -0.059386984 -0.057868708 -0.016078407 0.029022874 0.044606596 0.12744457
-0.010254318 -0.0129576335 -0.06499978 0.03387208 -0.116283745 -0.072760515 -0.09155349 -0.007736349
-0.06122395 -0.02103304 0.032518487 -0.054534074 0.002466152 -0.022473378 -0.058979876 -0.013685278
-0.09957381 -0.07550457 -0.10174628 -0.047165576 0.10593127 -0.13490835 -0.07756663 0.013154605
-0.10918362 -0.09621104 0.048540033 -0.08986298 0.009923272 -0.12017828 -0.060059447 0.024067784
