models/[CV_best_model]TRAIN_sequence1folds_0.005lr_32batch_2ep.ckpt (torch, 141655 bytes, 12 tensors)

module.encoder.gru.weight_ih_l0 f4 [96, 32]
000000 7f 96 c5 3a be 93 1f be 83 cc d5 bd 2a 53 7b 3c
       0.0015074759 -0.15583703 -0.10439398 0.015339652
000010 e3 13 1f be 15 ff 15 3e 77 64 24 be d9 fa 00 3e
       -0.1553493 0.14648087 -0.1605395 0.12595691
000020 ec f7 9e bd c2 57 f5 bd a9 fe c2 bd 60 58 ab bd
       -0.07762131 -0.11979629 -0.09521229 -0.083664656
000030 20 5e 08 3e d2 33 09 be 18 7c 0f be 68 7b e3 3d
       0.13317156 -0.13398674 -0.14012182 0.11107522
000040 97 3a d5 bd a6 6d c2 3d 4c bd 31 3d 2d 29 1c 3e
       -0.10411566 0.0949357 0.04339342 0.15250082
000050 35 7c 13 bd 51 a0 a7 3c d8 fb 33 bd 7d 11 64 3d
       -0.036007125 0.020462187 -0.04394135 0.05568074
000060 c7 e1 01 be f5 6b 18 be 8a 03 d8 bd b5 04 fa 3c
       -0.12683783 -0.14884932 -0.1054755 0.030519823
000070 e1 e6 31 3e 4d 51 d9 bc 6b c4 26 bd a8 4a 8b 3b
       0.1737323 -0.026528025 -0.040714663 0.004250843
000080 05 15 d1 bd 56 29 4f 3d 00 b7 ac 3d c5 e7 43 3d
       -0.10209087 0.05057653 0.08433342 0.047828455
000090 44 57 e9 bd d0 9c 7b 3d aa 2c 8d bd 79 59 0c 3e
       -0.11393598 0.061428845 -0.068932846 0.13706006
0000a0 2b 7f a1 3d f0 bf f1 3c 2c 6e 0a be b3 f7 e2 bb
       0.078855835 0.029510468 -0.1351859 -0.0069265007
0000b0 b3 00 10 3e 02 f2 04 3d 19 29 cb bc 26 d9 8d 3d
       0.14062767 0.03245736 -0.02479987 0.069261834
0000c0 cb 52 1e be c4 bf 06 be 96 f8 e4 bd 05 0e 86 bc
       -0.1546127 -0.1315909 -0.111802265 -0.016364107
0000d0 64 bc 80 3d 59 dd 14 be 3e 78 06 3d cc ca a4 3d
       0.06285933 -0.14537562 0.032829516 0.08046493
0000e0 5c 64 0c 3e 0f 80 80 bd 91 98 ca 39 e5 1c 2d be
       0.13710159 -0.06274425 0.00038642113 -0.16905554
0000f0 86 c1 0d 3e 79 0e c6 bd 60 b4 be bd 80 5b 4c bd
       0.13843355 -0.09670729 -0.093117476 -0.04989195
000100 ee 59 5f bc ec 9b 66 bd 6d e8 10 be 3c fe 6e 3d
       -0.013632281 -0.056301042 -0.14151163 0.058347926
000110 bd 08 f8 3d 50 28 f5 3d f9 94 da bc 94 3b 41 3e
       0.12111042 0.119705796 -0.026682364 0.18870384
000120 0b 54 a9 3d a9 d7 3d bb db 00 8e bc 3d c4 e3 3d
       0.08267983 -0.0028967655 -0.017334392 0.11121414
000130 5c db 75 3a 5c 12 4b bc 73 f3 2a be 26 75 03 3e
       0.00093786954 -0.012394514 -0.16694431 0.12837657
000140 dd 2c da bd 82 c5 67 bd 37 0e 37 3d c3 19 0c be
       -0.10653088 -0.056584843 0.04469129 -0.13681702
000150 d2 c4 1c be 05 9a ea 3d 2d e6 dd 3d 5a e9 91 bd
       -0.15309456 0.11455158 0.10834918 -0.071245864
000160 ed 0c 1b be 89 d2 16 bd 48 5e b9 3d eb 1b b8 3c
       -0.1514165 -0.036821876 0.09051186 0.02247425
000170 c9 75 c3 bc 42 5c 10 3e f5 6a 38 be 91 40 fb 3d
       -0.023859875 0.14097694 -0.18009551 0.122681744
000180 c4 28 a3 bd 08 82 44 be d5 03 c8 bc cd e3 7f 3d
       -0.0796676 -0.19190228 -0.02441589 0.062473107
000190 e0 13 b2 bd 51 28 01 bd 08 5f 0d 3e ab 25 05 bc
       -0.08695197 -0.03153259 0.13805783 -0.0081266565
0001a0 96 b2 8b bc 5e f2 67 3c be 4b 09 be a6 fd d4 3d
       -0.01705293 0.014156906 -0.134078 0.10399942
0001b0 57 bc 1a be 94 35 21 be b6 dc e3 bd 81 9d 07 bd
       -0.15110908 -0.15743095 -0.11126082 -0.03310919
0001c0 5c 0e fd bb b1 d8 c6 3c 26 95 04 3d d8 1e 4c bc
       -0.007722659 0.024273248 0.0323688 -0.012458526
0001d0 32 83 fc bc b7 fb fe 3d 6c 7a 1c bd 67 9c 24 3e
       -0.030824278 0.124503545 -0.038202688 0.16075288
0001e0 6b f5 c4 bc b0 10 14 be df 16 b5 3d ca 7c c9 3c
       -0.024042806 -0.14459491 0.08842253 0.024595637
0001f0 85 1b 34 be f9 d2 0c be 9b 02 12 3e b9 cc ca 3d
       -0.17588623 -0.13752355 0.14258806 0.09902329
000200 61 4f 1c bd 8e 31 28 3e 83 08 af 3c 03 60 f2 bd
       -0.03816164 0.16425154 0.021366363 -0.11834719
000210 b5 cc e7 bd be f1 12 be 45 73 f5 bd 15 e3 20 3e
       -0.11318342 -0.1435003 -0.119848765 0.15711625
000220 5c 6d 6f bd 04 38 ed 3d 2f 59 2f 3b 96 29 2b be
       -0.058453903 0.1158295 0.0026756038 -0.16715083
000230 28 bd 07 be d6 1f 98 3c 5c 3b a4 3d 49 b1 81 bd
       -0.13255751 0.018569868 0.080191344 -0.063326426
000240 18 aa 2e bd 61 9a c2 bd 8d 02 83 bd d1 69 7a bd
       -0.042642683 -0.09502102 -0.06396971 -0.06113607
000250 e5 fe 17 3e 2f 20 47 3d 55 fd 34 3d 2f 6f e1 bc
       0.14843328 0.048614677 0.04418691 -0.027518837
000260 b0 89 df bd 9f cf 89 bc f1 c4 30 3e 81 9c 1b be
       -0.10914934 -0.016822634 0.17262627 -0.1519642
000270 f4 94 26 3e 19 f9 a8 3d 02 49 33 3d ba 37 24 be
       0.16267759 0.082506366 0.043770798 -0.16036883
000280 ce 96 fc 3d f4 25 f5 3d 6c c2 23 be 16 19 99 bd
       0.12333451 0.119701296 -0.15992135 -0.07475488
000290 1c 46 13 3e bf 4e 04 3e e7 87 8d bd 1c fd f1 bc
       0.14382213 0.12920664 -0.06910687 -0.029539637
0002a0 cf 12 06 3e 3f e9 03 be 05 9e 3c be f5 3f 0e 3e
       0.13093112 -0.12881945 -0.18419655 0.13891585
0002b0 7f 38 3c be b6 c0 f1 3d f6 a3 d8 bd 4a 53 1f 3e
       -0.18380927 0.11804335 -0.10578148 0.15559116
0002c0 43 61 1b 3e c7 98 16 3e b8 cf cf 3c c8 18 09 be
       0.15173821 0.14706717 0.025367603 -0.1338836
0002d0 2a 0b 2f be 48 9d 31 3e 7c 0e 1d 3e 6e 22 0c 3e
       -0.17094103 0.17345154 0.15337557 0.13685009
0002e0 6c 26 34 bd ae 09 e6 3d 22 01 1a bd ca c2 30 3d
       -0.043981954 0.11232315 -0.037598737 0.043154515
0002f0 53 aa d0 bd a7 b2 aa 3d 77 c7 14 be 87 24 20 be
       -0.10188737 0.083348565 -0.14529215 -0.15638934
000300 d1 79 0c 3e ad 17 ad bc 7f e4 bc bd b4 72 56 3d
       0.13718344 -0.021129454 -0.0922327 0.052355483
000310 5b 1f 80 bc 01 83 cf bc d8 c0 1f bc 87 94 32 3c
       -0.015639951 -0.025331022 -0.009750567 0.0108996695
000320 b7 6d 11 3d 91 ee 83 bc eb 83 0e 3e 04 3e 3f be
       0.035505023 -0.016104968 0.1391751 -0.18676001
000330 85 bf d8 bc a7 c9 0a be 65 89 11 3e 0d c9 14 be
       -0.026458511 -0.13553487 0.14212568 -0.1452982
000340 9d bd be bd 0d de a2 bd 22 e6 39 bd 9a 1f 46 3e
       -0.093135096 -0.07952509 -0.045385487 0.19347993
000350 4d 8b f2 3d 4d a9 8c bd 39 a3 c6 3d 77 90 a4 bd
       0.11842976 -0.06868229 0.09699101 -0.08035367
000360 78 e1 a0 bd 35 2d 9d 3d 77 fc fc bd 94 08 2b 3e
       -0.07855505 0.07674638 -0.12352841 0.16702491
000370 cf dc 19 be dc 9f 0b 3e 43 90 07 be 27 68 17 3e
       -0.15025638 0.136352 -0.13238625 0.14785825
000380 04 3a 8b 3d 5b 3d 26 3d 4c e2 5a bd e4 98 05 bd
       0.06798175 0.040585857 -0.05343847 -0.03261651
000390 dc fb 1b be c9 82 9a 3d 1c 78 cd bd fa d2 29 3d
       -0.15232795 0.075444765 -0.10032675 0.04146097
0003a0 41 ce 48 bd 68 c3 9f bd cf 54 2a 3e a6 80 76 bd
       -0.049024824 -0.07800943 0.16633914 -0.060181282
0003b0 c6 b5 17 3e 36 2a cf bc b4 4f d4 3d f8 6d ab bc
       0.14815435 -0.025288682 0.10366765 -0.02092646
0003c0 90 28 21 3e e0 75 30 3e a4 56 c4 bc f8 5e 3f 3c
       0.1573813 0.17232466 -0.023967095 0.011680357
0003d0 db f7 28 3e ed 2f 1a 3e 4d 3d 3b be cf bf 0f be
       0.165008 0.15057345 -0.18285103 -0.14038013
0003e0 2d 09 e6 bd d4 b0 9e bc aa 1b 16 3c 76 8d 97 3d
       -0.11232219 -0.019371428 0.009161869 0.074000284
0003f0 00 a4 bd bd 29 47 23 be ab 89 81 3d 31 65 25 bc
       -0.09259796 -0.15945114 0.06325086 -0.010094927

module.encoder.gru.weight_hh_l0 f4 [96, 32]
000000 0d a4 d2 bd c0 c6 9f bd ad d1 4e 3d 9a d9 fd bb
       -0.102851965 -0.078015804 0.05049293 -0.0077468874
000010 6d a0 35 3e f9 d3 65 bc 1c f1 14 3e a0 0f 2a 3e
       0.17736979 -0.014027589 0.14545101 0.16607523
000020 4d 30 35 3d 6e ec 8f bd cf 68 ba 3b 38 07 80 bc
       0.044235516 -0.07027517 0.0056887637 -0.015628442
000030 84 7e 09 3d 64 f2 a4 3c da 48 b7 bb 0a a3 2b be
       0.03356792 0.020135112 -0.0055934014 -0.16761413
000040 9d 4e d6 3d d3 0a 62 bd 35 a7 11 3e d7 dc 10 3d
       0.10464213 -0.055186104 0.1422394 0.03536686
000050 c8 af f0 bd e4 57 2a 3d 98 68 79 bd 23 bb f8 bd
       -0.117522776 0.041587725 -0.060890764 -0.121450685
000060 51 f7 5e 3c af 81 8c bd 1c b6 17 3d b0 76 6d 3d
       0.0136087695 -0.06860673 0.037038907 0.057974517
000070 45 48 3e 3c ce 90 f6 bc 08 3a a3 bc 95 3c 6b 3d
       0.01161391 -0.030098345 -0.019925132 0.057430822
000080 e5 5a 78 bd ef fb df 3d 4a 1c 07 be c5 95 2f be
       -0.06063356 0.109367244 -0.13194385 -0.17146976
000090 25 74 1f 3e 24 5f af 3d 85 b9 b3 bd 3e 5a 6d bd
       0.1557165 0.085630685 -0.087756194 -0.05794739
0000a0 3b 22 a2 bd c3 cf 27 be 0b 6d 24 be 40 f5 20 3e
       -0.07916685 -0.16387849 -0.16057222 0.15718555
0000b0 a0 39 04 3e 9b 97 4f bd a8 5b 21 bd 93 cb ea 3d
       0.12912607 -0.05068169 -0.03939405 0.1146461
0000c0 aa a3 57 bd e0 5c cf 3d ce f7 07 be 4a 19 a3 bd
       -0.052646317 0.101251364 -0.13278124 -0.07963808
0000d0 60 2b 15 be 8e b0 30 be e9 15 1b be 6a 26 ee 3d
       -0.14567327 -0.1725485 -0.15145077 0.11628421
0000e0 12 ba f6 bd a7 ea 0c 3e 54 5f cb 3d c2 76 14 3e
       -0.12047209 0.13761388 0.09930292 0.14498428
0000f0 be 71 b0 3d c5 21 2c bd a0 01 e1 3d ed 15 63 3d
       0.086154446 -0.042024393 0.10986638 0.055440832
000100 55 37 0d 3d a1 a2 b2 3d 42 22 01 3d 4b d3 fb 3d
       0.034476597 0.08722425 0.03152681 0.1229616
000110 1f 92 01 3b f2 5f b7 3d 16 29 e4 3c c7 09 23 bd
       0.0019770933 0.08953847 0.027851623 -0.039804246
000120 f1 ff fa bd 21 8b 0f 3e bc bd 16 3e 16 2b d8 bd
       -0.12255848 0.14017917 0.14720815 -0.10555093
000130 3a 29 a0 3c 9d c1 6c 3d 93 25 90 3b 3e 57 e2 3d
       0.019550908 0.05780183 0.0043990104 0.110517964
000140 19 d9 06 3e d1 d8 c2 3d 23 8e ff 3b 08 cd a5 bb
       0.13168754 0.09514011 0.0077989264 -0.005059842
000150 f0 38 34 be 70 7e 0c be 0f 40 d4 bd 62 8d 26 3d
       -0.17599845 -0.13720107 -0.10363781 0.040662177
000160 a9 a1 be bd 0e c7 23 3e 22 5e e8 3b 64 7b 07 be
       -0.09308178 0.15993902 0.0070912996 -0.13230664
000170 60 1e ad 3c 37 9d 09 bd 9b 57 ce 3d d4 c4 06 be
       0.021132648 -0.033597197 0.10075303 -0.13161021
000180 89 7c f7 3d ed e5 15 bd e9 39 dd 3d e9 f3 01 3e
       0.120843 -0.036596227 0.10802061 0.126907
000190 45 71 4f be 41 eb de bd ea 13 be 3c 8c 92 2a 3e
       -0.20258053 -0.10884715 0.023202855 0.16657466
0001a0 06 3c 00 3e bd 5b c4 bd d5 6d af bc a4 7d 0e 3e
       0.12522897 -0.0958781 -0.021414677 0.13915116
0001b0 fe ee 14 3d f3 30 f6 bc 3d 86 45 3d 60 45 7e 3d
       0.036360733 -0.030052638 0.048223723 0.06207788
0001c0 a1 73 8b bd 8a 4b cd 3d 81 74 3a 3e 1a 92 8e 3c
       -0.06809164 0.100241736 0.18208505 0.017403651
0001d0 c7 9d 5f 3d 80 e9 05 3d d5 e6 d2 3d 62 62 e5 3c
       0.054593828 0.032693386 0.10297934 0.028001014
0001e0 a0 4d 09 3e 04 07 00 be f1 a9 3c be 90 9a 27 be
       0.13408518 -0.12502676 -0.18424203 -0.16367555
0001f0 ab c7 0c be 0b 72 94 3d 79 63 1c 3e 10 e2 51 3d
       -0.13748042 0.072483145 0.15272321 0.05124098
000200 c3 21 62 bd 3f 37 9a 3d f3 98 ae 3d 09 ff 00 3d
       -0.05520798 0.075300686 0.085252665 0.03149322
000210 ac be d1 bd 81 be 9e bd 35 c8 d2 bd 26 81 44 3e
       -0.10241446 -0.077511795 -0.10292093 0.19189891
000220 44 43 31 be ed 28 3b 3e 12 f3 45 bd 21 74 55 3d
       -0.17310816 0.1827733 -0.048327513 0.052112702
000230 ff 5c ce 3d b9 2a 69 bb 4e c4 88 3d 3b a6 fa 3d
       0.10076331 -0.0035578443 0.06678067 0.12238737
000240 78 88 41 3e 61 61 33 be 8d 2b 8e bd 85 6e c7 bc
       0.18899715 -0.17517616 -0.069419004 -0.024344692
000250 38 af 1c be 28 a9 cd 3d 5c 45 8b 3d d5 c7 d9 bd
       -0.15301216 0.100420296 0.068003386 -0.10633818
000260 fb 39 08 bd 07 cb 24 3e 2b b3 90 bd 9b 86 09 3e
       -0.03325842 0.16093074 -0.070654236 0.13430254
000270 8e 88 e7 3d f5 35 4f bd d9 fb 0c be 7a bf 86 3c
       0.113053426 -0.050588567 -0.13767947 0.016448725
000280 2d 51 bb 3d de 52 8c bd 81 fc e0 3c 3c ed 53 bd
       0.091463424 -0.06851743 0.027464153 -0.051739916
000290 21 8c 52 3d 22 ef 50 bc a6 a6 1a bd f4 c4 f8 3c
       0.05140317 -0.012752326 -0.037756585 0.030367352
0002a0 68 42 2a 3d 2e d7 1c 3e 4c 61 b6 bd 0c 39 bb 3d
       0.041567236 0.1531646 -0.08905277 0.0914174
0002b0 47 93 9b 3c 30 c4 26 3e 01 cd 16 be 12 8a 96 3d
       0.018991126 0.16285777 -0.1472664 0.073505536
0002c0 1a df 33 3e 03 4e 9a bd a8 c1 9e 3d 06 90 d3 bd
       0.17565575 -0.07534411 0.07751781 -0.10330205
0002d0 eb 98 b9 bd aa 95 15 be 46 85 04 3d 22 6a b1 3d
       -0.0906237 -0.14607874 0.032353662 0.08662821
0002e0 f2 06 e1 3d bf ec 4c 3d 80 e4 1b 3e f9 52 4a bd
       0.10987653 0.050030466 0.15223885 -0.049395535
0002f0 52 d4 f3 bb 34 0b c9 3d 22 a1 16 bc b4 51 96 3d
       -0.007441082 0.0981659 -0.0091936905 0.073398024
000300 6f a0 c5 3d d1 16 bb bd 61 66 7a 3d 1a 64 fc 3d
       0.09649741 -0.09135211 0.061132792 0.1232378
000310 23 4b 44 3e f7 42 a6 bd 40 60 ad bd 30 1a 15 be
       0.19169287 -0.08118241 -0.08465624 -0.14560771
000320 35 1f 2b 3e 38 57 05 be 9d b0 f9 bd d2 aa 49 3d
       0.16711123 -0.13021553 -0.121918894 0.049235173
000330 b2 46 30 3e 0c fe 63 bd bf ee aa 3d 80 d0 17 be
       0.17214468 -0.0556622 0.083463185 -0.1482563
000340 e3 88 43 3c 96 ff 2d 3e 46 03 2e bd 95 6a fb 3d
       0.011934492 0.1699203 -0.04248359 0.12276188
000350 f9 45 bf bc c9 09 17 3e cf 0f 36 3e 22 98 8d 3d
       -0.023348795 0.14749826 0.17779468 0.06913783
000360 6c 69 a8 bd f7 44 a2 3d af c7 82 3b cf af bc bd
       -0.082232326 0.0792331 0.0039910893 -0.0921322
000370 6e 9b 8a 3c 0a e2 5b 3d 3a b0 d2 bd 39 22 dc 3d
       0.016919818 0.053682365 -0.10287519 0.10748715
000380 b6 b5 74 bd 1c eb 0a 3d 55 6f fe bc 04 16 09 3d
       -0.059743606 0.033915624 -0.031058947 0.03346826
000390 bc 15 08 3e f4 8d 0e be 7d 48 c1 3a 51 5a 92 3d
       0.13289541 -0.13921338 0.0014746335 0.07146133
0003a0 5f da 71 3c 86 67 08 3d 08 4b 82 bc e7 dd 35 3e
       0.014761536 0.033301853 -0.015904918 0.1776043
0003b0 72 f6 8e bd b8 bf 86 bd 67 fa f6 bc 04 41 cb 3a
       -0.069805995 -0.06579536 -0.030148698 0.0015507047
0003c0 22 77 b6 3d 4d a7 10 bd ce e8 f3 bd 05 ef 9f bd
       0.089094415 -0.0353158 -0.11909638 -0.07809261
0003d0 95 9a 2a 3e e5 02 f4 3d f0 e6 07 bc fe fa 8c 3d
       0.16660531 0.119146146 -0.008294806 0.068838105
0003e0 5a b3 09 3e b0 4b 1a be fb e2 f2 bd 9f e5 e5 3c
       0.13447323 -0.15067935 -0.11859699 0.028063593
0003f0 31 cd 7e 3d 11 23 31 bd 7a 1a d7 bd 1c f8 f0 bd
       0.062207405 -0.043246333 -0.10503097 -0.11766073

module.encoder.gru.bias_ih_l0 f4 [96]
000000 c5 4a 0f 3e 8e 45 33 3c d1 63 1a 3e 57 da bf bd
       0.13993366 0.010941876 0.1507714 -0.09367817
000010 58 60 91 bd f1 fd 25 3e de a0 d6 bb f3 a2 26 be
       -0.07098454 0.16210152 -0.0065499386 -0.16273098
000020 07 85 58 bd 86 3f 14 be 07 c7 a7 3c 02 18 c9 3d
       -0.05286124 -0.14477357 0.020480646 0.09819032
000030 00 26 17 be 85 09 b1 bd 8d ae e9 ba 89 84 36 bd
       -0.1476059 -0.08644394 -0.001782851 -0.04455999
000040 30 df ee bd 17 7f cb bd f6 81 20 be 22 3a fc 3d
       -0.116636634 -0.0993635 -0.15674576 0.123157755
000050 1d fb 2f bd 61 16 db 3d 0a eb 38 be bd a3 e5 3d
       -0.04296409 0.10697628 -0.1805841 0.11212871
000060 67 37 20 be 06 73 e2 bd f4 34 99 3d 1d 77 46 bb
       -0.15646134 -0.11057095 0.07480803 -0.00302834
000070 8b b3 3c be 6a 97 11 3e 2d e4 a5 3d 5e c4 fc bb
       -0.18427865 0.14217916 0.08100162 -0.0077138385
000080 c5 58 07 3e 78 da 50 3d 8b fd 04 be a8 46 c0 3d
       0.13217457 0.050989598 -0.12987344 0.093884766
000090 17 13 40 3e f1 70 27 3c 21 54 a3 3c 51 79 c2 bd
       0.18757282 0.010219798 0.019937577 -0.094957955
0000a0 86 7b 14 be 42 44 1a be 08 c7 2d 3e f5 a0 96 3c
       -0.14500245 -0.15065101 0.16970456 0.018387297
0000b0 41 c1 1f 3e 7a ca 86 bc 99 69 ef bd 17 16 c3 3d
       0.15601064 -0.01645397 -0.11690063 0.09525698
0000c0 a6 29 56 bd b9 9f f3 3d c9 0b 2a 3e 87 29 88 3c
       -0.052285813 0.11895699 0.16606058 0.016621364
0000d0 53 ac 2b be 9f 0a 09 be 85 93 15 3e cc 85 0d be
       -0.16764955 -0.13382958 0.14607055 -0.1382057
0000e0 59 fc a7 3b 7e ed 58 3d c3 29 68 bd 75 f3 20 be
       0.0051265177 0.052960865 -0.056680452 -0.15717871
0000f0 42 54 96 bc f9 63 1d 3e cb ca c2 ba 5e 01 32 3d
       -0.018350724 0.15370168 -0.0014861462 0.043458335
000100 3f 1c e9 3d cf 39 25 3b b6 d1 04 3d ed 18 9a 3c
       0.11382341 0.0025211459 0.03242656 0.018810714
000110 77 ec e2 bd 76 df cb 3d b5 f7 27 3d 86 36 4d 3b
       -0.11080258 0.09954731 0.041007716 0.0031313016
000120 78 d7 19 be 01 49 ed bc ef cb 2d 3e 32 70 21 3e
       -0.15023601 -0.028965475 0.16972326 0.15765455
000130 e6 91 1a 3e 0a 8d 80 3d 59 bf eb 3b da 71 9b 3d
       0.15094718 0.06276901 0.0071944413 0.07590075
000140 5b d6 d7 bd ec 98 01 3d 65 49 cc 3d 2e 95 0a be
       -0.10538932 0.03163998 0.099749364 -0.1353347
000150 29 6b d7 3d 4b d4 f8 bd 51 77 32 3e 20 04 f4 bd
       0.10518486 -0.12149867 0.17428328 -0.11914849
000160 57 30 b0 bc f0 5c eb 3d 46 59 08 bc 9c 7e 0e be
       -0.021507425 0.11492336 -0.008322066 -0.13915485
000170 b4 44 56 3d 11 05 db bc 4d 58 ec 3d 36 77 28 be
       0.052311614 -0.026735814 0.115402795 -0.16451725

module.encoder.gru.bias_hh_l0 f4 [96]
000000 f6 ac 00 bd eb 37 1e 3e 87 fb 0d be f5 32 59 3d
       -0.03141495 0.15451019 -0.13865481 0.053027112
000010 40 77 8d 3d c4 17 1e 3e 31 82 37 be da 3c eb bd
       0.06907511 0.15438753 -0.17920758 -0.11486216
000020 ab 72 33 3e 00 4a 51 3d 14 32 cc bd a5 80 fa 3d
       0.17524211 0.051095963 -0.09970489 0.12231568
000030 18 b2 21 be 29 28 e4 3d 79 e5 d9 bd d9 5d d0 3d
       -0.15790594 0.111404724 -0.106394716 0.1017415
000040 87 00 ea bc a5 a6 d2 3d 82 5c 10 3e 57 e6 24 3e
       -0.028564705 0.10285691 0.14097789 0.16103493
000050 67 95 ea 3b 07 c1 18 3e e7 a0 50 3a 7f 2a 04 3e
       0.0071589234 0.14917384 0.00079585466 0.12906836
000060 0a ea be 3d 53 fb 1c 3e 7f 65 02 3e 8d ee 06 be
       0.09321983 0.15330248 0.1273403 -0.13176937
000070 db 16 bb 3d ed 51 0d bd d7 0a e7 3d 47 22 3a 3e
       0.09135219 -0.03450196 0.112813644 0.18177138
000080 3d 38 86 3d a5 e8 e2 3d 7a 3b 9f 3d d1 c8 89 bd
       0.06553695 0.1107953 0.07775016 -0.06727756
000090 e1 26 82 bd e5 c2 a9 bc 08 51 92 bd 91 03 96 3b
       -0.06355072 -0.020722816 -0.07144362 0.004578062
0000a0 2e a8 3f bd dc 8d 33 bd 9d 23 2c bd d8 e8 1e 3e
       -0.046791248 -0.04383646 -0.04202615 0.1551851
0000b0 bc 69 68 bd fd d5 22 bd bc fc 0e be d7 89 46 bd
       -0.05674146 -0.039754856 -0.13963598 -0.048471298
0000c0 ad f6 f9 3d 61 56 c5 3d 3d bc 0b 3e d6 6b 21 be
       0.12205253 0.09635616 0.13646026 -0.15763792
0000d0 ed d8 c9 bd a1 97 3a be bf 75 09 3e 7a 7c 3b be
       -0.098558284 -0.18221904 0.13423823 -0.18309203
0000e0 dc 12 b2 3d fe 88 c0 3a 56 30 27 be c3 da 95 3b
       0.086950034 0.0014689264 -0.16327032 0.0045731976
0000f0 ae a7 a7 bb 25 3e 41 3e 86 68 fb bd 91 84 83 bc
       -0.0051164245 0.18871363 -0.12275796 -0.016054424
000100 c1 fc d4 3d ba 8a 32 be 4f 1c 79 bc 8b 3a 15 3c
       0.103997715 -0.17435732 -0.015204503 0.009108196
000110 35 d6 f8 bd bb d0 87 3c be 38 cf 3d 0b 09 c2 3c
       -0.12150232 0.016579023 0.101182446 0.023685953
000120 4d 29 56 bd 36 5a f2 bd 40 08 a2 3d de 50 3b 3e
       -0.05228548 -0.118336126 0.0791173 0.18292567
000130 d8 23 81 bc 15 84 8b 3d c1 ed ea bd c1 f6 35 bd
       -0.015764162 0.06812302 -0.11471129 -0.044424776
000140 c8 2b 2c bd 49 fb 49 be cb ef 06 3d d0 78 4d 3d
       -0.04203394 -0.19724764 0.03294353 0.050164044
000150 4a 1e 40 bd 0c a8 56 bd cb bb a6 bd 8b 3a ff bc
       -0.046903886 -0.052406356 -0.081412874 -0.031155845
000160 b8 e4 4b bd 2a 5b b3 3c 47 50 8a 3d 9e 6f bf bd
       -0.04977867 0.021894056 0.06753593 -0.09347461
000170 25 5a 8c bd f6 d8 fd bd 19 07 7c bd 53 df 53 bd
       -0.06853131 -0.12394898 -0.061530206 -0.05172665

module.encoder.embedding.weight f4 [227, 32]
000000 02 60 5b bb 71 a5 f6 bd a9 0f e8 be fe dd 45 bf
       -0.0033473973 -0.12043274 -0.45324448 -0.7729186
000010 ab 1e c6 bf c7 bf 80 bf a9 62 78 3f f7 99 9e 3f
       -1.5478109 -1.0058526 0.97025543 1.2390736
000020 1f f4 4f 3f 71 ed b6 3e 2f 85 af 3f 8b d9 b0 be
       0.81231874 0.35728028 1.371252 -0.34540972
000030 29 f2 4a be 31 fd 1f c0 c3 06 f7 bd f3 64 fd 3b
       -0.1981894 -2.4998286 -0.120618366 0.0077329814
000040 25 8c 8b bf 4e cf 7f 3f c1 7a 1b bd 97 11 d7 be
       -1.0902144 0.99925697 -0.037958864 -0.42005607
000050 c6 78 93 3f 0e 3e f4 3e ed 97 50 c0 9f cd a6 bf
       1.1521232 0.47703594 -3.2592728 -1.30315
000060 90 dc 8c 3f be c7 cc bf b5 33 33 3f c4 cb 9f 3f
       1.100481 -1.5998456 0.70000774 1.2484059
000070 71 4b 28 3e 52 70 42 3f 4c 4e 52 bf 11 a3 13 bf
       0.16435029 0.7595264 -0.8215072 -0.57670695
000080 d6 1f d6 3e 18 27 97 3f ee b9 e8 3d 09 1f fe be
       0.41821164 1.1808805 0.11363588 -0.49633053
000090 9f 4b e2 3f 9a 0d 80 3f 1d 87 cc bf 41 c3 8b 3e
       1.7679328 1.0004151 -1.5978733 0.27297404
0000a0 25 7b 28 bf 5f 38 dd bd 43 0c 12 bf 62 31 91 3d
       -0.65812904 -0.108017676 -0.5704996 0.07089497
0000b0 ba 1c 6b be bd 90 47 3c 5d 46 91 3f 29 09 21 c0
       -0.22960177 0.012180504 1.1349598 -2.516184
0000c0 29 54 3b bf 71 7c 87 3f 28 2c 48 bf ac 2c 48 bd
       -0.73175293 1.0584852 -0.7819238 -0.048870727
0000d0 39 10 94 3e 43 75 96 be 25 97 11 c0 d2 8b 5c 3e
       0.28918627 -0.2938634 -2.2748501 0.21537712
0000e0 dc ec 05 3d 55 38 12 c0 41 f1 5f 3f af 5d b3 3e
       0.03269659 -2.2846882 0.874775 0.35032412
0000f0 e6 0c 3c be 47 3b 2b be be 82 ba 3e d5 be 4c 3f
       -0.18364295 -0.16721831 0.36427873 0.79978687
000100 ff 74 43 3f 8f 2b 39 3f be 29 88 3e ef 80 2c bf
       0.76350397 0.7233209 0.26594347 -0.6738424
000110 f4 9a 22 c0 47 12 e6 3d c3 17 98 3f a3 3c 0c 3e
       -2.5407076 0.11233955 1.1882252 0.13695006
000120 bb 12 b4 3f a6 e2 49 bf ba 6e 64 3f e2 b0 1b bf
       1.4068216 -0.78861463 0.89231455 -0.60816777
000130 51 fd e6 3d ef bd 09 c0 40 c5 15 3f e4 13 18 bf
       0.11278785 -2.1522176 0.58504105 -0.5940535
000140 d3 a3 d7 be df 95 5e 3e cc 9b 4b bf 8c f6 b4 bf
       -0.42117175 0.21736859 -0.795346 -1.413774
000150 20 6f 5f bf b9 2e f9 3d b2 34 e0 bd ef a3 09 bf
       -0.8727894 0.12167115 -0.10947551 -0.5376577
000160 3c 83 a2 3f f1 0a 13 bf 39 d4 48 3f fe 19 3f 3f
       1.26963 -0.5743857 0.78448826 0.74649036
000170 c7 8e 22 3f f6 50 e6 3f 9d 82 59 bf 37 ef ee bf
       0.6349911 1.7993457 -0.84964925 -1.8666753
000180 d7 b7 c5 3e a0 5d 0d bf dd 39 98 3f 26 55 0a be
       0.3861682 -0.55220985 1.1892658 -0.13509044
000190 24 99 05 bf f7 4a b8 3d bd 62 6e 3f f5 c5 aa 3f
       -0.521868 0.089986734 0.9311941 1.3341662
0001a0 e7 5d 55 3f 92 f7 1b 3f 90 ef 12 be 68 57 1a 3f
       0.8334641 0.6092464 -0.14349198 0.6028962
0001b0 bf ac fc be aa cb ae bf fd 2b 84 3f ab e2 d8 3f
       -0.49350545 -1.3655903 1.0325924 1.6944174
0001c0 6f c7 09 c0 dc 78 9f be 7f a3 2f 3f 78 cd 23 3f
       -2.1527975 -0.31146896 0.6860885 0.63985395
0001d0 b3 61 5d bf a2 c9 0b 40 e6 5c a6 bf b2 3c 9c bf
       -0.864772 2.1841817 -1.29971 -1.2206023
0001e0 1d 83 71 bd 05 2c 26 bf a5 df 01 c0 78 66 7c 3f
       -0.05896293 -0.6491092 -2.0292752 0.98593855
0001f0 ce bc ef bd 23 d2 24 bf 0f 7c c3 3b 2a b0 fd 3e
       -0.117059335 -0.64383143 0.0059657167 0.49548465
000200 ee 26 78 be c1 b4 c1 bf 40 81 52 3f d9 de 1c 3f
       -0.242336 -1.5133287 0.8222847 0.6127754
000210 8e 00 1e 3f 15 b3 f2 bf 35 2f b4 be b7 3c d1 3f
       0.61719596 -1.8960901 -0.35192266 1.6346654
000220 bd 64 88 bf bc af 52 be 14 df 8f be 67 f5 6b bf
       -1.0655743 -0.2057485 -0.28099883 -0.9217133
000230 b7 da 4d 3f 71 41 ef be 9f 1e 80 bc 2b 42 5b 3f
       0.8041186 -0.46729615 -0.015639601 0.8564784
000240 64 e5 46 3f 2d 48 66 bf 7c 0c 8a bf 92 fb 89 bf
       0.7769377 -0.8995388 -1.078506 -1.0779898
000250 50 83 06 3e fd a5 c1 3e fa 3c 90 3f 95 b3 c5 bf
       0.13136029 0.37821952 1.1268609 -1.5445429
000260 8b ea 79 3f 6e 49 5b 3f c7 8b 5f be 70 98 68 3e
       0.9762351 0.8565892 -0.21830665 0.227144
000270 c5 02 af 3d c1 99 78 bf 58 99 12 3f 77 d6 57 3f
       0.0854545 -0.9710961 0.57265234 0.8431162
000280 a4 0d 2d bf b0 cd 5f bf 3c 0e ad 3f a7 15 b2 bd
       -0.6759894 -0.8742323 1.3519969 -0.08695536
000290 52 a3 6f be ce 8a 95 bf 1c 54 a5 bf 1e ff 28 3f
       -0.23402146 -1.1682985 -1.2916293 0.6601428
0002a0 5d cd 2f bf a3 15 02 3f d4 e5 08 c0 68 72 47 3f
       -0.68672734 0.50814265 -2.1390276 0.77908945
0002b0 ef f3 bd 3d a1 30 71 3e 49 d8 e7 3f 4d 9c 23 bf
       0.09275042 0.23553707 1.811288 -0.6391037
0002c0 82 82 bf be 7d 90 5c be 3c 7e 0f bf 2d e8 b8 be
       -0.37404257 -0.21539493 -0.56051993 -0.36114636
0002d0 bf 80 f6 bf 00 0a 1c bb 9a 70 b4 3e 39 6d c4 bf
       -1.925804 -0.0023809671 0.35242158 -1.5345832
0002e0 2d d3 9c 3f b6 79 7c be 69 56 da 3f 00 93 e0 3e
       1.2251946 -0.24655804 1.705762 0.43862152
0002f0 76 98 2a 3f e1 8b e5 3f c9 7e b4 bf b5 d7 b5 3f
       0.66638887 1.7933313 -1.4101192 1.4206454
000300 71 aa af bf aa c7 0d 40 d6 16 d7 3e cf d8 21 3f
       -1.372389 2.2153115 0.4200961 0.6322145
000310 6f 21 ea bd 34 a3 a6 3f 46 ca 51 3f 63 43 fc 3e
       -0.11432158 1.3018556 0.8194927 0.49270162
000320 1c 7b 31 bd 3f 5f 9c bf 87 8c 71 3e e8 3f aa bf
       -0.043330297 -1.2216567 0.23588763 -1.3300753
000330 63 be 02 c0 bb cd d5 3f 64 b2 28 bf 2f d2 f4 be
       -2.0428703 1.6703409 -0.658972 -0.47816607
000340 78 a5 24 3f dd 5e 7b 3f 9d ee a1 3f 86 14 85 bf
       0.64314985 0.98191625 1.2650944 -1.0396888
000350 21 52 d3 bd a0 49 e6 3e 8f c0 5e 3e a7 3e 36 3f
       -0.10318399 0.44978046 0.21753143 0.7118935
000360 a2 c1 72 bf e3 47 a5 bf 2d 52 15 3e a7 6d 24 3f
       -0.9482671 -1.2912563 0.14582129 0.64229816
000370 dc c5 91 3d 1e cf 6c 3f b6 f8 3b bf e9 37 bc 3f
       0.07117817 0.92503536 -0.7342638 1.4704562
000380 d7 2a 7c 3f 20 d9 9c 3e 1b c1 02 bf c2 13 99 bd
       0.9850287 0.30634403 -0.51075906 -0.07474472
000390 2c e4 3f bf 8a cc db bf a3 40 b0 3f 6a ce fa 3e
       -0.7495754 -1.7171795 1.3769726 0.48985606
0003a0 f4 32 57 3f 4b aa 0b bf cc a0 c6 bf 7b 82 e4 be
       0.84062123 -0.5455672 -1.5517821 -0.446308
0003b0 fc d0 10 3e 8c 17 47 bf eb c0 6a bf 55 e2 b8 be
       0.14142221 -0.77770305 -0.9170062 -0.36110178
0003c0 94 4b 42 bf c0 6b 19 bf af c8 da bf a1 55 a7 3f
       -0.75896573 -0.5993004 -1.7092494 1.3073007
0003d0 65 af 24 3e 9e dd c4 3f 58 25 8a bf ce 74 12 bf
       0.16082533 1.5380132 -1.0792646 -0.5720948
0003e0 2a 27 64 3e 53 36 6a 3f 15 a8 d5 3e b4 b7 c7 3e
       0.22280565 0.9148914 0.417298 0.39007342
0003f0 e5 97 bd bf 5e 8e c0 bb dc 2d 04 3e 95 8e 30 bf
       -1.481198 -0.0058763465 0.12908119 -0.6896756

module.decoder.gru.weight_ih_l0 f4 [96, 32]
000000 f2 74 2c 3d c2 5e 2c be e8 54 07 be cf e0 03 bd
       0.042103715 -0.16833022 -0.13215983 -0.032196816
000010 22 5a 08 bc 6f ed 91 bd 55 ba 0b 3d e3 62 14 be
       -0.008322271 -0.07125365 0.034113247 -0.14490847
000020 72 a6 06 3e 7b 48 4b 3e b2 e3 20 bd e0 cb bb bd
       0.13149431 0.19851868 -0.039279647 -0.091697454
000030 d0 18 15 be d0 90 1d 3d 44 f7 e8 bd 81 5b 20 bd
       -0.14560246 0.038468182 -0.11375287 -0.039149765
000040 31 6c 09 be d1 e1 e2 3c 8a 0b 72 3d ff ec 33 be
       -0.13420178 0.027695568 0.059093036 -0.17570876
000050 72 f3 10 3e d6 0e f7 3d bb 49 b2 3c c0 4a 25 3e
       0.14155367 0.120633766 0.021763673 0.16141796
000060 48 49 25 be 0b ed ca bc 6b 6c 4d be f2 d3 92 3c
       -0.16141236 -0.024771234 -0.2006089 0.017923329
000070 d3 45 01 3e a3 82 bb 3b 61 41 61 3d 5b d5 09 bd
       0.12624292 0.00572236 0.05499399 -0.033650737
000080 94 24 3f be 07 a5 fb bd 04 bd cf bd ff 0a 05 be
       -0.18666297 -0.12287336 -0.10143474 -0.12992476
000090 a3 57 c1 3d 7c d9 1c 3e ef 59 de bb 50 26 c2 bd
       0.094405435 0.15317339 -0.0067856233 -0.09479964
0000a0 db 1f 09 3e 99 62 07 bd a0 84 59 3d 11 7f 02 be
       0.13391058 -0.033053014 0.053104997 -0.12743784
0000b0 eb 89 18 3d 96 fb f9 3d 57 18 9f bc 2c 1d b6 3d
       0.037240904 0.12206189 -0.019420786 0.08892283
0000c0 7f 73 2e be 16 8a c7 3d 33 58 de 3c 9c 79 95 3d
       -0.17036246 0.09743135 0.027141666 0.07298586
0000d0 1f 2f 2f 3d 7c db 89 bc 4c 0d aa bd e4 bf 70 3b
       0.042769548 -0.016828291 -0.083033174 0.003673547
0000e0 a2 fc 45 bd 54 8f 08 be 72 3e 80 3d cc 6a 1e 3e
       -0.048336633 -0.13335925 0.062619105 0.15470427
0000f0 94 e1 5e bd 94 f6 5d 3d 85 8c 0a 3e 8b 77 ce 3d
       -0.054414347 0.054190233 0.13530166 0.10081395
000100 fd 76 a1 bd 18 4d 70 3d 47 b2 f0 3d 35 7f 2e bd
       -0.07884023 0.058667272 0.11752754 -0.042601783
000110 c1 93 de 3d 81 95 3c bd 3c ba 99 3d 6f 0e 02 3d
       0.108680256 -0.046041016 0.075062245 0.031752046
000120 1c e6 1a 3e 0d 31 3c be f1 f8 03 3e ff 52 2b bd
       0.15126842 -0.18378086 0.12887932 -0.041827198
000130 9b 37 2a 3e fc 13 e7 3c 17 c2 9c 3d 39 93 18 3e
       0.16622774 0.028207771 0.07654207 0.14899911
000140 94 71 bb 3c a5 a0 38 3d fb 3b 2d 3d 4c 57 50 3d
       0.022881307 0.045075078 0.04229353 0.050864503
000150 8f 46 b3 bd ab a9 0d be 49 af e7 bc 9e 8b 09 bd
       -0.08753692 -0.13834254 -0.028281825 -0.033580415
000160 ae de 1c bd 24 4a 88 3d d1 2f bc 3d 51 f2 86 bd
       -0.0382983 0.06654766 0.09188808 -0.06589187
000170 4b dd f6 bd b0 e9 20 be d9 13 16 bd 5d f5 84 3d
       -0.12053927 -0.15714145 -0.036640022 0.06492112
000180 5a 59 c2 bc e5 3e 52 bd 4a 08 0f be bc bf 6e 3d
       -0.023724247 -0.051329512 -0.13968006 0.05828832
000190 af 09 75 bb f9 75 a1 bc 38 a9 a1 3d 2c 86 d8 bd
       -0.0037389805 -0.019709574 0.07893604 -0.10572466
0001a0 3c bc be 3d e3 f6 6a 3d 65 9f 1f 3d 5f db 11 bd
       0.093132466 0.057364356 0.03897037 -0.0356096
0001b0 72 8a ec 3a 1b 49 b8 3d 66 bd b1 3d df ba a5 bc
       0.0018046631 0.08998319 0.08678703 -0.020230709
0001c0 09 da 96 3d 23 68 0a be 59 19 3b 3e 8e b4 99 3d
       0.07365806 -0.13516288 0.18271388 0.07505141
0001d0 2f b9 ee bd 6b 5a 3c 3c 6a 69 b6 3d 52 aa bc bc
       -0.11656415 0.011496167 0.08906825 -0.023030434
0001e0 45 c2 42 3d 4d c1 f4 bd 32 11 33 bd 7a 97 f9 3c
       0.04754855 -0.11950932 -0.04371757 0.030467737
0001f0 68 c4 16 3e 52 2c 2d 3e fa 5f 14 3d 08 aa ed 3d
       0.1472336 0.16911438 0.036224343 0.116046965
000200 b8 69 67 3c 22 3c 79 bd 81 c0 0a 3e aa 2b 0d bd
       0.014124326 -0.060848363 0.13549997 -0.03446547
000210 22 60 b1 3d 84 db 25 be 9c 4a 15 3c bc 1e b0 3d
       0.08660914 -0.1619702 0.009112027 0.08599612
000220 0c 86 b5 bb 05 77 21 3d ea fb 86 3d 55 8f 01 3e
       -0.0055396613 0.039420146 0.065910175 0.12652333
000230 3e c5 45 bd 61 97 f4 3d c5 7d 85 bd 52 b5 e1 3c
       -0.048283808 0.11942936 -0.06518129 0.02755228
000240 ff c3 f1 bd bc 65 83 3b 95 3b 47 3d 57 78 09 3e
       -0.118049614 0.0040099304 0.048640806 0.13424812
000250 1d 22 9a bd 5b 1e 55 3d 3a 4b 3b 3d 26 f7 18 be
       -0.07526038 0.052030902 0.04572604 -0.1493803
000260 0f b3 2a 3e 87 3e 14 be a7 49 3d 3e ce a7 11 3e
       0.16669868 -0.14476977 0.18485127 0.14224169
000270 05 b5 10 be 75 32 86 3d 9b 7f 08 3b 2f bf 25 3e
       -0.14131553 0.06552593 0.0020828012 0.16186212
000280 52 5b 26 3c 3a 88 14 3e e8 57 cc bd cf 8a a5 bd
       0.010153608 0.14505091 -0.09977704 -0.08083116
000290 78 d2 ea 3d 3d 5c 09 3e c3 65 89 bc 6a 6f 83 bd
       0.11465925 0.13414092 -0.016772157 -0.06417735
0002a0 ea f2 1b 3b 0e 72 b9 3d ce e5 f1 3d 5b 9f 9f bd
       0.002379591 0.09054957 0.1181141 -0.077940665
0002b0 c2 81 0e bd 06 57 0b 3e 3a 25 cd bc 21 34 6a 3d
       -0.034791715 0.13607416 -0.025042165 0.05717862
0002c0 c5 a8 08 3e b6 17 e7 bd bf bb 17 bc 96 69 2b be
       0.1334563 -0.112838194 -0.009261071 -0.16739497
0002d0 41 f2 37 be 27 55 98 bc b4 54 d4 3d c3 d6 31 bd
       -0.17963506 -0.018595291 0.10367718 -0.043417703
0002e0 15 d0 5f 3d 86 5d 9e 3b d6 33 39 bc 91 0f ca 3d
       0.054641802 0.004832926 -0.011303863 0.0986625
0002f0 2a cd 56 3d e7 6a d9 3d 6f a2 1b 3e 18 8c e5 3d
       0.052441753 0.10616093 0.15198682 0.112083614
000300 ee d1 cb 3b 9f 74 10 bd b8 13 1e 3e 45 55 cf bd
       0.006220094 -0.03526747 0.1543721 -0.10123686
000310 c4 49 09 3e 16 a0 1b 3e 08 98 16 bb 9b 71 76 3d
       0.13407046 0.15197787 -0.0022978801 0.060166936
000320 75 04 98 bc 51 e2 19 3e ca 5e ac 3c af ce 41 3e
       -0.018556813 0.15027739 0.021041293 0.189265
000330 eb 95 2b be ae 97 6b 3d ad 62 0d 3c 53 ec 1f bd
       -0.16756408 0.0575177 0.008629483 -0.039043736
000340 0d 12 3e 3e 4f ea 8e bd b4 52 3a be 6b 9f 82 bd
       0.18561573 -0.069782846 -0.18195611 -0.06378063
000350 79 00 49 3e d2 13 17 bd 2a fc 13 3e 5c d1 40 3d
       0.19629087 -0.036884136 0.14451662 0.04707466
000360 7c 07 21 be ca 85 38 3e a0 c8 ef bd c7 72 4d 3e
       -0.15725511 0.18019786 -0.11708188 0.20063315
000370 64 1c cc 3d b2 fc 37 be fe a8 4b 3e 58 e2 61 3d
       0.099663526 -0.1796749 0.19888684 0.0551475
000380 bc 3f f2 bd 9f 0f c0 3d 2a a1 70 3d f5 db d9 3d
       -0.118285626 0.093779795 0.058747448 0.106376566
000390 09 15 c7 3d 39 b8 3d 3c e2 0b f8 3d 1f a2 39 be
       0.09720809 0.011579567 0.121116415 -0.1812825
0003a0 3f fd 1a 3d 40 4d 07 be 2a 52 81 3a e1 36 b4 bd
       0.03783917 -0.13213062 0.0009866406 -0.0879953
0003b0 21 71 69 bd 1b ca 9c 3d e9 f5 70 3b 14 44 50 3e
       -0.056992654 0.07655736 0.0036767668 0.2033847
0003c0 a1 b0 e1 3d 27 2b 4a bd 81 ff 1f bd a5 67 c9 3c
       0.110200174 -0.04935756 -0.039062027 0.024585554
0003d0 84 fe 20 be 08 4d 2e 3d 9c f5 78 3d 8b 3a f7 3d
       -0.1572209 0.04255393 0.060781106 0.12071713
0003e0 e9 7e 10 3e 1d de 10 be 97 9f 0a 3e bb 8e e1 bc
       0.14110912 -0.1414723 0.13537441 -0.02753388
0003f0 f7 62 a9 bd f7 d2 14 be 2e 28 c4 3d b8 6f 99 3d
       -0.08270829 -0.14533602 0.09577976 0.07492012

module.decoder.gru.weight_hh_l0 f4 [96, 32]
000000 d7 3c f4 3d 76 02 03 be 26 df 84 3c 25 3d b5 3d
       0.11925667 -0.12793908 0.016219687 0.08849553
000010 16 3c 34 be 9f 1c 27 be 76 23 7d bd 37 8b 5a 3d
       -0.17601046 -0.16319512 -0.061801396 0.053355422
000020 ec 9a 4d 3c 20 0e 33 3d 0d d1 09 be 02 25 4c 3d
       0.012549143 0.043714643 -0.13458653 0.04983998
000030 31 5f a7 bc 34 91 ea 3c a8 be 1b bd f2 a8 f2 3d
       -0.020431133 0.028633691 -0.03802362 0.1184863
000040 08 43 06 be 2a 7f 45 be e9 71 65 bd be b2 e4 3d
       -0.13111508 -0.1928679 -0.056016836 0.11166905
000050 39 23 ff 3d e5 37 57 bd 0a f2 51 bc 1a dc 43 be
       0.1245789 -0.05254354 -0.012814054 -0.19126931
000060 93 b1 12 bd 3f 3f 9c 3b 96 35 de 3c 3a fa e5 bd
       -0.03581388 0.0047682817 0.027125161 -0.112293676
000070 5f 00 78 3b 4d 1d f9 3d ee 48 4b bb 8f a1 12 be
       0.0037842018 0.12163792 -0.0031018811 -0.14319442
000080 76 93 9e bd 89 7a 35 bb 83 ec 96 3c 10 36 f0 bd
       -0.0774297 -0.0027691445 0.018423324 -0.117290616
000090 a1 74 e6 3d 57 a0 61 3c 50 4e 2e bd 18 ab 90 3c
       0.11252714 0.013771138 -0.042555153 0.017659709
0000a0 73 5c 04 3e b5 33 29 be 8d c3 2f bd 9e 74 22 be
       0.12925892 -0.16523631 -0.0429111 -0.15864798
0000b0 87 02 90 bd 40 54 b0 3d f0 87 41 3e 43 fa 9b 3d
       -0.07031732 0.086098194 0.18899512 0.07616093
0000c0 af 38 c1 bd 5f d9 bc bd b1 d8 01 be ab 83 10 be
       -0.0943464 -0.09221148 -0.12680317 -0.14112727
0000d0 50 d8 ae bd c5 ab 1d be 48 2d 23 be 78 34 3a be
       -0.08537352 -0.15397556 -0.15935242 -0.18184078
0000e0 62 78 12 3e 26 64 1e 3e 89 35 a4 bd 15 dd 94 bb
       0.14303735 0.15467891 -0.080180235 -0.0045429566
0000f0 c6 0a 6a bd 07 02 90 3d 87 5a c0 bd fc 51 25 3d
       -0.05713918 0.07031637 -0.09392267 0.04036139
000100 5a 2b f9 bd fa 6d bc bd 24 ea 14 3e 06 21 cf bd
       -0.12166472 -0.09200664 0.14542443 -0.101137206
000110 ed 98 c6 bd 42 ec f0 3d 2d eb 41 3c e4 6c a8 3d
       -0.09697137 0.117638126 0.011835855 0.08223894
000120 6e 6f 8b bc 61 17 d4 3c 66 47 4b 3e f5 23 ab 3d
       -0.017020907 0.025890054 0.19851455 0.08356468
000130 78 63 d2 3d 69 47 6a 3d 38 bd 16 be 2e be af 3a
       0.102728784 0.05719701 -0.14720619 0.0013408118
000140 e2 61 0e 3e e2 f2 e2 3d a2 9c e5 3d 2e d8 3f 3e
       0.13904527 0.110814825 0.11211516 0.1873481
000150 48 50 31 bd 1e e4 02 be bb c6 01 3e 32 f5 f1 bd
       -0.043289453 -0.12782332 0.12673466 -0.118143454
000160 f3 ee 20 3e 4a e9 a1 bd 55 7d db bd 36 58 93 3d
       0.15716152 -0.079058245 -0.107172646 0.07194559
000170 ff 00 8d 3c 92 28 c3 3d 6b ed 62 bd 21 4a ac bd
       0.017212389 0.095292225 -0.0554022 -0.084125765
000180 86 17 05 be 1b 68 98 bd 07 6e 3d 3e 6f a6 f3 bd
       -0.12997255 -0.074417315 0.18499003 -0.11896979
000190 61 d3 0c be 0d 27 7a 3d df a1 df 3d 7b 2e 15 be
       -0.1375251 0.061072398 0.10919546 -0.14568512
0001a0 29 3b 1e 3e e9 6f cd bd 76 d4 84 bc f6 0c 9f bd
       0.15452255 -0.10031111 -0.01621459 -0.07766144
0001b0 6f 1f 0d bd 4d 1f 5c bd b3 28 bf bd d1 b6 e0 3d
       -0.034453806 -0.05374079 -0.09333935 0.109723695
0001c0 3b 87 21 be cc c8 0d 3e f6 11 23 be c3 22 cd bd
       -0.15774243 0.13846129 -0.1592482 -0.10016396
0001d0 a5 d6 19 3e 73 4f 1d bd b7 63 37 3d ee 64 af 3c
       0.15023287 -0.038405847 0.04477283 0.021410432
0001e0 f6 b9 f8 bc 74 79 22 bd b3 b0 39 bd 8c ef 92 bb
       -0.03036211 -0.039666608 -0.04533453 -0.0044841226
0001f0 01 cf 8d bd 8d fb a0 3d 33 50 1e bd cb 9f 19 bd
       -0.069242485 0.078604795 -0.038650703 -0.037505906
000200 cc 2a 50 bd 9e 22 fd 3d ad d8 96 3d 24 f6 9b bd
       -0.050822064 0.12360118 0.073655464 -0.07615307
000210 88 94 e6 bc 11 de 59 bc 06 9d a7 bd 77 7f cb 3c
       -0.028146997 -0.013297574 -0.08184247 0.024841053
000220 0a 28 ec 3d 3f d3 e3 3d 86 71 42 3e d7 ad f4 3d
       0.11531074 0.11124276 0.18988618 0.1194722
000230 e9 39 28 3d 50 1a 37 bd 07 a8 0d bd d9 20 e2 3d
       0.041070852 -0.044702828 -0.03458407 0.110414214
000240 df c7 46 bc 5f bd 75 bc ed ef 96 3d 65 b1 d3 3c
       -0.012132614 -0.014998763 0.07369981 0.025841424
000250 16 69 92 3d f1 78 d6 bd b1 53 bb bc 95 cf ba 3d
       0.0714895 -0.104722865 -0.022867056 0.091216244
000260 bc dc 15 3e 2c 1b 01 3e c1 b3 0a be c8 e3 d9 bc
       0.14634985 0.12608021 -0.13545133 -0.026597872
000270 87 a1 05 3e 7a 76 c1 bd bb c3 e9 3d fe 47 08 bc
       0.13049899 -0.09446426 0.11414286 -0.0083179455
000280 92 d7 a5 3c 0b 4b c7 3d 51 82 f8 3d 93 0d 85 3d
       0.020244393 0.0973111 0.12134231 0.0649673
000290 9e 3f 18 3a 8b f9 a4 3d 1e 02 57 3c c9 98 02 be
       0.00058078195 0.08055409 0.013123063 -0.12753595
0002a0 ea ad 36 3d f3 cf d4 bd 3e af ee bd cf 62 99 3d
       0.04459945 -0.10391226 -0.116545185 0.07489549
0002b0 03 7e 2c be 11 a2 ad 3c 41 2a 2f bd 3c b0 19 be
       -0.16844945 0.021195443 -0.042764906 -0.15008634
0002c0 88 85 4e bd a7 6b 1c be e5 aa 1f 3e 1e 7c 08 3d
       -0.050420314 -0.15275441 0.15592535 0.033321492
0002d0 d2 57 1e 3d 10 e4 aa bd f1 a2 22 be 3b d0 3d 3d
       0.03865797 -0.08344281 -0.1588247 0.046341162
0002e0 77 10 1f 3e ff 25 27 3e 9c 13 ce 3c eb 75 d2 3d
       0.15533625 0.16323088 0.025155835 0.10276397
0002f0 76 ab 72 3d 5a a8 08 3e 07 e8 67 bd f0 a3 cb bd
       0.05924555 0.13345471 -0.056617763 -0.09943378
000300 6b 45 81 3d 4a a1 29 3d ed 17 02 3e 46 fc 50 bd
       0.063120686 0.041413583 0.1270444 -0.051021837
000310 29 b3 0d 3e 0b 5a 80 bd 9a c2 20 be e2 ca f5 3d
       0.13837875 -0.06267174 -0.15699235 0.120015875
000320 b8 09 8b bd de e5 2a bd 98 63 d6 bd ef 32 1d 3e
       -0.06788963 -0.041723125 -0.10468215 0.15351461
000330 af d9 1d be f5 a9 02 3e 00 3d 08 3e e1 02 aa bc
       -0.15415071 0.12760146 0.1330452 -0.020753326
000340 b4 cb 61 bd 9c 6c 82 bd 96 ec 27 3e 7e fb da bc
       -0.055125907 -0.06368372 0.16398844 -0.026731249
000350 10 56 4d bd 5a 42 92 bc c1 3b 11 be 0c 4e 6c 3d
       -0.050130904 -0.017853905 -0.1418295 0.05769162
000360 fb 48 0f bc c4 07 9c 3d f1 d8 d6 bb fc 88 e9 bd
       -0.008745427 0.07618669 -0.006556623 -0.11403081
000370 ac 29 d1 3d 36 11 2d be 67 16 59 bd 82 fe 2e be
       0.102130264 -0.16901097 -0.05299988 -0.17089275
000380 c6 c8 9d 3c 96 fd 04 be 6e 9a 9d 3d e2 d6 e7 3a
       0.019260775 -0.1298736 0.07695471 0.0017687941
000390 70 23 4a 3d e2 de be bd a6 30 73 bd 23 93 d6 bc
       0.049350202 -0.09319855 -0.059372567 -0.026193207
0003a0 a0 80 f5 3d b7 f9 85 bc 17 42 0f be 45 eb a0 bd
       0.11987424 -0.016354425 -0.13990055 -0.07857374
0003b0 8c 39 3f 3e 55 c0 01 be fc 32 b8 3d 87 55 22 3e
       0.18674296 -0.12671025 0.089940995 0.15852939
0003c0 8b 5e 9d bd bf b5 25 3e 6a de e6 bd 58 a9 2e 3d
       -0.07684048 0.16182612 -0.11272891 0.042641968
0003d0 94 12 44 bc 67 67 68 bc 86 16 35 3d 6d 31 c6 3d
       -0.01196732 -0.014184809 0.044210933 0.09677396
0003e0 4c 94 0f 3e 5a 46 46 3d b7 59 0b be f3 f5 f1 bd
       0.14021415 0.048406936 -0.13608442 -0.11814489
0003f0 59 93 84 3d dd 7d 0a 3e 0b e2 05 be b9 42 1f 3e
       0.06473417 0.13524576 -0.1307451 0.15552796

module.decoder.gru.bias_ih_l0 f4 [96]
000000 b2 b8 d7 bc 91 21 a1 bd ef 13 d3 3d 0d b5 1f bd
       -0.026333187 -0.078677304 0.103065364 -0.038991023
000010 8f 26 ab 3d 29 b1 b4 bc df 52 6b 3c 39 19 ee 3d
       0.08356964 -0.022057133 0.01436302 0.116259046
000020 bb db 2d 3e 9d 6b b6 bd cf 6c 50 bd 6a bf 8a bd
       0.16978352 -0.08907244 -0.050885018 -0.067747906
000030 01 40 6d bd 10 4d 6a 3d f7 0c 29 3e 61 c7 4c 3c
       -0.057922367 0.0572024 0.16508852 0.0124987075
000040 07 06 e8 3d 30 38 05 be 78 dc b3 bd 81 d2 a8 bc
       0.113292746 -0.13009715 -0.087822855 -0.020608189
000050 95 8a 17 3e c7 61 d3 3d c6 da 37 3d fe d5 b3 3d
       0.14798959 0.10321384 0.044886373 0.0878105
000060 f5 60 10 be 89 df 3f 3d 66 3d 7e 3c cb ba 1e 3e
       -0.14099486 0.04684404 0.015517568 0.15500943
000070 24 f6 8e bd 47 a0 e1 3d d6 38 57 bd 5f 05 06 bd
       -0.06980541 0.110168986 -0.052544437 -0.032719966
000080 ac c4 4d 3d b3 3a 2f 3d 77 5d e4 3d 03 19 22 3e
       0.05023639 0.04278059 0.111506395 0.15829854
000090 7f a0 29 3e 7f be d9 3d 2f 44 23 be 90 32 a9 bd
       0.1656513 0.10632037 -0.15943979 -0.08261597
0000a0 69 60 96 3a ff 67 6d bd 8e eb b4 3d b9 38 02 3e
       0.0011472824 -0.057960507 0.08833991 0.1271695
0000b0 2c 69 b7 3d 1c fd 43 3d e7 f3 8c 3d f8 67 1d 3e
       0.08955607 0.047848806 0.06882458 0.15371692
0000c0 c9 7e b8 bd 49 15 a1 3d 74 1e 4c 3e bf 88 de 3d
       -0.09008557 0.07865388 0.19933492 0.10865926
0000d0 cd 45 0f 3e 86 a2 d7 bd 1f 1a 8b 3d 55 92 00 be
       0.1399147 -0.10529046 0.067920916 -0.12555821
0000e0 ab 9d ba bc 89 86 ec bd 70 40 10 3e b1 18 0c 3d
       -0.02278026 -0.11549098 0.14087081 0.034203235
0000f0 68 a6 e2 bd 1b e0 2e 3d b3 5b 68 3c 2c 5d 17 be
       -0.11066896 0.042694192 0.014182019 -0.14781636
000100 f1 d5 08 be 12 b7 87 bd 72 88 33 3d ea fc a1 bd
       -0.13362862 -0.06626715 0.043831296 -0.07909568
000110 3e ba ab 3d ac 37 ad 3d 51 43 a1 3a c8 1a 1a 3e
       0.08385132 0.08457884 0.0012303387 0.15049279
000120 19 9c a3 bd 4f 2e 4b be 5e a7 9d bd c2 27 32 3e
       -0.07988758 -0.19841884 -0.076979384 0.17397979
000130 50 7d 26 3e 0c c5 0d bd 75 f6 33 be bd 24 92 3d
       0.1625874 -0.034611747 -0.17574485 0.071359135
000140 15 56 1d be 36 a0 1f 3e 4c a5 b2 3d 12 d3 46 be
       -0.15364869 0.1558846 0.08722934 -0.19416454
000150 bf 1d 4e 3e 1d b5 32 3a 20 72 f0 3d 8b e5 8c bb
       0.20128535 0.0006817149 0.117405176 -0.0042998246
000160 43 b1 c6 bd 46 12 24 be a7 09 f2 bd 8c 38 07 3e
       -0.09701779 -0.16022596 -0.11818247 0.13205165
000170 e1 c8 9e 3d 14 bf 14 be 3f 73 4b 3b 52 18 ac bd
       0.07753158 -0.14526016 0.0031044034 -0.08403076

module.decoder.gru.bias_hh_l0 f4 [96]
000000 e2 e9 8d 3d 03 07 ac 3d 13 2d 3f 3e 4c 29 34 3c
       0.06929375 0.08399775 0.18669538 0.010996174
000010 82 68 0d 3e bd d1 90 3c 81 6b e9 bc 61 df 0c be
       0.13809398 0.017678136 -0.028493645 -0.13757087
000020 1b c3 a1 3c bb 27 18 3e 72 91 d8 3c 8f 3c 02 be
       0.019746354 0.14858906 0.026436541 -0.12718414
000030 27 ce 48 3e ca 33 99 bd 5f ad 28 3e 18 ed 8f 3d
       0.19609891 -0.07480581 0.16472386 0.07027644
000040 c9 87 21 bd 41 cd 17 3e b0 1b e9 bc 76 ab 07 be
       -0.039436135 0.14824392 -0.028455585 -0.13249001
000050 91 46 f9 bc 67 16 16 bd 6e df b9 bd e7 c6 2d 3e
       -0.030429156 -0.03664246 -0.09075819 0.16970406
000060 b0 66 e0 3d 79 fb f1 3c 96 f1 2c bd c1 a7 73 3d
       0.10957086 0.029538857 -0.04222258 0.059486154
000070 86 72 20 be c5 00 14 3e 30 bd 8c bd 31 2b a6 bb
       -0.15668687 0.14453419 -0.06872022 -0.005071067
000080 3b 22 47 3e 98 24 85 3d 1c 7b 3f 3d 43 34 49 bd
       0.19446652 0.0650112 0.046748266 -0.049122106
000090 8c 92 ac 3c eb 3f 3d 3e f0 a7 31 3e 7a 25 6a b9
       0.021065973 0.18481414 0.1734922 -0.0002232994
0000a0 57 80 0b 3e 41 cc f0 3c 78 7f 23 be bb 2b 2d 3d
       0.13623177 0.02939427 -0.15966594 0.042278033
0000b0 8b 02 04 be 24 90 75 bd 20 a1 98 bd fb 81 8d bd
       -0.12891595 -0.059951916 -0.07452607 -0.069095574
0000c0 24 c9 8f 3d f6 f8 0a bd 45 21 00 be 8b 0e 8c 3d
       0.070207864 -0.033928834 -0.12512691 0.06838711
0000d0 1f da a2 3d 8e 5c 9d 3d 08 91 f9 bc 9e 5f 28 be
       0.079517595 0.07683669 -0.030464664 -0.16442725
0000e0 7d 1a 3a 3d ad 71 d1 3d 59 c8 01 bd 98 6b 2d 3c
       0.045435417 0.1022676 -0.031685207 0.010584734
0000f0 4d 8c 2b be 0b 8f 47 be e7 56 1a bb 01 2d fa bc
       -0.16752739 -0.1948816 -0.0023550333 -0.030539038
000100 de 69 cc 3b 39 36 26 bd d2 e9 0b be 12 92 cd 3d
       0.0062382063 -0.040579055 -0.13663414 0.10037626
000110 ac 6f 97 3d 9c f3 af 3d be 26 f9 bc 12 8e 45 3e
       0.073943466 0.08591387 -0.030413982 0.19292477
000120 7e 9e 0d 3e 67 79 44 be b9 44 78 3d 25 39 1e 3e
       0.13829991 -0.19186936 0.060612414 0.15451486
000130 7f 9b 1e 3e 2f b9 9f 3d ad 2f 3f be 6e f0 95 3d
       0.15489005 0.07798993 -0.1867053 0.07321249
000140 87 98 ed bd 9c 3d 42 3e 3a 8e 87 3d aa 9e 80 3d
       -0.11601358 0.18968815 0.066189244 0.06280263
000150 c1 d2 6e 3d 11 21 fd bd ab ca be bd c6 57 44 bd
       0.05830646 -0.123598225 -0.093159996 -0.04793527
000160 ce 6c 23 bd f1 9e e2 3d a3 8a 9f bd fc 64 38 be
       -0.039898686 0.11065472 -0.07790115 -0.18007272
000170 17 2b 28 3e 31 04 a0 3d a8 f3 50 bd 87 f0 39 3e
       0.16422687 0.078132994 -0.05101362 0.1815816
