models/ES_checkpoint_TRAIN_sequence1folds_0.005lr_16batch_10ep.ckpt (torch, 584343 bytes, 12 tensors)

module.encoder.gru.weight_ih_l0 f4 [96, 32]
0.048631597 -0.20283747 0.057056513 -0.04285716 0.016452389 -0.1421859 0.020645563 -0.14668287
0.010098809 -0.17304702 -0.041578524 0.07534986 -0.06308032 0.13737002 0.026721323 0.034506157
-0.0893132 0.18694173 -0.13113081 -0.06294976 -0.041586332 -0.008753309 -0.07598926 -0.07901811
-0.13227724 -0.077839635 0.07319264 0.07458959 -0.20573416 0.13738793 0.17126626 -0.06931681
-0.044782225 0.16214997 0.22714885 0.03716506 0.01392205 0.16930543 0.09795047 -0.10754916
0.09384605 0.009299946 -0.2097408 0.17373051 0.028889373 -0.15511176 0.21375701 0.07580969
-0.2340853 0.07274683 0.1451954 0.050274536 -0.07572783 -0.065001175 -0.12854771 -0.16877776
-0.05744838 -0.0027535036 0.14871393 -0.037939213 0.120093584 -0.12743121 -0.017209698 0.060857702
0.0562882 -0.024920508 -0.095845096 0.017004253 -0.026608547 -0.0979085 -0.059476417 -0.16672902
0.04596487 -0.24166079 0.21673314 -0.18216062 -0.12758313 0.26240647 -0.13996567 -0.21474348
0.045941792 0.052136898 -0.14298373 0.041085877 -0.06417075 -0.070131145 0.1434379 0.090433806
-0.22885396 -0.20482941 -0.11257098 0.010576289 -0.10077015 0.059437178 0.018098567 -0.028443683
0.16843127 -0.24533343 0.06229069 -0.030874548 -0.14450288 -0.13275209 0.16455407 -0.09434888
0.11881156 -0.106124036 0.06498298 -0.026397748 -0.17173499 0.21013443 -0.02970172 -0.15342388
0.019487994 0.1569162 -0.07632677 0.13238269 -0.23420353 0.025466595 0.20018236 0.14181817
0.030028498 -0.09183577 -0.07150746 -0.22076632 -0.04952683 -0.017372599 0.1094165 -0.061111156
0.07554986 0.074404344 -0.25219992 -0.24289519 0.19861917 -0.051082756 0.05123345 -0.18547869
-0.00965528 -0.19659197 -0.00460146 -0.2197079 0.00667851 -0.02334198 -0.02589405 -0.018988997
0.22218788 0.24958493 -0.19872391 -0.035248157 -0.20798087 -0.071644455 -0.07771948 0.19961554
-0.17323978 -0.18466121 0.060800493 0.022257548 -0.13085747 -0.078367606 0.1701862 0.14078048
0.2737611 -0.2402841 0.025082687 -0.19150996 0.17109141 -0.14407867 0.046532646 -0.0363933
0.03968324 -0.13900924 -0.08294373 0.017219407 0.054620273 0.19112363 -0.25246665 -0.025852308
-0.03492199 0.1795799 0.06238411 0.14429808 -0.27354833 0.09277777 0.10952058 0.006276312
-0.25817257 -0.12321175 -0.19789755 -0.23879725 -0.06904214 0.033105664 0.015414084 0.14295447
-0.013393199 0.07843431 -0.060129758 -0.03147322 0.105169944 -0.054080475 0.06612429 -0.11248359
-0.019956913 -0.1288494 0.09968969 -0.23292482 0.08548885 0.22785458 0.02151504 -0.18625233
0.07635108 0.13172649 -0.16958585 0.059094727 -0.2181076 -0.0686329 -0.0034493397 0.027911603
-0.10824846 -0.20066306 -0.03692757 -0.07578029 -0.037611093 0.13915865 0.14944337 0.011063997
-0.008750627 -0.10841829 -0.21863654 0.06699491 -0.018248195 0.023528835 -0.08101048 -0.16853759
0.06386571 -0.023768505 0.25073093 -0.2482357 0.016561838 -0.07940863 0.09018445 0.067837864
0.002142505 -0.07924193 -0.24122646 0.24922153 -0.12425925 0.23300809 -0.099094994 0.06472295
0.06326689 -0.06244981 -0.2529129 -0.18387137 -0.23254204 0.22924891 0.20602636 0.16004401
00000000: ed31 473d a0b4 4fbe 17b4 693d fd8a 2fbd
00000010: 29c7 863c 2e99 11be e220 a93c 0934 16be
00000020: 7a75 253c 3d33 31be 3e4e 2abd 0751 9a3d
00000030: 4130 81bd baaa 0c3e ade6 da3c 5456 0d3d
00000040: d7e9 b6bd a76d 3f3e 2847 06be ceeb 80bd
00000050: 6e56 2abd 0a6a 0fbc 42a0 9bbd 3fd4 a1bd
00000060: af73 07be 636a 9fbd 06e6 953d 6dc2 983d
00000070: faab 52be 6caf 0c3e 6c60 2f3e f9f5 8dbd
00000080: 916d 37bd a40a 263e b599 683e 643a 183d
00000090: 4f19 643c 675e 2d3e 429a c83d bc42 dcbd
000000a0: 5c32 c03d cd5e 183c 4bc6 56be 69e6 313e
000000b0: 68a9 ec3c 9ed5 1ebe 1ee3 5a3e 1c42 9b3d
000000c0: 0fb4 6fbe 4afc 943d 1aae 143e acec 4d3d
000000d0: 3117 9bbd 561f 85bd 03a2 03be 14d4 2cbe
000000e0: fe4e 6bbd 2074 34bb 7748 183e 2666 1bbd
000000f0: a0f3 f53d 547d 02be 5afb 8cbc ed45 793d
00000100: 758e 663d 1826 ccbc 6f4a c4bd 814c 8b3c
00000110: 2bfa d9bc 4084 c8bd 8b9d 73bd 03bb 2abe
00000120: a945 3c3d ed75 77be 4bef 5d3e 5088 3abe
00000130: 27a5 02be 245a 863e 2953 0fbe b7e5 5bbe
00000140: 762d 3c3d 808d 553d 546a 12be aa49 283d
00000150: f46b 83bd eba0 8fbd 63e1 123e 5c35 b93d
00000160: b158 6abe cdbe 51be 9d8b e6bd 2c48 2d3c
00000170: 9560 cebd 6674 733d 7243 943c ba02 e9bc
00000180: 3f79 2c3e b038 7bbe 8624 7f3d 9fec fcbc
00000190: 90f8 13be 2af0 07be dd80 283e fc39 c1bd
000001a0: 7a53 f33d 8f57 d9bd cc15 853d 1740 d8bc
000001b0: 4cdb 2fbe 7b2d 573e 0651 f3bc 261b 1dbe
000001c0: 49a5 9f3c a4ae 203e 3651 9cbd 548f 073e
000001d0: 0dd3 6fbe 529f d03c 9bfc 4c3e c838 113e
000001e0: 53fe f53c 6414 bcbd 8172 92bd 9110 62be
000001f0: a5dc 4abd fb50 8ebc c215 e03d b14f 7abd
00000200: e3b9 9a3d 4e61 983d 5920 81be 84b9 78be
00000210: d362 4b3e 273c 51bd 2bda 513d 20ee 3dbe
00000220: 2e31 1ebc 684f 49be d8c7 96bb 1cfb 60be
00000230: 67d7 da3b ae37 bfbc c21f d4bc d08e 9bbc
00000240: 3885 633e 3193 7f3e 487e 4bbe 5f60 10bd
00000250: f0f8 54be 54ba 92bd 642b 9fbd 0468 4c3e
00000260: c565 31be d417 3dbe f009 793d 7655 b63c
00000270: 80ff 05be 327f a0bd 4b45 2e3e c228 103e
00000280: 6a2a 8c3e 090d 76be 357a cd3c 301b 44be
00000290: 9632 2f3e 5c89 13be 0499 3e3d 2411 15bd
000002a0: e58a 223d 7058 0ebe 67de a9bd b70f 8d3c
000002b0: 82b9 5f3d eab5 433e 4f43 81be 38c8 d3bc
000002c0: 5c0a 0fbd cbe3 373e 7b86 7f3d e0c2 133e
000002d0: 870e 8cbe 4502 be3d 534c e03d 85a9 cd3b
000002e0: 322f 84be 7156 fcbd a8a5 4abe 4487 74be
000002f0: f765 8dbd ce99 073d 5b8b 7c3c a862 123e
00000300: 266f 5bbc 2ba2 a03d 9f4a 76bd 10ea 00bd
00000310: 5763 d73d 7d83 5dbd 2c6c 873d cc5d e6bd
00000320: ae7c a3bc 19f1 03be 1c2a cc3d d883 6ebe
00000330: c714 af3d b652 693e 4f40 b03c eeb8 3ebe
00000340: f45d 9c3d 4fe3 063e eaa7 2dbe 500d 723d
00000350: 9957 5fbe 688f 8cbd 510e 62bb e0a6 e43c
00000360: 5eb1 ddbd 9e7a 4dbe 5d41 17bd b232 9bbd
00000370: 170e 1abd 9b7f 0e3e af07 193e c445 353c
00000380: ca5e 0fbc 690a debd 42e2 5fbe a134 893d
00000390: 3d7d 95bc 8bbf c03c d3e8 a5bd 1e95 2cbe
000003a0: 06cc 823d 2bb6 c2bc ce5f 803e 8031 7ebe
000003b0: b1ac 873c fea0 a2bd a0b2 b83d 94ee 8a3d
000003c0: 4569 0c3b 9849 a2bd 1204 77be ee33 7f3e
000003d0: a27b febd ac99 6e3e 51f2 cabd 778d 843d
000003e0: 1292 813d 5fcb 7fbd cd7d 81be c748 3cbe
000003f0: 801f 6ebe 3ac0 6a3e 93f8 523e 94e2 233e

module.encoder.gru.weight_hh_l0 f4 [96, 32]
0.03872756 0.035551943 0.07871458 0.12723997 -0.020821445 -0.09334693 0.026208276 0.09317454
-0.079134576 -0.15707532 0.012220028 0.07843914 0.2051994 0.22758006 -0.18237017 -0.057874065
-0.09354878 -0.14894523 0.055587746 0.09569121 -0.21123223 0.13987736 0.058062155 -0.2571856
0.009211236 0.042818926 -0.12786818 -0.116003186 0.17756404 0.22360767 0.20825538 -0.24042055
-0.13605593 0.15457435 0.19946432 -0.016462969 -0.15287492 0.12403328 -0.25034124 -0.21142147
0.051693942 0.16491264 0.061408833 -0.02903478 -0.13414022 -0.16266255 0.24730842 -0.022178235
0.20219691 -0.10415658 -8.3760344e-05 0.07877226 0.07764819 -0.008263871 0.18713334 0.05484315
-0.0867198 -0.02439949 0.12855677 0.024460752 0.037634566 0.045215998 -0.20418587 0.14213488
0.26930618 -0.11749736 -0.066423625 -0.06865705 0.026702251 -0.065159686 0.058741108 -0.04446951
0.061299346 -0.16898127 0.24628814 0.06135163 0.14670628 0.20413989 0.14973024 -0.07019578
-0.22269812 -0.18985377 -0.29241464 0.117817774 -0.08734542 -0.011869003 -0.12142009 0.017169992
-0.037879404 -0.22745514 -0.22679184 -0.18915145 -0.05480444 0.23793146 0.2743599 0.012769917
0.1735669 -0.14810659 -0.23587526 -0.06600077 0.08342487 0.02523425 -0.0034869595 0.1379814
0.026582625 0.0029468096 0.058375258 -0.083234854 -0.047435883 0.22668013 -0.0037925495 -0.086243235
-0.14663064 -0.20016883 0.04830046 0.16010056 -0.1643262 0.03604613 -0.16423531 -0.2558693
-0.07276916 -0.15019894 0.01897374 -0.11542466 0.20157102 0.25844112 0.07319092 0.01492358
-0.019934196 -0.08465136 -0.18461247 -0.044407286 0.06380897 0.015273238 0.019892085 0.114967264
0.08149082 -0.13600126 0.18460688 -0.042347133 0.00016945164 -0.027633585 -0.09950696 0.26923788
-0.20971948 -0.113404706 -0.20443067 0.1811378 -0.13597454 0.2020903 -0.08429868 -0.09913852
-0.028377073 -0.14271848 -0.118923604 -0.15037632 0.2408505 0.12965213 0.20949697 -0.0898193
0.08901552 0.070452005 0.059413385 0.12748763 0.2095418 -0.13320798 0.20870951 -0.18161145
-0.031852096 -0.16268624 0.22459196 -0.096149966 0.037558723 0.2761555 -0.1189444 0.040488075
-0.095029466 -0.010702874 -0.17200133 -0.13049965 -0.15170948 0.19915505 -0.23389706 0.046551697
0.216822 -0.18734959 0.05039862 -0.027822563 -0.013969434 -0.014490197 0.12099818 -0.10806752
0.19304453 -0.06437839 -0.2071431 0.07191148 0.23402897 -0.002879904 0.10902293 0.10942774
-0.09768924 -0.17485254 0.107100256 -0.22727704 0.09109661 -0.04214466 0.03527757 0.24276254
-0.038907085 -0.21158022 -0.06245478 0.04355653 -0.020529987 -0.064189225 0.03728546 -0.043721844
0.12731254 0.07268848 -0.044056915 -0.081211194 -0.07692358 0.052682184 0.2214119 -0.2602274
0.22613418 0.04269937 -0.20304392 0.1599175 0.048129566 -0.13519803 -0.008250755 0.0790483
-0.2338834 -0.03228277 0.18296346 -0.21618801 0.24632247 0.23022868 -0.19910572 0.004628919
-0.16387025 0.017416818 -0.09709538 0.09546261 -0.016136339 -0.059436746 -0.16142191 -0.18862128
8.335763e-05 -0.06876798 0.10344467 -0.15497941 0.23053595 0.23347518 0.030081606 -0.13471696
00000000: caa0 1e3d ea9e 113d 1c35 a13d 324b 023e
00000010: bc91 aabc ad2c bfbd bdb2 d63c 4bd2 be3d
00000020: 4f11 a2bd 5ad8 20be 8336 483c b3a4 a03d
00000030: cb1f 523e bf0a 693e 3fbf 3abe 5b0d 6dbd
00000040: 8196 bfbd 1985 18be faaf 633d c1f9 c33d
00000050: 434d 58be 033c 0f3e 95d2 6d3d d5ad 83be
00000060: b9ea 163c e662 2f3d e0ef 02be 1493 edbd
00000070: 59d3 353e 69f9 643e e640 553e ce30 76be
00000080: 3f52 0bbe bd48 1e3e 6040 4c3e 59dd 86bc
00000090: 3e8b 1cbe 2905 fe3d ba2c 80be df7e 58be
000000a0: 07bd 533d dcde 283e d487 7b3d 59da edbc
000000b0: 0e5c 09be 0391 26be 6b3e 7d3e 21af b5bc
000000c0: b50c 4f3e 0c50 d5bd 7ea8 afb8 5a53 a13d
000000d0: 0406 9f3d 3065 07bc e29f 3f3e 36a3 603d
000000e0: 279a b1bd 70e1 c7bc 63a4 033e ea61 c83c
000000f0: b426 1a3d 6934 393d 1a16 51be ce8b 113e
00000100: 80e2 893e 75a2 f0bd 1c09 88bd 119c 8cbd
00000110: aebe da3c 7172 85bd 849a 703d a925 36bd
00000120: 0615 7b3d 6d09 2dbe f532 7c3e d94b 7b3d
00000130: 2c3a 163e 0c0a 513e e252 193e cec2 8fbd
00000140: fa0a 64be 0769 42be 5fb7 95be 724a f13d
00000150: 28e2 b2bd 3576 42bc 19ab f8bd 15a8 8c3c
00000160: 6f27 1bbd 00ea 68be 1f3c 68be ebb0 41be
00000170: 9f7a 60bd 4ea4 733e e778 8c3e ea38 513c
00000180: 85bb 313e 41a9 17be 4989 71be 692b 87bd
00000190: a9da aa3d 0fb8 ce3c 7985 64bb ff4a 0d3e
000001a0: cec3 d93c 431f 413b e51a 6f3d 0977 aabd
000001b0: 214c 42bd d61e 683e 6c8c 78bb 4ba0 b0bd
000001c0: 5826 16be 0ff9 4cbe b4d6 453d 67f1 233e
000001d0: 2145 28be 1ba5 133d 4d2d 28be 4d01 83be
000001e0: ff07 95bd c0cd 19be d16e 9b3c c463 ecbd
000001f0: a268 4e3e 6552 843e 1fe5 953d 0882 743c
00000200: 0a4d a3bc b15d adbd 0d0b 3dbe 6ae4 35bd
00000210: 47ae 823d 9a3c 7a3c baf4 a23c f573 eb3d
00000220: a9e4 a63d ea43 0bbe 9609 3d3e 3074 2dbd
00000230: d4ae 3139 d45f e2bc 4eca cbbd 8cd9 893e
00000240: b4c0 56be ba40 e8bd 4656 51be 307c 393e
00000250: e93c 0bbe c2f0 4e3e c9a4 acbd 2309 cbbd
00000260: 0977 e8bc cb24 12be 388e f3bd 40fc 19be
00000270: 83a1 763e 87c3 043e 6086 563e 2ef3 b7bd
00000280: c54d b63d 2449 903d 735b 733d 1e8c 023e
00000290: 2092 563e ac67 08be f2b7 553e 5af8 39be
000002a0: 5877 02bd 3997 26be 6ffb 653e 46ea c4bd
000002b0: 2dd7 193d 4164 8d3e 1f99 f3bd d3d6 253d
000002c0: cf9e c2bd 1b5b 2fbc 1e21 30be b3a1 05be
000002d0: bb59 1bbe 4def 4b3e b682 6fbe feac 3e3d
000002e0: 9606 5e3e 92d8 3fbe c96e 4e3d 25ec e3bc
000002f0: 0ee0 64bc 4b68 6dbc e5cd f73d 8152 ddbd
00000300: 77ad 453e d1d8 83bd 521d 54be 5346 933d
00000310: 4aa5 6f3e c5bc 3cbb 6a47 df3d a71b e03d
00000320: 4c11 c8bd 8b0c 33be 6157 db3d 50bb 68be
00000330: dc90 ba3d e19f 2cbd 377f 103d be96 783e
00000340: 095d 1fbd 7ca8 58be 95d0 7fbd 5568 323d
00000350: 812e a8bc a475 83bd a3b8 183d ad15 33bd
00000360: 385e 023e b3dd 943d 0675 34bd 0e52 a6bd
00000370: 1c8a 9dbd 46c9 573d cdb9 623e 873c 85be
00000380: b88f 673e 89e5 2e3d bfea 4fbe 6ac1 233e
00000390: 8223 453d 5a71 0abe 2d2e 07bc 13e4 a13d
000003a0: 217f 6fbe f03a 04bd c65a 3b3e 6460 5dbe
000003b0: f53b 7c3e 11c1 6b3e 5fe2 4bbe 30ae 973b
000003c0: 9acd 27be b7ad 8e3c f1d9 c6bd e781 c33d
000003d0: 5b30 84bc f273 73bd c94b 25be f025 41be
000003e0: 49d0 ae38 3ad6 8cbd cdda d33d ecb2 1ebe
000003f0: 9e11 6c3e 1e14 6f3e b36d f63c 3ef3 09be

module.encoder.gru.bias_ih_l0 f4 [96]
-0.064415686 0.062903866 0.16068442 0.1273068 0.24560685 0.25365713 0.1563292 0.10483499
-0.09034839 -0.056838326 -0.03078082 0.2055129 0.22480386 0.05994801 0.28748745 0.016777221
-0.022994775 0.03102953 -0.015048682 0.10181685 0.01581241 0.08639035 0.0996883 0.14886537
0.046264056 0.078594014 0.081670456 0.20105134 -0.028810902 0.21212772 0.26049268 -0.0012138789
0.13292354 -0.11280975 0.16138947 0.1308821 -0.019655887 0.064606406 -0.15084063 -0.094996326
-0.17349423 -0.06745693 0.16216606 0.13400808 -0.12321219 -0.081227206 -0.07271521 0.067636415
-0.088903114 0.059573848 -0.16873914 -0.18260202 -0.109658085 0.08823876 0.10137486 0.05746501
0.13566351 0.0684847 -0.012061602 0.13471736 0.035099294 0.14796482 -0.033734273 0.09339475
0.0012068598 0.038207695 -0.18324882 0.214852 0.075316764 -0.04823873 0.07870469 0.2149966
-0.25127473 -0.016113617 -0.13860904 -0.1991851 0.10443312 0.04048451 -0.22525166 0.06220975
-0.11978974 -0.2038305 -0.25004992 0.067892246 0.011588738 0.21185052 -0.2449005 -0.10674805
0.110272005 -0.28946498 -0.10053873 -0.049159918 0.042989634 0.2150881 0.25317645 -0.10920574
00000000: 5fec 83bd bed3 803d 758a 243e b75c 023e
00000010: 5d80 7b3e 59df 813e c314 203e bab3 d63d
00000020: 9408 b9bd 4ecf 68bd 0f28 fcbc f971 523e
00000030: fc32 663e 0b8c 753d 8e31 933e 6270 893c
00000040: 8a5f bcbc a431 fe3c bf8e 76bc 5a85 d03d
00000050: 0789 813c 6ced b03d 6129 cc3d 2a70 183e
00000060: 617f 3d3d e6f5 a03d d742 a73d 67e0 4d3e
00000070: d704 ecbc 0238 593e 4c5f 853e 041b 9fba
00000080: 1c1d 083e cc08 e7bd 4843 253e f505 063e
00000090: 6205 a1bc 5d50 843d f775 1abe 6f8d c2bd
000000a0: 79a8 31be dc26 8abd dc0e 263e 6a39 093e
000000b0: ac56 fcbd 735a a6bd b6eb 94bd f684 8a3d
000000c0: d612 b6bd b503 743d f4c9 2cbe 06fc 3abe
000000d0: 6b94 e0bd 86b6 b43d 9f9d cf3d 6e60 6b3d
000000e0: 60eb 0a3e b541 8c3d 079e 45bc 59f3 093e
000000f0: 47c4 0f3d 1784 173e f32c 0abd bf45 bf3d
00000100: 7f2f 9e3a ac7f 1c3d 94a5 3bbe 2a02 5c3e
00000110: ad3f 9a3d f995 45bd ed2f a13d 1228 5c3e
00000120: 15a7 80be b400 84bc 87ef 0dbe 2ef7 4bbe
00000130: 08e1 d53d 16d3 253d 5fa8 66be a7cf 7e3d
00000140: 5354 f5bd f1b8 50be 8b06 80be 170b 8b3d
00000150: b1de 3d3c 58ef 583e 32c7 7abe b99e dabd
00000160: 4ad6 e13d c134 94be 40e7 cdbd e95b 49bd
00000170: e615 303d 0e40 5c3e 58a0 813e 42a7 dfbd

module.encoder.gru.bias_hh_l0 f4 [96]
0.24181877 -0.11397507 -0.039129328 0.1772629 -0.004728632 0.27103403 0.06265934 0.21404132
-0.15170333 0.23676161 -0.14871728 0.083260715 -0.046419766 0.25332445 0.04212357 0.08409861
0.17913504 0.15253547 -0.02788571 -0.13596566 -0.039623767 0.19009365 0.119341835 0.063954495
0.12550998 0.14418504 0.22619884 0.0676133 0.0013425855 0.021100454 0.23540878 -0.017770898
-0.104801536 0.10356539 -0.057181645 0.123857595 -0.17631091 -0.17459162 0.045487307 0.07321197
-0.13588731 0.16115157 0.13834801 0.088841565 -0.025449917 -0.14493316 -0.11810411 -0.03345826
-0.02104746 0.20383658 0.002135872 -0.061171904 0.16343546 0.018848652 0.111212924 -0.07690674
-0.015691957 -0.030075805 0.20000258 0.042642362 -0.14530955 0.07476605 -0.16106111 -0.20672314
0.016448513 0.19496216 0.013352153 0.15348741 0.20171845 -0.12016658 0.06640057 0.012923648
-0.2461476 -0.007175241 -0.10661825 -0.2904931 0.26331204 0.19922292 -0.14589196 0.004916062
-0.30470932 -0.29760748 -0.116067946 -0.1569893 -0.07374657 0.070315756 -0.11408226 -0.058081772
0.089743696 -0.19416587 -0.21623327 -0.09342057 0.03707701 0.31737563 0.03692695 -0.2086293
00000000: 579f 773e c36b e9bd 1346 20bd 6884 353e
00000010: a4f2 9abb f9c4 8a3e 8a53 803d a62d 5b3e
00000020: 1e58 1bbe a371 723e 5849 18be 9884 aa3d
00000030: a722 3ebd beb3 813e c489 2c3d e43b ac3d
00000040: 2d6f 373e 4232 1c3e 9370 e4bc 953a 0bbe
00000050: 884c 22bd e9a7 423e 7e69 f43d 93fa 823d
00000060: b085 003e 3ea5 133e aba0 673e d878 8a3d
00000070: b2f9 af3a dcda ac3c 000f 713e 4694 91bc
00000080: 30a2 d6bd 171a d43d 4d37 6abd 0da9 fd3d
00000090: d98a 34be 25c8 32be e650 3a3d 28f0 953d
000000a0: 0b26 0bbe eb04 253e 1aab 0d3e 91f2 b53d
000000b0: 587c d0bc 5c69 14be 91e0 f1bd 870b 09bd
000000c0: b96b acbc 89ba 503e fcf9 0b3b 648f 7abd
000000d0: a05b 273e 7d68 9a3c 9ac3 e33d 4881 9dbd
000000e0: 6b8c 80bc 8961 f6bc 7acd 4c3e c2a9 2e3d
000000f0: 07cc 14be f11e 993d 34ed 24be 3baf 53be
00000100: 08bf 863c 29a4 473e fdc2 5a3c ce2b 1d3e
00000110: 488f 4e3e e519 f6bd 06fd 873d b5bd 533c
00000120: 1e0e 7cbe 491e ebbb ab5a dabd 83bb 94be
00000130: d6d0 863e 1801 4c3e b464 15be eb16 a13b
00000140: dc02 9cbe 0260 98be 08b5 edbd cec1 20be
00000150: 7108 97bd b501 903d f6a3 e9bd 27e7 6dbd
00000160: 8bcb b73d 6bd3 46be 416c 5dbe 4953 bfbd
00000170: 10de 173d 0f7f a23e b740 173d eba2 55be

module.encoder.embedding.weight f4 [1368, 32]
0.5313897 -0.24698605 -0.53124577 -0.8422725 -0.96071917 -1.3725779 -0.9020076 3.1746254
0.74398506 0.6921906 -0.54013306 1.6671638 -0.3535591 -2.3249352 0.20367768 1.8918765
0.5051314 0.41922048 0.3778348 -2.097982 1.1765373 -0.96879494 -1.5967574 0.44899413
0.7675016 -0.3678915 -1.6910431 -0.48198545 -0.42898235 0.3762521 1.5473368 0.5403902
0.30255455 0.6595469 0.7705529 1.897144 0.94040537 0.96069205 1.0447679 -0.1349193
0.04587325 0.6937852 -0.05764375 0.627795 0.44907698 -0.8685619 -1.5698894 0.35508665
-1.0295448 -0.23513296 -0.4448616 1.2030739 -0.11400407 -1.4307123 -0.81562984 -0.31424278
1.7350249 0.31981498 -1.3213977 -0.29727226 -1.5318604 -0.20353858 0.90374655 -0.47851393
-0.8127613 0.7041238 -0.3250572 -0.19319843 -0.086234055 -0.07972191 -1.724417 -0.56021404
0.22820233 0.4740062 2.0238934 -0.37302986 -0.60098886 1.8579649 0.3592312 -0.34937656
-0.81526774 2.2935236 0.95547587 0.25532013 0.16280481 -0.22356708 1.1676465 -1.6652858
2.1015484 -1.9338794 -0.48623857 -0.021233138 0.9596385 -0.1641393 0.18605053 0.06820412
-0.2666131 0.46336192 1.2465823 0.37358502 0.4588394 0.3818829 -0.21935993 -1.6752015
-0.47574496 -0.071523905 -1.9605644 -0.5874655 0.9843929 -0.79606164 -1.0507379 0.97088134
0.13957858 -1.2771363 -0.9101965 -1.0164415 2.2657478 -1.3510392 -1.8675488 -1.3642069
1.6512166 -1.1395562 -0.89593965 0.46264625 -2.1393754 0.6205072 -1.6279986 -0.5183229
0.6451737 -0.6839824 1.534365 0.8679895 -0.2912255 0.19545215 0.964512 -0.74263686
-0.1564398 -0.52181214 -1.3180279 -0.013431229 0.48058054 -1.3742056 -0.13600452 -0.6140017
-0.88951623 0.16476241 -0.46732476 0.70161164 0.4391702 -1.4079463 -0.74096286 0.15290976
-0.13409925 0.5332908 0.022688374 0.9673947 -1.7949567 -1.5516933 0.6555519 -0.5682396
-1.9699589 -0.6634459 0.25341594 -0.027557952 0.22647795 -0.085173324 -1.832886 -1.2080587
0.9520723 0.86870295 0.0069464813 -1.8122001 -0.8883673 2.653643 1.1719574 -0.94424444
-0.50926447 0.68187815 -0.8525901 -0.59596086 0.21728389 0.022515085 0.76566887 -0.6723092
0.33806542 -0.2675746 -1.4045361 1.2703842 1.4352577 -0.023937436 0.4960833 0.10741928
-0.83040607 0.027108517 -0.86107564 -0.38609546 -0.07027098 0.623841 -0.8005262 -0.8430481
-1.3852569 0.52007246 0.40414914 -0.22864895 -0.8147894 -0.43753198 1.0093287 0.5308288
1.248548 -0.9809131 -0.8589858 -0.07383044 1.138625 -1.2133927 -1.4100673 1.3494029
-0.35589227 0.45622632 -0.7764793 2.1405404 -0.20098116 1.4727181 -1.8298743 -0.22802423
0.84483564 0.4901297 2.3306932 -0.76684755 1.7205229 0.75516677 0.994749 0.09269833
0.13784415 0.7287929 0.0692164 0.3902385 1.213628 -0.12872882 0.15674274 -0.9103777
0.5808336 0.85156 1.0121405 1.3293494 -1.0805787 -0.28550497 -0.0089211445 -2.424133
0.54454535 -0.8708636 1.3659191 0.20723264 0.17204908 1.6922125 1.0985281 -0.69187874
00000000: 2809 083f e9e9 7cbe b9ff 07bf 2c9f 57bf
00000010: b1f1 75bf a2b0 afbf f8e9 66bf 102d 4b40
00000020: ce75 3e3f 6733 313f 2946 0abf a065 d53f
00000030: b305 b5be bdcb 14c0 e290 503e 0229 f23f
00000040: 4b50 013f 11a4 d63e 9073 c13e 5645 06c0
00000050: c698 963f f202 78bf 8c62 ccbf 8fe2 e53e
00000060: fc7a 443f 465c bcbe 1a74 d8bf ccc6 f6be
00000070: 93a3 dbbe 1ea4 c03e 220f c63f 0357 0a3f
00000080: 6ee8 9a3e 11d8 283f f442 453f 9dd5 f23f
00000090: 68be 703f eaef 753f f4ba 853f 4928 0abe
000000a0: 97e5 3b3d e89b 313f da1b 6cbd 2cb7 203f
000000b0: 6bed e53e 135a 5ebf 23f2 c8bf ebcd b53e
000000c0: 20c8 83bf b2c6 70be e6c4 e3be 53fe 993f
000000d0: f77a e9bd 9521 b7bf 1ecd 50bf 6ee4 a0be
000000e0: 4c15 de3f cabe a33e 8f23 a9bf 1234 98be
000000f0: 0014 c4bf 6b6c 50be ef5b 673f c7ff f4be
00000100: 2011 50bf 7541 343f e66d a6be cfd5 45be
00000110: 7b9b b0bd 3e45 a3bd b2b9 dcbf 306a 0fbf
00000120: dfad 693e f1b0 f23e 7887 0140 c5fd bebe
00000130: 68da 19bf cbd1 ed3f 27ed b73e 7ce1 b2be
00000140: 63b5 50bf 17c9 1240 119a 743f 52b9 823e
00000150: 4eb6 263e c5ee 64be 7175 953f 1628 d5bf
00000160: c57f 0640 5c89 f7bf 43f4 f8be 1ef1 adbc
00000170: deaa 753f 2214 28be 0884 3e3e 9aae 8b3d
00000180: 8381 88be c63d ed3e 0290 9f3f 8946 bf3e
00000190: ffec ea3e 2886 c33e e49f 60be 016d d6bf
000001a0: d894 f3be 207b 92bd c6f3 fabf 2464 16bf
000001b0: 2c01 7c3f b2ca 4bbf 947e 86bf ae8b 783f
000001c0: b0ed 0e3e 3479 a3bf a302 69bf c11a 82bf
000001d0: 0302 1140 daee acbf d70b efbf 559e aebf
000001e0: 115b d33f fadc 91bf 4d5c 65bf f8df ec3e
000001f0: 87eb 08c0 8fd9 1e3f 4262 d0bf cfb0 04bf
00000200: 1b2a 253f 7819 2fbf 1366 c43f 8f34 5e3f
00000210: 821b 95be 9c24 483e 42ea 763f 731d 3ebf
00000220: c131 20be 7b95 05bf 23b5 a8bf a80e 5cbc
00000230: a70e f63e f8e5 afbf c544 0bbe 372f 1dbf
00000240: 56b7 63bf 7ab7 283e 3145 efbe d29c 333f
00000250: ebda e03e 9637 b4bf beaf 3dbf 6094 1c3e
00000260: 5051 09be bf85 083f f8dc b93c 2ea7 773f
00000270: 24c1 e5bf e39d c6bf 40d2 273f 2778 11bf
00000280: 9d27 fcbf 97d7 29bf bcbf 813e 37c1 e1bc
00000290: d6e9 673e 5a6f aebd 029c eabf aba1 9abf
000002a0: 03bb 733f 5163 5e3f 4f9f e33b 2cf6 e7bf
000002b0: 0a6c 63bf 49d5 2940 b302 963f 01ba 71bf
000002c0: 285f 02bf 918f 2e3f 5843 5abf e490 18bf
000002d0: ab7f 5e3e 8e71 b83c e002 443f 751c 2cbf
000002e0: e916 ad3e 8aff 88be d7c7 b3bf f39b a23f
000002f0: 86b6 b73f 7118 c4bc a1fe fd3e a4fe db3d
00000300: 7e95 54bf ae12 de3c 746f 5cbf 4eae c5be
00000310: 3bea 8fbd 0bb4 1f3f 49ef 4cbf 00d2 57bf
00000320: 1950 b1bf 7823 053f a3ec ce3e f322 6abe
00000330: 0a96 50bf 3104 e0be af31 813f 65e4 073f
00000340: 6cd0 9f3f 1f1d 7bbf 7ee6 5bbf 6a34 97bd
00000350: 77be 913f 7450 9bbf 167d b4bf 3cb9 ac3f
00000360: 8337 b6be 7f96 e93e 59c7 46bf 9dfe 0840
00000370: 01ce 4dbe 0782 bc3f 5239 eabf 2f7f 69be
00000380: 2647 583f 48f2 fa3e 142a 1540 1f50 44bf
00000390: 183a dc3f 9c52 413f dfa7 7e3f 9fd8 bd3d
000003a0: 0427 0d3e 2c92 3a3f 54c1 8d3d 57cd c73e
000003b0: 2a58 9b3f 7dd1 03be 2b81 203e 830e 69bf
000003c0: 83b1 143f d6ff 593f d28d 813f 1f28 aa3f
000003d0: 6750 8abf b52d 92be fe29 12bc ff24 1bc0
000003e0: 5367 0b3f ebf0 5ebf 70d6 ae3f cb34 543e
000003f0: a22d 303e 6b9a d83f 929c 8c3f f71e 31bf

module.decoder.gru.weight_ih_l0 f4 [96, 32]
0.050268073 0.22893037 0.027937032 0.03779691 -0.011071356 0.14596 -0.054122787 0.058741216
-0.103752464 -0.004545379 -0.1834384 0.04462942 -0.04754033 -0.15413855 0.03291974 -0.15940703
-0.062193267 -0.024941307 -0.09257332 -0.2625328 0.16641256 -0.09809471 -0.09371546 -0.11237518
-0.24093658 -0.03870248 0.16556442 -0.13320222 -0.21323279 -0.051296167 0.2404456 -0.28830525
-0.14393537 0.024549827 0.24930927 -0.19704378 0.09866962 0.11815623 -0.17781922 -0.0058782003
0.008746441 0.08386113 -0.008771388 -0.076376386 -0.0071443846 -0.0956229 -0.014335142 -0.14734912
0.15071394 0.16930227 0.075785436 -0.17021866 -0.060005702 0.05889788 -0.0028960018 0.1324599
-0.14464018 0.1654445 0.041169465 0.082782775 0.10589828 -0.10920573 0.06727475 -0.18670304
-0.039594635 -0.09850597 0.13854723 -0.20419896 0.029587626 0.019106943 -0.1803174 -0.015023594
-0.11241509 -0.07849837 0.002409435 0.11900409 -0.11119438 -0.23866524 0.08669436 -0.22340778
0.09393103 0.101107605 0.07520079 -0.17279781 0.19663215 0.019148072 -0.08002698 -0.021315519
0.0064147506 0.21424975 0.15879929 -0.03809414 0.07952588 -0.13419574 0.2225509 0.0042383815
-0.1420879 0.25601855 0.010018007 0.033192523 -0.015809175 0.012711204 -0.052045427 0.07517423
-0.1672187 0.16155787 -0.09879201 0.1379852 0.046102267 -0.008809702 -0.05131367 -0.15458116
0.25579658 0.11218119 -0.23148586 -0.06969637 -0.058248907 0.07754968 -0.13377114 0.18369853
0.008257318 0.24649578 0.10657497 -0.010453111 -0.072467215 0.025762722 0.046536975 -0.21436545
-0.15116654 -0.02874722 0.036050577 -0.09107096 -0.0507865 0.13382967 -0.029942587 0.0004509934
-0.18196192 -0.0060682306 0.05742132 0.12832257 -0.18856402 0.024345804 0.04943557 -0.07814972
0.06276258 -0.024584513 -0.14029089 -0.14328413 -0.04484359 0.23337111 -0.19543657 0.20302594
0.053429216 0.057983823 0.0077611012 -0.067588955 -0.013953781 -0.16624172 0.09542306 -0.050238978
0.06962836 0.16826366 0.1178367 -0.10891741 0.004706054 -0.013120531 -0.12225622 0.20885284
-0.10042966 0.06882596 0.04484396 0.17187297 -0.17590095 -0.18083516 0.1267919 0.04846911
0.047519345 0.054745536 -0.02532478 -0.30141935 0.08937838 0.06935452 -0.20578755 0.10304769
0.001117134 0.24121653 0.011992457 0.15905914 -0.081427045 -0.067685954 0.08740905 -0.028311057
-0.090445764 0.22966212 0.08893073 0.00513874 0.07353134 0.025404776 -0.10338351 0.051124934
0.016665116 -0.024231307 0.016367037 0.06666726 -0.06065795 -0.117137484 0.088207476 -0.04681754
0.25229993 0.051886134 -0.14075361 -0.15491344 0.17134696 -0.03735487 -0.08858252 0.18237267
-0.032806024 0.22632879 0.15596248 -0.09753892 -0.01773463 0.06227118 0.076760724 -0.15958834
0.050685976 0.124477394 -0.013174938 0.10785374 0.19918442 0.038850203 -0.10063556 -0.027675321
-0.10666895 -0.078742936 -0.16788238 0.0028210985 -0.18992019 -0.11489375 0.14938004 -0.10780122
0.034687582 0.062484175 -0.19372402 -0.1219178 -0.12990345 0.14029516 0.08876049 -0.09794975
-0.2096853 0.19798207 -0.1397071 0.0034127133 -0.025167188 -0.11165829 0.17132878 -0.13578683
00000000: e5e5 4d3d b96c 6a3e 34dc e43c efd0 1a3d
00000010: a264 35bc 8a76 153e dbaf 5dbd a19a 703d
00000020: 2c7c d4bd 67f1 94bb 47d7 3bbe 57cd 363d
00000030: a6b9 42bd 7fd6 1dbe d9d6 063d 993b 23be
00000040: 5ebe 7ebd b651 ccbc 1597 bdbd b36a 86be
00000050: 0e68 2a3e e1e5 c8bd e4ed bfbd f524 e6bd
00000060: 14b8 76be 7e86 1ebd b889 293e 2a66 08be
00000070: b259 5abe ee1b 52bd 5f37 763e bf9c 93be
00000080: cb63 13be b81c c93c ee4a 7f3e d8c5 49be
00000090: 4c13 ca3d e5fb f13d 3e16 36be eb9d c0bb
000000a0: 3c4d 0f3c 62bf ab3d deb5 0fbc 396b 9cbd
000000b0: 711b eabb f0d5 c3bd f2dd 6abc b0e2 16be
000000c0: c154 1a3e 935d 2d3e 6535 9b3d cd4d 2ebe
000000d0: 8ac8 75bd e73e 713d d9ca 3dbb 91a3 073e
000000e0: 8e1c 14be 486a 293e 50a1 283d 048a a93d
000000f0: 33e1 d83d 41a7 dfbd 58c7 893d 152f 3fbe
00000100: fc2d 22bd 7fbd c9bd 53df 0d3e 8819 51be
00000110: c061 f23c 2a86 9c3c 20a5 38be 8525 76bc
00000120: e239 e6bd c1c3 a0bd 9de7 1d3b 6bb8 f33d
00000130: e1b9 e3bd a964 74be d08c b13d 02c5 64be
00000140: e95e c03d 8111 cf3d df02 9a3d e9f1 30be
00000150: f059 493e 6bdc 9c3c 2fe5 a3bd e29d aebc
00000160: d432 d23b 4964 5b3e 489c 223e 9a08 1cbd
00000170: 77de a23d 9c6a 09be 62e4 633e 1fe2 8a3b
00000180: 7e7f 11be dd14 833e 9122 243c e2f4 073d
00000190: 3e82 81bc a742 503c 962d 55bd f2f4 993d
000001a0: 613b 2bbe 6d6f 253e 7753 cabd fe4b 0d3e
000001b0: bbd5 3c3d 9156 10bc 482e 52bd 864a 1ebe
000001c0: c5f7 823e 40bf e53d a10a 6dbe f8bc 8ebd
000001d0: 6896 6ebd 5ed2 9e3d 4dfb 08be 781b 3c3e
000001e0: b449 073c 6469 7c3e fa43 da3d 8643 2bbc
000001f0: b169 94bd 580c d33c 8e9d 3e3d 9e82 5bbe
00000200: 67cb 1abe 4a7f ebbc c5a9 133d 6983 babd
00000210: 8105 50bd a50a 093e 284a f5bc 4f73 ec39
00000220: 3a54 3abe 02d8 c6bb 9e32 6b3d fe66 033e
00000230: ed16 41be da70 c73c f47c 4a3d f60c a0bd
00000240: ab89 803d 7665 c9bc 6aa8 0fbe 13b9 12be
00000250: eaad 37bd d6f8 6e3e 8620 48be 08e6 4f3e
00000260: 98d8 5a3d 7280 6d3d d650 fe3b 146c 8abd
00000270: 669e 64bc 453b 2abe 2a6d c33d 63c7 4dbd
00000280: 5099 8e3d 4f4d 2c3e 5e54 f13d 1710 dfbd
00000290: 3e35 9a3b 7ff7 56bc 7861 fabd 85dd 553e
000002a0: 11ae cdbd a0f4 8c3d 4dae 373d 78ff 2f3e
000002b0: 611f 34be da2c 39be bcd5 013e 8c87 463d
000002c0: a5a3 423d db3c 603d ea75 cfbc a353 9abe
000002d0: 030c b73d be09 8e3d f9b9 52be ab0a d33d
000002e0: cc6c 923a 7701 773e 037c 443c 66e0 223e
000002f0: 39c3 a6bd ef9e 8abd 8403 b33d 97ec e7bc
00000300: a13b b9bd 8c2c 6b3e 5121 b63d e062 a83b
00000310: 9997 963d ad1d d03c bcba d3bd 6168 513d
00000320: 4885 883c bc80 c6bc 2a14 863c d888 883d
00000330: 7874 78bd c7e5 efbd 1fa6 b43d c0c3 3fbd
00000340: 752d 813e 8e86 543d b721 10be a1a1 1ebe
00000350: 9475 2f3e 6c01 19bd c16a b5bd e7bf 3a3e
00000360: 9c5f 06bd bcc2 673e a1b4 1f3e 7cc2 c7bd
00000370: 3748 91bc 1110 7f3d ba34 9d3d 206b 23be
00000380: 199c 4f3d 01ee fe3d b2db 57bc 6ce2 dc3d
00000390: 00f7 4b3e 6421 1f3d 041a cebd 5bb7 e2bc
000003a0: 4075 dabd fa43 a1bd 5ce9 2bbe 2ee2 383b
000003b0: 707a 42be 6a4d ebbd 15f7 183e e3c6 dcbd
000003c0: 9114 0e3d 68ef 7f3d 975f 46be 0ab0 f9bd
000003d0: 6905 05be 89a9 0f3e 0fc8 b53d e199 c8bd
000003e0: beb7 56be d0bb 4a3e 610f 0fbe d4a7 5f3b
000003f0: 6b2b cebc 1aad e4bd d070 2f3e b40b 0bbe

module.decoder.gru.weight_hh_l0 f4 [96, 32]
0.2858251 0.0105402535 -0.05037358 0.006177811 -0.0028758084 -0.15759048 0.26557422 0.22916228
-0.24829088 -0.1924862 -0.050120547 -0.2537673 0.02408411 0.017791422 -0.1982813 -0.1611366
-0.13721795 -0.03226629 -0.0070043365 -0.13409108 -0.057315394 0.13512988 0.14649345 -0.20668124
0.08333062 -0.2132914 -0.1009209 -0.24874385 0.24257249 0.019023646 0.14551772 -0.0028990137
0.2942557 0.0789073 -0.12505564 0.20531818 0.030181332 -0.21125542 0.16379619 0.025531068
-0.11675844 -0.18323039 0.0015084866 0.015736224 -0.19344231 0.040842697 -0.06841812 -0.008789477
0.043821637 0.028917037 -0.24841972 -0.26466691 -0.12463676 0.084812716 0.20386845 -0.25094628
0.23523553 -0.10235345 -0.27277997 -0.24973944 0.30564803 0.20595172 0.29644054 -0.14442465
0.26264638 -0.0014614422 -0.3009662 0.31663468 0.29236287 0.04486097 0.25291452 0.12254979
-0.108609535 -0.22373499 -0.09391607 -0.0034805292 -0.021698331 0.033711944 -0.12226528 -0.21219192
-0.22679847 -0.22815157 -0.24344191 -0.2374499 -0.26207286 0.105543986 0.27528116 -0.027206227
0.10792718 -0.0015013871 -0.093930446 0.0112066055 0.27130035 0.08674838 0.30496055 -0.08118147
0.044919353 0.20471343 -0.20894901 0.22661124 0.028516214 -0.22014096 0.23255435 0.16177168
-0.2731281 -0.32779664 -0.17164266 -0.1307205 -0.008696014 0.2528579 -0.15389863 -0.017917221
-0.26028362 -0.29492292 -0.033820942 0.09137468 -0.27435696 0.012453742 0.23723958 -0.15128061
0.3134062 -0.14740413 -0.14141138 -0.22997554 0.030785695 0.2903956 0.22022714 -0.30412844
0.17654897 0.13830274 -0.14894725 0.040792998 0.22044016 -0.16438486 0.059641868 -0.037008762
-0.28846568 -0.29520145 0.021792836 -0.009006449 -0.10011475 0.22485234 -0.09872362 -0.11251309
-0.23462808 -0.101770945 -0.30226338 -0.12909985 -0.14599049 0.24758963 -0.020333098 0.003160023
0.33774656 0.030040028 -0.114566445 -0.18407905 -0.018518502 0.014249574 0.04638329 -0.24322917
0.16634095 0.15116833 -0.28276753 0.27083609 0.29100102 -0.21584934 0.027730519 0.156414
-0.1332689 -0.11129506 -0.24008772 -0.23290716 0.15678084 0.0047401087 0.106925376 -0.08082056
-0.07097386 -0.30969432 -0.27547807 -0.16229767 -0.09706394 0.23571903 0.14045589 -0.2790935
0.232381 -0.01562735 -0.13874553 -0.20194079 0.0071100825 0.2624026 0.1468906 -0.14335135
0.22446394 0.24577838 -0.11629759 0.2180386 0.15103345 -0.18288933 0.317804 0.19224526
-0.14792039 -0.24423797 -0.0477354 0.01928092 0.047672607 0.3133329 -0.19550593 -0.11883935
-0.26890337 -0.05042817 -0.07938731 -0.037500508 -0.13938163 0.068638675 -0.0028378756 0.018390948
-0.00798779 -0.24110445 -0.23845035 -0.17266604 0.19210233 0.229038 0.1946507 -0.2123065
-0.015595785 0.2231141 -0.132629 0.32311422 0.059631776 -0.002680504 0.062287077 0.20826513
-0.15743417 -0.20059519 -0.16645284 -0.28230846 -0.2031714 0.053139493 -0.18246107 -0.26304457
-0.1912905 -0.0068817968 -0.058099598 0.005836695 0.017815689 0.108996004 -0.00512873 -0.16479945
0.15331918 -0.045376923 0.04355733 -0.19101685 0.25314748 0.009706269 0.076035716 -0.23997836
00000000: ab57 923e 07b1 2c3c 8754 4ebd 3c6f ca3b
00000010: 0f78 3cbb 665f 21be 58f9 873e 84a9 6a3e
00000020: f73f 7ebe 1a1b 45be 344b 4dbd caed 81be
00000030: 0a4c c53c 51bf 913c 410a 4bbe fe00 25be
00000040: dd82 0cbe a829 04bd a284 e5bb 2c4f 09be
00000050: 8cc3 6abd 7d5f 0a3e 6102 163e 3fa4 53be
00000060: 3ea9 aa3d 1069 5abe 9eaf cebd b5b6 7ebe
00000070: ec64 783e 7ad7 9b3c 9902 153e 61fd 3dbb
00000080: afa8 963e 279a a13d 960e 00be ee3e 523e
00000090: d73e f73c 5753 58be 30ba 273e 8826 d13c
000000a0: 0d1f efbd bfa0 3bbe 69b8 c53a 41e9 803c
000000b0: be15 46be ac4a 273d cd1e 8cbd bd01 10bc
000000c0: 517e 333d 6ce3 ec3c bd61 7ebe 6c82 87be
000000d0: 8f41 ffbd 4ab2 ad3d e4c2 503e 087c 80be
000000e0: 95e1 703e b09e d1bd d1a9 8bbe b2bb 7fbe
000000f0: e67d 9c3e 02e5 523e 0ec7 973e 0ee4 13be
00000100: 9679 863e dd8d bfba 3e18 9abe f11d a23e
00000110: 96b0 953e 23c0 373d 037e 813e 62fb fa3d
00000120: ad6e debd c91a 65be 1257 c0bd 9719 64bb
00000130: b3c0 b1bc 8915 0a3d 3866 fabd d748 59be
00000140: dc3d 68be 91a0 69be d648 79be 1126 73be
00000150: 6a2e 86be 7227 d83d a7f1 8c3e 98df debc
00000160: ed08 dd3d 31ca c4ba 9b5e c0bd e99b 373c
00000170: e1e7 8a3e 22a9 b13d ca23 9c3e 7842 a6bd
00000180: 5bfd 373d 66a0 513e bbf6 55be c70c 683e
00000190: d69a e93c a26c 61be ba22 6e3e 7aa7 253e
000001a0: 72d7 8bbe f6d4 a7be 18c3 2fbe 98db 05be
000001b0: ba79 0ebc 9776 813e 9a97 1dbe 23c7 92bc
000001c0: e543 85be 2300 97be d487 0abd a622 bb3d
000001d0: 8478 8cbe c80a 4c3c efee 723e 4ee9 1abe
000001e0: c776 a03e 1cf1 16be 25ce 10be b57e 6bbe
000001f0: 4832 fc3c bbae 943e 3983 613e b9b6 9bbe
00000200: 41c9 343e 3c9f 0d3e a185 18be 8f16 273d
00000210: 11bb 613e 8154 28be 084b 743d 8096 17bd
00000220: c6b1 93be a524 97be e486 b23c c98f 13bc
00000230: f608 cdbd b13f 663e 9c2f cabd 436d e6bd
00000240: 5842 70be 496d d0bd 44c2 9abe c032 04be
00000250: 887e 15be 2388 7d3e 9991 a6bc 6318 4f3b
00000260: 1eed ac3e 8116 f63c d0a1 eabd 387f 3cbe
00000270: 1db4 97bc 0c77 693c 68fc 3d3d 1111 79be
00000280: 4855 2a3e dfcb 1a3e e8c6 90be 07ab 8a3e
00000290: 16fe 943e 9c07 5dbe 1d2b e33c fe2a 203e
000002a0: a477 08be aaee e3bd 8ed9 75be 377f 6ebe
000002b0: 288b 203e ea52 9b3b b1fb da3d 4085 a5bd
000002c0: be5a 91bd 4190 9ebe 760b 8dbe 5c31 26be
000002d0: 75c9 c6bd 5460 713e abd3 0f3e 58e5 8ebe
000002e0: 49f5 6d3e ee04 80bc 4f13 0ebe 91c9 4ebe
000002f0: b2fb e83b a259 863e 7d6a 163e b2ca 12be
00000300: e0d9 653e 54ad 7b3e 6e2d eebd 8345 5f3e
00000310: 83a8 1a3e 5747 3bbe 35b7 a23e f1db 443e
00000320: 7178 17be 8519 7abe 3286 43bd 05f3 9d3c
00000330: 5a44 433d 2b6d a03e b532 48be 0c62 f3bd
00000340: b4ad 89be c58d 4ebd d095 a2bd 229a 19bd
00000350: 0fba 0ebe 6f92 8c3d a7fb 39bb 9da8 963c
00000360: 38df 02bc 16e4 76be 542c 74be 5ecf 30be
00000370: 79b6 443e f088 6a3e 8352 473e e066 59be
00000380: 7785 7fbc 0678 643e e6cf 07be 3a6f a53e
00000390: 7340 743d 65ab 2fbb bc20 7f3d 7443 553e
000003a0: 6c36 21be d368 4dbe 9d72 2abe bc8a 90be
000003b0: 2a0c 50be cca8 593d 13d7 3abe c7ad 86be
000003c0: a8e1 43be b280 e1bb d8f9 6dbd bf41 bf3b
000003d0: 35f2 913c 4c39 df3d e80e a8bb 30c1 28be
000003e0: b4ff 1c3e 27dd 39bd 2c69 323d ec99 43be
000003f0: 8c9c 813e 0b07 1f3c 9db8 9b3d e3bc 75be

module.decoder.gru.bias_ih_l0 f4 [96]
0.08761415 0.13172461 0.04713062 0.16465282 0.09083823 0.02622096 0.23629034 0.008169966
0.06110683 0.30177942 0.13940527 0.31022662 0.116643846 0.21409743 0.16839552 0.25962314
0.10850146 0.25694647 0.25771037 -0.120873176 0.037517752 0.2991027 0.27265894 0.24862924
0.0267424 0.1431075 0.19841968 0.13106138 0.08057334 0.16280638 0.2870748 0.25944978
-0.185985 -0.22005573 0.14510165 -0.23884061 0.088935874 0.3034283 -0.016848922 -0.1846621
-0.24666129 -0.19028106 -0.021416187 0.16672935 -0.10559589 0.07843753 0.20093408 -0.2963026
-0.068477854 -0.18582903 -0.072938606 -0.24404807 0.08156754 -0.00980657 0.01598119 0.15271187
-0.19457231 0.33579692 0.0010716253 -0.022618167 0.12967502 -0.07050065 -0.20467511 0.19407462
0.3467235 0.27649793 -0.21214467 0.0067387177 0.33930627 -0.11422735 0.303361 0.2171176
-0.13258038 -0.24100085 -0.17625074 -0.091707446 -0.0965965 0.060391832 -0.23109426 -0.32212776
-0.28263783 -0.26128143 -0.14514367 -0.3528942 -0.14153866 0.2514824 0.13877492 0.0081241885
-0.067951865 -0.022244629 -0.23767476 -0.18494931 0.021848796 0.1657805 0.13115224 -0.13807331
00000000: 0c6f b33d d1e2 063e 090c 413d c09a 283e
00000010: 6509 ba3d 57cd d63c 18f6 713e 52db 053c
00000020: 284b 7a3d d582 9a3e 41c0 0e3e 06d6 9e3e
00000030: f8e2 ee3d 5b3c 5b3e e06f 2c3e 53ed 843e
00000040: 0336 de3d 7d8e 833e 9df2 833e 5b8c f7bd
00000050: 37ac 193d fd23 993e f499 8b3e aa98 7e3e
00000060: e112 db3c c68a 123e 872e 4b3e f434 063e
00000070: a303 a53d b7b6 263e 78fb 923e 9ad6 843e
00000080: da72 3ebe 4a56 61be 8795 143e a292 74be
00000090: 0324 b63d f45a 9b3e c006 8abc 1018 3dbe
000000a0: c794 7cbe 0ad9 42be 0071 afbc 19bb 2a3e
000000b0: a842 d8bd dba3 a03d aac1 4d3e f9b4 97be
000000c0: 1e3e 8cbd f749 3ebe d660 95bd bde7 79be
000000d0: e20c a73d bcab 20bc fcea 823c 8060 1c3e
000000e0: f73d 47be 93ed ab3e c775 8c3a bc49 b9bc
000000f0: 87c9 043e a562 90bd 5a96 51be 7fbb 463e
00000100: be85 b13e 2391 8d3e 743c 59be 76d0 dc3b
00000110: 8db9 ad3e 07f0 e9bd 2252 9b3e 1354 5e3e
00000120: 27c3 07be edc8 76be 137b 34be 1dd1 bbbd
00000130: 63d4 c5bd 6d5d 773d f9a3 6cbe eeed a4be
00000140: e8b5 90be aec6 85be 8ba0 14be 8cae b4be
00000150: 83ef 10be 4dc2 803e 031b 0e3e 511b 053c
00000160: 592a 8bbd 5e3a b6bc 0361 73be 5a63 3dbe
00000170: 3ffc b23c 5dc2 293e c64c 063e 1763 0dbe

module.decoder.gru.bias_hh_l0 f4 [96]
0.046783544 -0.050009195 -0.0083647175 0.23646145 0.13243075 0.08528813 0.049397737 0.2613476
0.246191 0.09985854 0.29076454 0.2968232 0.13317029 0.30500633 -0.055004492 0.018668327
0.3184398 0.22984806 0.09214562 0.010924927 -0.0585161 0.15219168 0.028597295 0.06692845
0.1269241 0.14203161 0.30327585 0.15724836 0.22572753 0.07620502 0.159808 0.22241363
-0.12698764 0.0065388037 -0.14541112 0.030402122 0.018150678 0.30647427 -0.100105084 -0.18957563
0.021811653 -0.1710704 -0.29080424 -0.082255095 -0.21293123 0.019487431 0.18262506 -0.0014119479
0.050312202 -0.1555589 0.13617103 -0.29465872 -0.0059339884 -0.14127383 -0.31037122 -0.02143109
-0.2610928 0.08966773 0.047298003 0.008040851 -0.029674223 0.16961719 0.07935956 0.19667564
0.14066178 0.048834093 -0.018713048 0.28644118 0.2948676 -0.27145788 0.04302677 0.06588025
-0.1881001 -0.15148613 -0.20711608 -0.20161875 -0.19751915 0.27108037 -0.1714083 -0.14183909
-0.2667501 -0.12829818 -0.12112123 -0.373327 -0.043228254 0.13755146 0.046696898 -0.20115328
0.06678016 -0.040970884 -0.2741083 -0.20089832 0.20654376 0.15087052 0.177487 -0.20984888
00000000: 1aa0 3f3d 71d6 4cbd 2b0c 09bc f322 723e
00000010: ed9b 073e 8bab ae3d 4855 4a3d 5acf 853e
00000020: 7e19 7c3e a282 cc3d 17df 943e 36f9 973e
00000030: cb5d 083e ca29 9c3e 644c 61bd 52ee 983c
00000040: 8b0a a33e 4a5d 6b3e d8b6 bc3d 77fe 323c
00000050: 94ae 6fbd 23d8 1b3e e044 ea3c c811 893d
00000060: 64f8 013e bc70 113e f946 9b3e b705 213e
00000070: 1e25 673e 6111 9c3d b5a4 233e 66c0 633e
00000080: 0c09 02be 7643 d63b a7e6 14be df0d f93c
00000090: bbb0 943c 32ea 9c3e e503 cdbd 1d20 42be
000000a0: 5aae b23c 142d 2fbe 4be4 94be 5c75 a8bd
000000b0: a50a 5abe 1ba4 9f3c 1002 3b3e 1c11 b9ba
000000c0: 2b14 4e3d d54a 1fbe 6b70 0b3e 82dd 96be
000000d0: e771 c2bb 16aa 10be fae8 9ebe 4190 afbc
000000e0: f5ad 85be b7a3 b73d 8dbb 413d c6bd 033c
000000f0: 5b17 f3bc 21b0 2d3e 4487 a23d 5765 493e
00000100: a409 103e 4206 483d 1b4c 99bc 6ba8 923e
00000110: e3f8 963e 87fc 8abe d73c 303d 39ec 863d
00000120: 509d 40be 2e1f 1bbe 3d16 54be 2575 4ebe
00000130: 7642 4abe 0ccb 8a3e a885 2fbe 443e 11be
00000140: 7893 88be 9960 03be 680e f8bd b724 bfbe
00000150: 1c10 31bd 4ada 0c3e 3f45 3f3d 20fb 4dbe
00000160: 09c4 883d 16d1 27bd ec57 8cbe 4ab8 4dbe
00000170: 3580 533e cd7d 1a3e 27bf 353e a0e2 56be

module.decoder.embedding.weight f4 [1368, 32]
1.8737241 1.0411038 -0.88061374 1.201568 -1.0262823 -1.2871987 0.015993113 -1.52098
1.4686505 -0.42953566 0.5948631 -0.042139087 -0.43664664 -0.77499884 0.39808857 -0.2452899
0.62309074 0.9802499 1.0148258 -0.9150603 0.43044043 -0.24928884 -0.32922915 2.0085745
0.15035933 0.3698539 -1.5923245 0.46616864 -0.6284485 0.4676279 -0.0032013592 0.6257034
1.3769586 1.232089 1.1632657 0.66230255 -0.1588445 -0.9052084 1.6732564 0.57257694
-0.43338323 -0.43396208 0.45267314 -1.2554247 1.538229 -0.27764085 0.41877854 -0.635834
-1.2480088 -0.23046134 -0.014931055 -0.23674643 -0.054523796 -0.29728717 0.86586887 1.8953573
0.7678633 -0.56907773 -0.23883705 -0.20880535 0.10869524 -0.7131617 0.664665 0.41443202
-2.9146707 -0.9845726 1.5911008 0.021065997 -0.8668109 -0.32739094 1.2785296 -1.1094897
0.8598682 -1.0311091 0.42938417 0.75928354 0.48231846 0.9356423 1.3515171 0.6243653
-0.36089984 -0.39069483 0.42015472 1.3991827 -1.2665911 -0.4279496 -2.1894622 0.35815632
0.6843544 0.31194118 -0.7561033 -0.22364919 -0.85566276 -0.49989218 0.09292137 0.24643108
1.3269858 -1.6527027 -0.6175588 1.4682003 -1.0646659 0.26683888 -1.0425354 0.54091555
0.6670194 -0.25916284 0.2066804 -1.2450904 0.050475936 1.0199922 -0.094051026 1.0925552
-1.0065535 -0.30856463 -0.29835322 -0.043110713 0.87523896 0.180195 0.6545418 -1.1673602
-0.3642304 -2.3626225 -0.94539976 1.5147319 -0.5534429 0.73765785 0.3634513 -1.0575593
-1.5467496 0.7894331 -0.26031128 1.5719827 0.2785198 -0.046124466 -0.29684076 -1.2158332
-1.4257742 1.0929687 0.066322744 3.6094618 -0.14174634 -0.87925965 0.11956114 -0.75337
0.53173316 1.7513908 -0.2669032 0.9116899 0.5058917 -0.9210701 0.20791422 -0.3508112
-0.60472083 0.5035512 0.4086179 0.04287536 -0.41155082 -0.2774187 -1.302427 -0.4757712
0.16769911 -1.0995951 -0.060684267 -2.9207356 -0.8667186 0.4982376 0.8769759 1.3693825
0.6781335 0.012480919 -0.21988474 1.5559943 0.58616877 1.0349128 0.104202464 0.48364305
1.0516922 -0.7158945 -0.41453302 0.61498535 0.23045869 -0.53785866 -0.07343228 0.9993179
0.3180726 0.06690383 1.8427716 0.01912124 -0.90699106 0.2102713 -0.05226665 1.0995355
0.45180288 -1.4402511 1.4665369 -0.99980557 0.85351515 2.6635542 0.48416734 -0.3192214
0.076723814 -1.0262494 2.2232397 -1.9427916 -1.711749 0.24790631 -0.34347495 -0.42136183
-0.7077212 0.5817914 1.1834031 0.6770744 2.046432 0.26382452 2.2495055 1.2880682
0.8960226 -1.1719867 -0.909004 3.4331675 0.77273315 0.7806924 -0.009311708 0.30366024
0.89920074 -0.98963475 -1.6323724 1.4376706 -1.291551 0.33321887 -0.7776846 1.0814339
1.2805717 -1.7203109 -0.042303942 0.6462876 -0.32406506 3.845286 -0.77135706 -0.4841706
-0.55439675 -0.16640678 -1.451137 1.2780538 1.725318 1.9222652 0.6498481 1.9776536
0.07114995 -1.3575189 -0.61544955 -0.49892014 0.2210321 0.4237009 -2.166758 -0.6280011
00000000: 31d6 ef3f e442 853f e76f 61bf fbcc 993f
00000010: 385d 83bf edc2 a4bf fd03 833c 79af c2bf
00000020: bdfc bb3f 19ec dbbe f348 183f 099a 2cbd
00000030: 2690 dfbe 5366 46bf 44d2 cb3e 472d 7bbe
00000040: e082 1f3f a8f1 7a3f d0e5 813f 6441 6abf
00000050: b062 dc3e 9345 7fbe b990 a8be 7c8c 0040
00000060: ccf7 193e 7e5d bd3e 4ad1 cbbf a8ad ee3e
00000070: 00e2 20bf ed6c ef3e e5cd 51bb 192e 203f
00000080: 2e40 b03f 18b5 9d3f e4e5 943f a98c 293f
00000090: 22a8 22be bdbb 67bf 442d d63f 6794 123f
000000a0: 68e4 ddbe 4730 debe c6c4 e73e c2b1 a0bf
000000b0: b0e4 c43f f126 8ebe 246a d63e 04c6 22bf
000000c0: c1be 9fbf 0ffe 6bbe 62a1 74bc a86d 72be
000000d0: 5854 5fbd 0636 98be 95a9 5d3f 119b f23f
000000e0: b092 443f 14af 11bf b391 74be 12d1 55be
000000f0: 9c9b de3d c491 36bf 7c27 2a3f 6f30 d43e
00000100: f789 3ac0 f30c 7cbf 31a9 cb3f 9992 ac3c
00000110: 52e7 5dbf c99f a7be dca6 a33f c203 8ebf
00000120: 5320 5c3f 62fb 83bf 3ed8 db3e 6860 423f
00000130: 72f2 f63e 4186 6f3f 83fe ac3f 68d6 1f3f
00000140: ddc7 b8be 2709 c8be 851e d73e 6b18 b33f
00000150: a81f a2bf 361c dbbe 2620 0cc0 4460 b73e
00000160: da31 2f3f c1b6 9f3e fc8f 41bf 4b04 65be
00000170: b70c 5bbf def1 ffbe 8f4d be3d 6e58 7c3e
00000180: acda a93f c38b d3bf 5518 1ebf fded bb3f
00000190: f946 88bf 1b9f 883e cd71 85bf 7179 0a3f
000001a0: c9c1 2a3f feb0 84be 07a4 533e 1f5f 9fbf
000001b0: dbbf 4e3d 1b8f 823f d39d c0bd d9d8 8b3f
000001c0: bfd6 80bf 2ffc 9dbe c1c1 98be dc94 30bd
000001d0: a90f 603f 0a85 383e 0d90 273f 0f6c 95bf
000001e0: 687c babe 3535 17c0 b805 72bf bce2 c13f
000001f0: 6fae 0dbf 25d7 3c3f 4a16 ba3e 1a5e 87bf
00000200: e4fb c5bf 4a18 4a3f 8547 85be bb36 c93f
00000210: 269a 8e3e 02ed 3cbd 83fb 97be 6ca0 9bbf
00000220: c57f b6bf 66e6 8b3f 38d4 873d 6c01 6740
00000230: f425 11be 2917 61bf 79dc f43d dbdc 40bf
00000240: aa1f 083f 932d e03f 89a7 88be 8264 693f
00000250: 1e82 013f 40cb 6bbf 77e7 543e 879d b3be
00000260: fcce 1abf bbe8 003f 5e36 d13e 139e 2f3d
00000270: cab6 d2be d309 8ebe eeb5 a6bf 4898 f3be
00000280: 51b9 2b3e 88bf 8cbf 1190 78bd 55ed 3ac0
00000290: 45e1 5dbf 0019 ff3e 7e81 603f ed47 af3f
000002a0: 289a 2d3f c57c 4c3c 7729 61be d22a c73f
000002b0: 280f 163f 0678 843f 1a68 d53d 10a0 f73e
000002c0: da9d 863f dd44 37bf ac3d d4be ae6f 1d3f
000002d0: 5dfd 6b3e 1bb1 09bf aa63 96bd 4cd3 7f3f
000002e0: 69da a23e e004 893d f1df eb3f 26a4 9c3c
000002f0: 9130 68bf 5c51 573e 8e15 56bd 94bd 8c3f
00000300: b552 e73e 265a b8bf 7bb7 bb3f 42f3 7fbf
00000310: f87f 5a3f ac77 2a40 c8e4 f73e fd70 a3be
00000320: 6021 9d3d 245c 83bf 8f49 0e40 65ad f8bf
00000330: 971a dbbf 27db 7d3e f3db afbe bdbc d7be
00000340: 372d 35bf 48f0 143f c179 973f bf54 2d3f
00000350: bef8 0240 0214 873e e6f7 0f40 6bdf a43f
00000360: bd61 653f a903 96bf 7cb4 68bf 04b9 5b40
00000370: d7d1 453f 75db 473f 2290 18bc 5b79 9b3e
00000380: 0532 663f b458 7dbf 94f1 d0bf 9705 b83f
00000390: 8b51 a5bf aa9b aa3e 5716 47bf 6d6c 8a3f
000003a0: c6e9 a33f 2633 dcbf e646 2dbd 1b73 253f
000003b0: dbeb a5be 2a19 7640 a877 45bf 35e5 f7be
000003c0: f2ec 0dbf 8a66 2abe dbbe b9bf 4497 a33f
000003d0: 38d7 dc3f c90c f63f 725c 263f c123 fd3f
000003e0: 11b7 913d 2ec3 adbf 1a8e 1dbf 7672 ffbe
000003f0: 3d56 623e 53ef d83e 2aac 0ac0 aec4 20bf
