models/ES_checkpoint_TRAIN_sequence1folds_0.0001lr_32batch_100ep.ckpt (torch, 610327 bytes, 12 tensors)

module.encoder.gru.weight_ih_l0 f4 [48, 64]
000000 4a 60 6a 3e a5 8e d7 3c 75 e8 86 be 45 eb 3f 3e
       0.22888294 0.026313135 -0.26349226 0.18742092
000010 63 57 f9 3d 44 99 12 3e 30 9b ed 3c 67 26 73 bd
       0.12174871 0.14316279 0.029004663 -0.059362795
000020 04 34 4e be b9 87 06 bd 97 c5 31 be 39 3c 50 3e
       -0.2013703 -0.03284428 -0.17360531 0.20335473
000030 f8 c5 fc bd 6f 19 82 3e ce fb 6e 3d 31 0e a0 bd
       -0.12342447 0.2541003 0.05834561 -0.07815207
000040 ea 72 e8 3c 3a eb f3 3d 4b 81 13 3e 27 29 7f bd
       0.028375108 0.119101 0.1440479 -0.062295105
000050 0d e3 f3 bd e6 d9 7c bd d6 71 81 3d ab ce 0c 3e
       -0.11908541 -0.06173124 0.063205406 0.13750713
000060 25 f9 95 3c c5 2e 92 3d 3b 4b 04 be 5c 5f 94 3d
       0.018307278 0.07137827 -0.12919323 0.07244751
000070 17 ad 51 be 6b 18 f1 3d fb 19 86 3e f3 62 45 bc
       -0.20476185 0.117722355 0.26191697 -0.012047517
000080 93 5f 78 3d 87 49 6c be 92 72 cf 3d 5e e6 df bc
       0.06063802 -0.23074923 0.101292744 -0.027331527
000090 dd 8f e1 bc 80 44 3c 3d ca 46 41 bd 85 42 1b 3e
       -0.02753442 0.045963764 -0.04718665 0.15162094
0000a0 22 52 1a 3e 47 c2 73 3e ca 58 7f be d1 85 a1 3d
       0.15070394 0.2380458 -0.24936214 0.078868516
0000b0 b8 9c 24 bb 60 ce 13 be 4b 20 aa bc 81 ff 84 3d
       -0.0025117826 -0.14434195 -0.020767352 0.06494046
0000c0 39 e1 4b be 26 1d 2b be 4e ae eb 3d e2 55 07 be
       -0.19910134 -0.16710338 0.11507855 -0.13216355
0000d0 11 6d d4 bd 24 b0 9d 3d 66 db 0d be 34 7e 89 3e
       -0.10372365 0.07699612 -0.13853225 0.26854098
0000e0 a4 6f e9 3d fd 76 b7 3d b1 a0 2a 3e 72 54 87 bd
       0.11398247 0.08958242 0.16662861 -0.066079035
0000f0 5d 34 16 be 14 08 75 bd f6 c5 83 3e 3c 44 54 3d
       -0.14668413 -0.059822157 0.2573697 0.051822886
000100 28 94 65 be a9 e8 5a be 9a b9 77 3e df 77 d4 3d
       -0.22419798 -0.21377815 0.24191895 0.10374426
000110 4f e9 1c bd 3e 5d 8d 3e 81 e1 8c 3e 33 92 cc bd
       -0.038308438 0.276102 0.27515796 -0.09988823
000120 6e 00 4f 3d 72 9d 50 be e9 75 4a bd 0a e6 0f bd
       0.05053752 -0.2037256 -0.049428854 -0.03513149
000130 24 95 1c 3e d5 5b e0 3d 05 4b 42 be 2e a7 1b 3e
       0.15291268 0.109550156 -0.1897393 0.15200493
000140 99 52 10 3e 47 9c 9f 3d 20 2b f9 bc 33 82 4f 3e
       0.14094009 0.077934794 -0.030416071 0.20264511
000150 ec 40 5e 3e 74 9b 6e 3b a6 2d bf 3c 0b 3a 87 be
       0.21704453 0.0036408575 0.023337197 -0.2641147
000160 e1 41 aa 3b 5e 44 28 be e9 fa fa 3c 9e 8f 09 be
       0.0051958417 -0.1643233 0.030637221 -0.13433692
000170 7d dc 75 3e 38 92 d3 bd cd 7b 7d be 08 9f 64 be
       0.24009891 -0.103306234 -0.24754258 -0.2232629
000180 e5 6a 32 be 09 36 53 be 2e bc 3a bd e7 f4 42 be
       -0.1742359 -0.20626082 -0.04558962 -0.19038735
000190 e7 c4 ce bd 94 ab 36 3e 1e de 57 3e af c5 18 3e
       -0.1009615 0.1783889 0.21080825 0.1491916
0001a0 f6 8e 4c 3e b9 1e 4b bc 82 f4 6c 3e ff 4e 0d 3e
       0.1997641 -0.012397462 0.23140147 0.13799666
0001b0 fc f7 63 be 9b 1b fd 3b 56 93 3b be 9e dd 67 3d
       -0.22262567 0.007724238 -0.18317923 0.056607835
0001c0 76 cb dd 3d 58 dc 8d 3e 70 12 84 3e 7f fa 10 be
       0.10829823 0.2770717 0.25795317 -0.14158057
0001d0 65 79 77 3e 7f 62 2f bd c6 d0 01 3c 9a b5 b1 bd
       0.24167402 -0.042818543 0.007923311 -0.08677216
0001e0 26 c0 c4 bd f2 71 41 3d bd 2b 38 be 89 62 4e 3e
       -0.09606962 0.047227807 -0.17985435 0.20154776
0001f0 e0 9b 45 3c bf 52 f6 bd 52 5c 85 3d e7 0d 8c bd
       0.012061089 -0.12027501 0.06511749 -0.06838589
000200 e6 5d 24 3c e1 ac 89 be 9f ef 85 3d be b7 71 bd
       0.010032153 -0.2688971 0.06539845 -0.05901312
000210 06 53 37 3e 79 be 19 be 65 1e c0 3d 9c f8 43 3e
       0.17902765 -0.15014066 0.09380797 0.19137806
000220 4d c8 8e bd ea 77 94 3e 71 b4 52 be 8a 3a 5b 3e
       -0.06971798 0.28997737 -0.20576645 0.2140905
000230 50 e6 54 bd 3d 26 b6 bd 3e ea 13 be c5 cd 86 be
       -0.051977456 -0.08894012 -0.14444825 -0.26328865
000240 93 e6 b7 3d 27 ed 9d bc c9 2b a2 bb a9 5a d0 3d
       0.089795254 -0.019278122 -0.0049490673 0.10173542
000250 50 af 77 bd e8 c0 02 3e 36 56 ef 3d 2c 2f 17 be
       -0.060469925 0.127689 0.11686365 -0.14764088
000260 2d 78 14 3e df 69 8c be ce 18 98 3d e0 3b 3f be
       0.14498968 -0.27424523 0.07426606 -0.18675184
000270 31 97 7d 3e 1a 59 3d bd a3 6d 99 bd 71 4d e6 bb
       0.24764706 -0.046227552 -0.07491615 -0.0070282747
000280 f5 ea 6c bd 18 46 30 3e 7b 55 40 3e 1b 9d 2f be
       -0.05784126 0.17214239 0.18782608 -0.17149775
000290 b4 b4 3c bd e0 b4 48 be 92 e4 6e bd f9 b1 9a be
       -0.04607077 -0.19600248 -0.05832345 -0.30213907
0002a0 03 60 94 be de 7d 24 be 95 ee 8d 3e fc ce f0 3b
       -0.289795 -0.1606364 0.27721086 0.007348893
0002b0 b2 3d 82 be d5 24 56 3e d3 9d 24 3e 31 05 4d be
       -0.25437695 0.20912488 0.1607583 -0.20021512
0002c0 04 0c 09 bd e9 86 93 bd 11 84 3f bd fd d5 e6 3c
       -0.033458725 -0.072034664 -0.046756808 0.02817821
0002d0 bd e7 21 bd 3e 05 b6 bd d6 77 04 be 36 11 07 be
       -0.039527643 -0.088877186 -0.12936339 -0.13190159
0002e0 ec 2c 65 3e ec a1 9f 3d bf 56 84 3e 97 3d e9 bd
       0.22380418 0.07794556 0.25847432 -0.113887005
0002f0 30 55 3f bd 9a 33 cf 3d dc fe 9d bd 36 90 4e 3d
       -0.0467121 0.10117264 -0.07714626 0.0504305
000300 0d f9 0d 3e e6 04 dd bd 60 ed 4b bd e0 e7 4a 3e
       0.13864537 -0.1079195 -0.049786925 0.19815016
000310 a6 fe 7d 3e 24 31 29 bc dc ec 97 3e 9e 79 19 be
       0.24804172 -0.010326657 0.29672897 -0.149878
000320 13 31 25 be 58 49 38 3e 15 47 f7 bc 56 43 06 3c
       -0.16132002 0.17996728 -0.030185262 0.008194765
000330 18 bc 59 be ee 39 8e bd c0 f1 f3 bd 66 8d 95 bd
       -0.21263158 -0.06944643 -0.119113445 -0.0730236
000340 5f 8c 85 3d 2b 07 c3 3d 9a 70 92 3d 62 18 e8 3c
       0.06520914 0.095228516 0.07150383 0.02833194
000350 c2 c7 15 be 76 28 47 3e 69 64 4e be d8 88 8f be
       -0.14626983 0.19449028 -0.20155491 -0.2803409
000360 a8 66 a6 3c 53 c8 6a 3d 79 11 42 3e 68 82 3e 3e
       0.020312622 0.05731995 0.18951978 0.18604434
000370 f7 50 14 3d 5f df a2 3d ab 7e 1d be c3 3a 1d be
       0.036210027 0.07952761 -0.15380351 -0.15354447
000380 53 b9 2d 3e 1c 9b f9 bd dd 6a 40 3d 65 f5 f4 3d
       0.16965227 -0.12187788 0.046976913 0.11960868
000390 fa 8c 65 3d 5c f6 9b bd 05 ee 57 3e 20 9d 9c 3d
       0.05604265 -0.07615349 0.21086891 0.07647157
0003a0 5c e7 96 be 41 79 b8 3d 43 2e 01 3e 05 29 27 3d
       -0.29473388 0.09007502 0.12615304 0.040810604
0003b0 2c da cb 3d b0 ea 0b 3e 04 69 9a 3e 67 42 3a 3d
       0.09953722 0.13663745 0.30158246 0.045473482
0003c0 de d1 48 be 88 eb 4a 3e 12 81 12 3d 9b 58 49 be
       -0.19611308 0.1981641 0.035767622 -0.19662707
0003d0 01 7e b8 3d d2 dd 14 3d 01 1c 89 bd 56 83 e6 3d
       0.09008408 0.036344357 -0.066947944 0.11255519
0003e0 f2 c5 e7 3d fe 12 8f 3c 22 d6 da bd 2b bc fc bd
       0.11317052 0.01746511 -0.10685374 -0.12340578
0003f0 dd c1 3c be 70 76 67 be eb 42 6d 3d b6 2c ef 3d
       -0.18433328 -0.22603774 0.057925146 0.1167845

module.encoder.gru.weight_hh_l0 f4 [48, 16]
000000 82 35 2f 38 b9 4a d0 bc 62 f8 17 be b9 6d 05 3c
       4.1773084e-05 -0.025426256 -0.14840844 0.008143836
000010 d8 4c 56 be f7 58 2d bd 1d a0 29 be 7a 09 a2 bd
       -0.20927751 -0.04232117 -0.16564985 -0.07911964
000020 c7 6d 2a 3e 35 5c 03 3d 39 91 93 bc 1a c9 20 be
       0.16643439 0.032070357 -0.018013583 -0.15701714
000030 c1 a5 0f be 88 2b 43 3e d5 80 cc bd cd 8c 9b bd
       -0.14028074 0.19059575 -0.0998551 -0.07595215
000040 9f c6 47 be 29 19 4a be 36 89 98 3c ac 1f d4 3d
       -0.19509362 -0.1973616 0.018620115 0.103576034
000050 6b 7e 8c 3d a0 18 1c 3e 36 e4 2e bd a0 a9 62 3e
       0.0686005 0.15243769 -0.042698108 0.2213502
000060 85 3c 3a be 85 70 2f bc 51 51 64 3d 0c 30 3f be
       -0.18187149 -0.010707979 0.055741612 -0.18670672
000070 cc 12 68 be 45 af 46 be c1 df 21 be 0a c1 a3 3c
       -0.2266342 -0.19402798 -0.15808012 0.01998951
000080 86 8a 02 bd d5 bf d5 bd 0b e1 1f be 11 53 0e 3e
       -0.031870387 -0.1043698 -0.15613191 0.13898875
000090 90 6b 3e bb 6f 2a 05 be b3 c6 22 3e 91 6e bf bd
       -0.0029055811 -0.13004468 0.1589611 -0.09347261
0000a0 2e 25 38 3e 50 d6 28 3e 34 50 6b bd d8 b6 3c 3e
       0.17982933 0.16488004 -0.057449535 0.18429124
0000b0 cd b9 44 bd 9f e3 33 bd 07 36 b0 bd 05 31 13 be
       -0.048028756 -0.04391825 -0.08604055 -0.14374168
0000c0 ff b9 07 3e 28 e1 2e bc 4b 99 6d 3e b0 18 a1 bb
       0.13254546 -0.010673799 0.23203008 -0.004916273
0000d0 23 cb 00 be 93 39 08 be 6e 62 78 3d ab 6c be 3d
       -0.1257749 -0.13303213 0.060640745 0.092980705
0000e0 06 dc 30 be 5a 13 c9 3d 30 f9 c1 3d 0b f2 b0 bd
       -0.17271432 0.09818144 0.09471357 -0.08639916
0000f0 a6 1f bd 3d 2a dc ec bd 28 1b 05 be 8e e5 35 3d
       0.09234552 -0.115654305 -0.1299864 0.044408374
000100 de f6 0b bd 7b f7 5b be 72 3d 04 be fd 3b e4 bd
       -0.034170978 -0.21481125 -0.12914065 -0.11144254
000110 e0 9e 3f 3e 86 ec e7 3d 4d 1b 3e 3e ff a0 ca bd
       0.1871295 0.1132441 0.18565102 -0.09893989
000120 38 2d 69 bd f7 2c 83 3d 8a 67 16 3e 36 10 dc 3d
       -0.05692789 0.06405061 0.14687935 0.107452795
000130 a0 2f 1a 3d eb ed 58 3c ea 0b 40 3e 54 21 5d 3e
       0.037643075 0.013240318 0.18754545 0.21594745
000140 51 08 24 be 7d 9e bf 3c 85 e0 84 be e9 fb 3a 3d
       -0.16018797 0.023391003 -0.25952545 0.045650396
000150 01 be 5c 3e e7 b0 b6 bd 28 89 9b bc 99 90 01 be
       0.21556856 -0.0892046 -0.0189863 -0.12652816
000160 b5 aa 3c 3c b3 16 67 3e f2 6f 4b be 6f dd 81 3d
       0.011515309 0.22567253 -0.19866922 0.06341063
000170 39 ae b8 bc 10 b4 60 be 23 72 77 be 38 29 05 be
       -0.022544013 -0.21943688 -0.24164633 -0.13004005
000180 ba 29 61 3e 61 cd 2b 3e 71 27 f4 bc 48 aa 78 3d
       0.21988574 0.16777565 -0.029803963 0.060709268
000190 63 46 9a 3c db 60 29 be 01 b4 37 3e 38 38 45 bd
       0.018832391 -0.16540854 0.1793976 -0.048149318
0001a0 72 08 59 3e 2c 77 21 3e 1d 5a 5c 3e 18 7c 5a 3e
       0.21194628 0.15768117 0.2151875 0.213364
0001b0 2d 42 64 3e cf 4c c7 bc 4c 60 55 3e 87 07 aa 3d
       0.22290869 -0.024328617 0.20837516 0.08302217
0001c0 71 67 42 3e 85 d1 47 3d 6c c4 2f 3e e8 c2 7f 3e
       0.18984772 0.048783798 0.17164773 0.24976695
0001d0 71 35 97 bd 36 c8 cd bc 96 63 ca bd 5b a6 10 3c
       -0.0738324 -0.025119882 -0.09882276 0.008828725
0001e0 6b a3 9b be 1f 54 29 3e d1 30 64 be d5 22 88 be
       -0.30398116 0.16535996 -0.22284247 -0.26589075
0001f0 b2 9a 25 3e bd a1 e2 bd a2 20 97 3e e4 a3 3e be
       0.16172293 -0.110660054 0.29517084 -0.18617207
000200 99 23 f8 3d 56 6d 66 bd f8 67 5b bd f9 fa 0b 3e
       0.12116165 -0.056256615 -0.05356595 0.13669957
000210 11 c1 5a be 7c 8b 2d be 5a 12 93 bb 55 59 5e bd
       -0.21362711 -0.1694774 -0.0044882717 -0.054284412
000220 53 77 ed bd 34 1a 0b bd f8 4a 01 be 9a 8d 15 be
       -0.11595025 -0.033960536 -0.12626255 -0.14604798
000230 0a 9d c3 bc 64 27 79 3e 97 49 31 3e 96 d5 27 3e
       -0.023878593 0.24331433 0.17313229 0.1639007
000240 4c fc ad bd 77 b3 42 be 10 1f 81 be 97 ec f6 bd
       -0.084953874 -0.19013773 -0.2521901 -0.12056845
000250 7e 23 4a be bb 75 82 3e 76 cf 51 be 4d 3f 93 3e
       -0.19740102 0.25480446 -0.20489296 0.28759232
000260 04 cc 09 be ea af a2 3d 4c 75 84 be 28 9a 51 be
       -0.13456732 0.07943709 -0.2587074 -0.20468962
000270 03 3c 86 be 94 4d de bc 61 fe b5 3d 74 20 87 3d
       -0.2621766 -0.027136602 0.088864096 0.06597987
000280 a4 0b 07 3e fd 40 08 be aa 00 61 be b7 1b 5a be
       0.13188034 -0.13306041 -0.2197291 -0.21299635
000290 0c 54 30 3e 05 03 e9 3a 47 ea 16 3e 5c 1b bd bd
       0.17219561 0.0017777389 0.14737807 -0.09233734
0002a0 9b aa 32 be fd b4 32 be e5 a6 c8 3d 61 78 1d bd
       -0.17447893 -0.17451854 0.097974576 -0.03844488
0002b0 de b5 6f be 70 2c 18 3e d5 36 02 be 1a c6 6a be
       -0.2340922 0.14860702 -0.1271623 -0.22927132
0002c0 4f e0 44 3e c9 51 11 3e 84 de f6 bd 78 64 98 3d
       0.19226192 0.14191355 -0.1205416 0.07441038
0002d0 43 9a f3 3c 26 d8 e1 bd 15 73 51 3d a1 92 78 3e
       0.029736644 -0.11027555 0.05113514 0.24274684
0002e0 32 78 4a 3e 97 8e b4 3c 8e 91 1b be 86 b8 59 bb
       0.19772413 0.022040648 -0.15192243 -0.0033221557
0002f0 30 d6 44 3d 8c 31 53 3c ee 5d bc 3c ab a4 ee 3d
       0.048055828 0.012890231 0.022994008 0.11652502
000300 de 17 67 3e 4c d3 4a 3e c3 0c 52 bd d8 9b 43 3e
       0.22567698 0.19807166 -0.0512817 0.19102418
000310 03 c1 75 be a4 8f 63 be 02 08 0e be 44 7f 2d 3e
       -0.2399941 -0.22222763 -0.13870242 0.16943079
000320 95 64 89 bd 10 4f bd 3d f9 65 68 3c 41 76 05 3d
       -0.067086376 0.092435956 0.014184468 0.03258348
000330 43 6e 64 3e 9f 8d dd bd 1d f9 9e bd 6c f1 c7 bd
       0.22307687 -0.10818028 -0.07762358 -0.097628444
000340 3f 61 ce 3d f5 d4 85 be 6d f7 0f 3e 2b b8 49 be
       0.10077142 -0.26139036 0.14059229 -0.19699161
000350 83 68 28 3e 51 16 7e 3e 0e 49 30 bd 7c d6 0b be
       0.16446118 0.248132 -0.04303842 -0.13656038
000360 68 9f e7 3d 02 07 04 3e 74 3a 4f be 3a c8 bc bc
       0.11309701 0.12893298 -0.20237142 -0.023044694
000370 6a f9 14 3c 47 46 76 bd 97 a4 9f 3d 2f 65 03 3e
       0.009092668 -0.060125615 0.07795065 0.12831567
000380 b9 0c a8 bc 35 f3 0b 3d be bd 28 3e 0c 4e 18 3d
       -0.02051388 0.034167487 0.16478631 0.037183806
000390 c7 f4 36 bd 90 53 5a be ef 25 4c be 22 94 17 3e
       -0.04466703 -0.21320939 -0.19936346 0.14802602
0003a0 b7 21 aa bd ab fc 64 be fe 45 79 bd 9f 85 cb 3d
       -0.08307212 -0.2236201 -0.060857765 0.099375956
0003b0 14 af 00 bd 35 9d bc bd 29 91 87 3d b8 fc 07 be
       -0.031416968 -0.09209672 0.06619484 -0.13279998
0003c0 1e e2 94 bd f4 93 6d bd ce 59 c0 bd 55 9f c2 bc
       -0.07269691 -0.058002427 -0.09392129 -0.023757616
0003d0 00 57 30 be b1 d6 9d bd 56 f8 b2 3d ef 36 90 bc
       -0.17220688 -0.07706965 0.087387726 -0.01760432
0003e0 99 bb b7 3b 58 79 66 3c b5 0b b1 3d 87 d4 3a be
       0.00560708 0.014067017 0.08644811 -0.18245135
0003f0 54 ab 94 3d e5 0c ac 3c f1 0b 0e 3e 60 3f f5 3d
       0.07259241 0.021002242 0.13871743 0.119749784

module.encoder.gru.bias_ih_l0 f4 [48]
000000 5a a5 46 be cf 7f 2d be 48 8f 8c bd c4 3d 8b 3e
       -0.19399014 -0.16943286 -0.06863266 0.2719556
000010 63 c2 1f 3e 59 6e ae 3d 44 38 49 3e ce 67 b7 bd
       0.15601496 0.08517141 0.1965037 -0.08955346
000020 7a fc a9 3b 93 18 a9 bc d7 bb b9 bc 8a 0e 2e 3e
       0.0051875683 -0.0206416 -0.022672577 0.16997734
000030 de 48 18 3e 4c ac 85 bd a9 c5 81 ba db da c8 bd
       0.14871547 -0.06527004 -0.0009900826 -0.09807368
000040 ac 78 66 3e 83 50 9b 3c 81 10 21 be 8e 48 1b 3e
       0.2250697 0.01895929 -0.15728952 0.15164396
000050 17 01 04 3e 3d 8a 9b bd ce 55 82 3d 57 2e 4f 3c
       0.1289104 -0.07594726 0.06364022 0.012645326
000060 89 9f 3b 3e 01 53 d5 3d 91 d3 5c 3e 15 ca 4c bb
       0.18322577 0.10416222 0.21565081 -0.003124838
000070 8a b2 34 be 73 b8 6a be d2 8b 87 3d 08 c1 f3 3d
       -0.17646232 -0.22921924 0.066184655 0.11902052
000080 0c a6 66 3e bd f8 e0 3c 1d 3a 7b be d5 92 06 3e
       0.2252428 0.027462358 -0.24533887 0.1314195
000090 df 22 d8 bd 35 c9 0f 39 5c d1 0b bc af f5 47 bd
       -0.10553526 0.00013712498 -0.008533802 -0.048818287
0000a0 74 00 46 be 9a da dd bc bb 32 fb 3d cc 8d ab 3c
       -0.1933611 -0.027081776 0.122655354 0.020941637
0000b0 c0 e6 e0 3d d4 b2 36 3b 93 7f d4 3d 96 dd 14 3d
       0.10981512 0.0027877586 0.10375895 0.036344133

module.encoder.gru.bias_hh_l0 f4 [48]
000000 2a a8 2e be 31 45 1e be 86 b8 c4 bd 72 ec 36 3e
       -0.17056337 -0.15456082 -0.096055076 0.17863634
000010 11 f4 3e 3e da 03 24 be 14 d7 63 3d 42 5a 13 3e
       0.18647791 -0.16017094 0.055625036 0.143899
000020 8e 3a 2c 3e 96 d1 4d be 3d a5 38 3e 0c 9b 8e 3e
       0.16819212 -0.20099482 0.18031783 0.27852666
000030 ee e7 3a 3e b8 e1 df bd 05 6a b1 3d 6b 75 28 3e
       0.18252537 -0.10931724 0.086628 0.16451041
000040 8f 58 bf 3d 42 64 74 3d 99 4f 28 be 42 44 5e 3e
       0.09343063 0.059665926 -0.16436614 0.21705726
000050 87 24 9e 3d 5c df 5a bd 42 1d 8a bd fa 33 b7 bc
       0.07721811 -0.05343567 -0.06743862 -0.022363652
000060 3f cb 68 be e3 7b 82 bd d8 cd 20 3d 97 8b 0b 3e
       -0.22733782 -0.06371286 0.039258808 0.13627468
000070 e6 bc 67 3e da 31 f9 3c 1a 93 a1 bc 2f 1b 25 3d
       0.22630653 0.030419279 -0.019723464 0.040309127
000080 18 ff 84 3e 55 b3 07 3e ae 72 1d be 6d 54 70 3e
       0.2597587 0.13252003 -0.15375778 0.23469706
000090 54 ad eb bd 29 46 c8 bd 70 37 c7 bd 92 a3 7d 3d
       -0.11507669 -0.09779007 -0.09727371 0.06192357
0000a0 f3 bc dd bc 8d 33 30 be 73 65 0a be c5 c3 2b be
       -0.027067637 -0.17207165 -0.13515262 -0.16773899
0000b0 e1 88 10 3e 5d 82 82 bc 0f c6 83 3e 1c 2d 19 3d
       0.14114715 -0.015931303 0.25737044 0.037396535

module.encoder.embedding.weight f4 [993, 64]
000000 3d 0a 0b 3f 3d e1 eb 3e 4f cf e8 3f 1e 34 00 3f
       0.543125 0.4607028 1.8188266 0.50079525
000010 ee a2 e8 bf 39 1f 97 be ef d0 08 be 1b f9 39 be
       -1.8174722 -0.29516008 -0.13360952 -0.18161432
000020 a6 61 4b 3f 77 f4 20 bd 7c 14 7f 3f a0 25 a5 bf
       0.79445875 -0.03929564 0.9964063 -1.2902107
000030 81 ef 70 bf f7 b3 03 3f fc 23 0f 40 1a 11 af 3f
       -0.94115454 0.5144648 2.2365713 1.3677094
000040 ca 99 8c bd 2f 92 a5 3f 6b 72 9f 3e ea ad 22 40
       -0.068652704 1.2935237 0.3114198 2.5418649
000050 a0 15 87 3f dc e8 31 c0 5d f9 a3 be b8 44 9c 3f
       1.0553474 -2.7798376 -0.32026187 1.2208471
000060 ff 91 18 bf 6a c4 07 40 c2 a1 30 3e 9f ec 15 3f
       -0.5959777 2.1213632 0.17249206 0.5856418
000070 e3 f6 80 bf 9b e7 4a bf 9b 19 80 3f 6e d3 2a bf
       -1.0075344 -0.7925965 1.0007814 -0.66728866
000080 4d 5b d2 be c6 e9 81 bf 45 0d b1 3f b9 7a b6 3e
       -0.41085282 -1.0149467 1.3832175 0.35640505
000090 3b ce 91 3f c1 46 0f c0 ed e6 53 3f 10 29 14 bf
       1.1391062 -2.2386935 0.8277424 -0.57875156
0000a0 af 02 8c bd 44 e3 91 be 36 7b fe 3f 92 50 e0 3e
       -0.06836449 -0.28493702 1.9881351 0.4381147
0000b0 43 56 ce be 82 8e 1e 3f 72 37 2c bf be b4 5d bf
       -0.40300187 0.619362 -0.672721 -0.86603916
0000c0 80 fa 69 bf dc 36 f8 3e e2 b3 93 bf 3f 48 ec 3f
       -0.9139786 0.48479354 -1.1539271 1.8459548
0000d0 d3 a8 95 3e ee 36 a6 3f 3c 20 b4 3f 55 d4 a6 3f
       0.29230365 1.2985513 1.4072337 1.3033549
0000e0 1f 43 10 3f 02 e2 34 3e 70 d1 8c be 3d a3 5b 3f
       0.5635242 0.1766434 -0.27503538 0.85795957
0000f0 74 fb 34 be a6 e2 d9 3f b0 39 cf 3f b0 c5 53 3f
       -0.17674047 1.7022293 1.618948 0.8272352
000100 82 4f 7b be c5 96 87 be a6 b8 47 bf 7e 74 ba be
       -0.24542049 -0.26482216 -0.78016126 -0.36417
000110 a9 e0 c3 3e ec 5b a4 3f 62 ec 2d 3f 9a 3b b0 3c
       0.3825734 1.2840552 0.67938817 0.021512795
000120 6f 47 01 3f 94 85 db 3e 32 90 0c 3e e9 3b 88 be
       0.50499624 0.4287535 0.13726881 -0.26608208
000130 70 a8 ff 3e 16 1d 68 bf c0 16 aa be 0e 05 bf 3e
       0.49933195 -0.9066938 -0.33220482 0.37308544
000140 dc 30 2b bf c8 ce a1 be c9 95 c7 bd a5 fb 7f bf
       -0.6687143 -0.31603074 -0.09745366 -0.99993354
000150 20 9f cd be bb 06 f4 3e 85 c0 96 bf c7 16 02 bd
       -0.40160465 0.47661385 -1.1777502 -0.031760003
000160 94 28 f3 3e e0 4a d3 3f 74 de 5e be fd dd 74 3f
       0.47491896 1.6507225 -0.21764547 0.9565123
000170 9a ac 29 be 7c d6 7d 3d 30 af c2 3e 7b 0c 80 3f
       -0.16569749 0.061972126 0.38024282 1.0003809
000180 79 fd 37 3e ee 20 c3 3d c7 e8 b9 3b 5f ee a6 3f
       0.17967786 0.09527765 0.005673501 1.3041495
000190 c7 a3 4e 3d d8 ab a1 bc 74 be 7e 3f 59 02 1c 3f
       0.05044916 -0.019735262 0.9950936 0.6094108
0001a0 b0 b4 15 3c f5 3d 0a 3f f6 6d 2c 3f ce dd 81 3f
       0.009137318 0.5400079 0.6735529 1.0145814
0001b0 30 3e 81 bf 37 7a dd be 00 29 41 bf 21 3a 4f 3e
       -1.0097103 -0.43257305 -0.75453186 0.20237018
0001c0 9c 2c 51 3e d0 20 f6 3f 62 56 f2 3f 2b e3 11 3f
       0.20427173 1.9228764 1.8932612 0.56987256
0001d0 80 d1 2f bf d3 64 6a 3f a5 11 68 3f 8f 9d e0 3c
       -0.68679047 0.91560096 0.90651923 0.02741888
0001e0 b5 88 71 3d 52 d4 86 3f 78 a6 df 3f 23 98 8e 3e
       0.058968265 1.0533545 1.7472677 0.27850446
0001f0 98 3a e6 bf 9d e3 60 bf 4f d0 9f bf c8 75 49 bf
       -1.7986631 -0.8784731 -1.2485446 -0.78695345
000200 fc dd 96 3f 2a 63 00 c0 27 07 61 3f 81 d7 d0 be
       1.1786494 -2.0060525 0.8790154 -0.40789416
000210 76 01 05 3f e8 47 f2 be 21 81 1d be 08 d6 e8 3d
       0.51955354 -0.47320485 -0.1538129 0.11368948
000220 88 8b 18 3d 08 e0 66 bc 57 b4 86 3f 74 86 43 3f
       0.037242442 -0.014091499 1.0523785 0.76377034
000230 c9 55 70 3f 7b 9b 8c 3f 17 74 db be c2 fa e9 3f
       0.938809 1.0984949 -0.42862007 1.827965
000240 7b 94 03 c0 75 2d 4f bf 3a c9 0a bf 08 66 0b bf
       -2.0559375 -0.80928737 -0.542133 -0.5445256
000250 68 4e 0a bf 97 be 8f bf 29 39 a9 3d 87 12 56 be
       -0.5402589 -1.1230038 0.082628556 -0.20905505
000260 92 2f b6 bf 9f a5 ce 3f e4 3a 95 be 3e ff 49 be
       -1.4233267 1.6144294 -0.29146492 -0.19726273
000270 1b 0f a0 bf d3 69 9d bf 85 d3 25 3f 22 5d b5 be
       -1.250461 -1.229792 0.6477588 -0.35422617
000280 a8 7f c8 3f d1 70 bc 3f 76 d1 b6 bf 8e eb 1e bc
       1.5663958 1.4721929 -1.4282672 -0.009699715
000290 20 a4 90 be f6 59 66 bd 00 49 c8 be 7b c0 d5 3d
       -0.28250217 -0.056238137 -0.39118195 0.10437103
0002a0 60 f0 8b bf 4f 93 ba 3f a9 6f 8f 3f 09 c4 cc be
       -1.0932732 1.4576205 1.1205951 -0.39993313
0002b0 63 13 04 3d ce 0e b1 3f 13 b4 ad 3f 25 6f 56 bf
       0.03224505 1.3832643 1.3570579 -0.83763343
0002c0 20 bf 11 bf 71 88 56 3f a5 42 03 3e 31 8d bb 3f
       -0.5693226 0.83801943 0.12818392 1.4652463
0002d0 eb bc e7 3f 4b e9 75 be 19 2e 7c bf 0c 19 0b be
       1.8104528 -0.24014775 -0.9850784 -0.13583773
0002e0 f7 e3 c1 3e 1a cf 77 3f 91 59 5e bf 19 67 39 3f
       0.37869236 0.96800387 -0.8685542 0.7242294
0002f0 04 4c 8f bf 9a 54 9b be 3f 1b d7 be bf c8 16 3f
       -1.1195073 -0.30337983 -0.42012975 0.58900064
000300 d9 e5 b9 bf b0 16 6b 3e 90 34 23 bf 32 8f 52 bf
       -1.4523269 0.22957873 -0.6375208 -0.8224975
000310 04 6e 69 3f 44 2e 72 be 36 6a a7 be fc 16 1b bf
       0.91183496 -0.23650461 -0.3269822 -0.60581946
000320 87 aa 36 3f 3e 22 2c 3e d0 5f d7 3e c7 29 37 40
       0.71353954 0.16809937 0.42065287 2.861925
000330 2a 1b a9 bf 31 db 39 bf ca 6f 57 bf 6e 3c f5 bf
       -1.3211415 -0.72600085 -0.8415495 -1.9159067
000340 40 a9 83 bf 63 b2 e4 3e 47 f9 17 bf 5a b4 c0 be
       -1.0286026 0.44667348 -0.5936474 -0.37637597
000350 39 9a 92 3d 87 42 7d 3f 0c c3 73 3f a8 1a 71 3f
       0.07158322 0.9892964 0.9521949 0.941813
000360 f4 2c 3f be 2e 14 ac 3d 53 20 eb 3f 40 cd 16 3f
       -0.18669492 0.084022865 1.836924 0.58906937
000370 11 79 a0 3f d9 60 62 3f 90 c5 93 bf f4 ef a4 bf
       1.2536947 0.8842903 -1.1544666 -1.2885728
000380 49 e0 31 3f 45 49 1f 3d c3 7d f6 be 9f f3 ee bf
       0.69482857 0.038888235 -0.48142824 -1.8668097
000390 d9 ae be 3e 08 80 91 3f 5b 6d fa bc a8 f2 ba bf
       0.37242773 1.1367197 -0.030569723 -1.4605303
0003a0 03 65 28 3e 64 a5 8d 3e 67 1f bb 3f a9 35 e4 3f
       0.16444783 0.27665246 1.4618958 1.7828876
0003b0 1f 95 0a 40 63 c3 18 bf ca 19 d3 bf 2d 73 e8 bf
       2.1653516 -0.59673136 -1.6492245 -1.8160149
0003c0 ce 00 ee 3e 80 d8 e2 bf 66 05 76 bf c2 16 02 c0
       0.4648499 -1.772232 -0.9610199 -2.032639
0003d0 78 66 6e 3f bb 22 33 3f ea b1 76 be ea 69 0b 3f
       0.93125105 0.6997487 -0.24091306 0.5445849
0003e0 cf 4c a6 bf 9e 50 32 3f 16 49 da be c3 69 14 bf
       -1.299219 0.6965426 -0.42633885 -0.5797388
0003f0 71 3d 1e bf 7b 47 74 bf 44 c3 ae 3f 36 42 d0 3f
       -0.618125 -0.9542157 1.365334 1.6270206

module.decoder.gru.weight_ih_l0 f4 [48, 64]
000000 a6 42 34 be ef 88 a3 bd 83 c2 be 3d 93 91 92 bd
       -0.1760355 -0.079851024 0.09314444 -0.07156672
000010 39 65 10 3e 08 be 63 3e 2c 3a 86 bd 68 01 d0 bd
       0.14101113 0.2224046 -0.06554064 -0.10156518
000020 27 8f 06 be d7 67 97 3e 93 ce 32 be 1a 06 bc bc
       -0.13140546 0.2957141 -0.17461614 -0.022952128
000030 3f bd 6b 3e 1e 76 85 bb 90 17 3c be 3a c1 53 be
       0.2302141 -0.0040729186 -0.18368363 -0.20679179
000040 a9 4f da 3d 77 13 da 3d 80 ca 77 bd 54 27 48 3e
       0.10659725 0.10648244 -0.060495853 0.19546252
000050 55 2c 25 3e 4b 44 15 be 94 23 86 3e 62 75 11 be
       0.16130193 -0.14576833 0.2619902 -0.14204934
000060 ea 1b 2a be 8a df 39 3e 7c 52 e0 bd 38 48 84 3d
       -0.16612211 0.1815168 -0.10953233 0.06459087
000070 90 6d 81 be fa 03 98 3b 9e 6a 34 3e c9 fd 53 3e
       -0.25278902 0.004639146 0.17618796 0.2070228
000080 58 7d 17 be 12 1e 24 bd 96 f6 72 be 77 21 71 be
       -0.14793909 -0.04006774 -0.23726878 -0.23547922
000090 ea 96 1c 3d 3c 74 7d 3e 3a 90 2a be 61 36 11 3e
       0.03822986 0.24751371 -0.1665658 0.141809
0000a0 c9 3c 81 be 53 fc 96 be e6 ef 6e be b9 b6 3d be
       -0.25241688 -0.29489383 -0.23333701 -0.18526734
0000b0 87 97 95 be 9b c7 0b 3e ac 7a 77 bd 44 0b 72 be
       -0.2921717 0.13650362 -0.060419723 -0.2363711
0000c0 59 91 93 3e ba 4a ae bd df 77 42 3e 0b a7 30 3c
       0.2882183 -0.08510347 0.1899104 0.010782014
0000d0 a5 26 b7 bd 84 99 99 bc 4d 76 f5 3d 64 fa 9b ba
       -0.08942918 -0.01874996 0.11985455 -0.0011900184
0000e0 21 04 13 be 86 0d 74 be 99 67 66 be 8f ec 79 3e
       -0.14357044 -0.23833284 -0.22500457 0.24406646
0000f0 95 ab 4d 3e 27 9c f3 3d f7 b8 f3 3d d7 17 02 bb
       0.20084985 0.11895018 0.119005136 -0.0019850635
000100 7d 29 34 bd ee 46 e7 bd 47 3a 31 3e 08 7e aa bd
       -0.04398488 -0.11292826 0.17307387 -0.0832482
000110 95 58 1f 3e 96 e7 97 bd 99 47 b9 bd a2 9d 2e 3e
       0.15561135 -0.074172184 -0.09046859 0.1705232
000120 4a 32 cd 3d f9 6a 8a be 0f 4c cb 3c 0b 3d b2 bd
       0.100193575 -0.2703474 0.024816541 -0.08703049
000130 09 2e b5 bc 1c ac 93 be 5d 0e 0e 3d 91 e6 6a bd
       -0.022116678 -0.28842247 0.034681667 -0.05734879
000140 64 ec ca ba ca da 1d be 21 df b9 3b 6f 01 49 3e
       -0.0015481827 -0.15415493 0.005672351 0.19629453
000150 f6 21 85 3e fd 7d df 3d 29 2f 33 3e c6 cb e6 bd
       0.26002473 0.10912702 0.17498459 -0.112693354
000160 48 d4 8e be 21 8e 88 3d ab a0 0a 3e 95 08 91 3e
       -0.27896333 0.06667734 0.13537852 0.2832686
000170 5d df 16 3e d1 50 13 3e 97 65 38 be a3 ce dc bc
       0.14733644 0.14386298 -0.18007503 -0.026954
000180 2f 51 63 be 5e 25 ce bd 12 36 18 3e 9a b6 67 3e
       -0.22198938 -0.10065721 0.14864376 0.2262825
000190 8e 67 65 3e 02 a0 ea bd b4 31 8e 3e ab 1f 95 3e
       0.22402784 -0.114563 0.27772295 0.29125723
0001a0 b0 1f bf bd c4 77 9a bd fd 2f 66 be bd 48 4f bd
       -0.09332216 -0.07542375 -0.22479244 -0.050606478
0001b0 9a 78 44 3e 82 1e a3 bd fb 21 80 3e 74 51 49 3d
       0.19186631 -0.07964803 0.25025925 0.049149945
0001c0 da c5 fd bc 4e 88 a2 bd 9c 72 f9 bd a0 03 05 3e
       -0.030978132 -0.07936154 -0.12180063 0.12989664
0001d0 f7 de 5a be fd 99 da 3d 46 e7 ad bd 0b ef eb 3d
       -0.21374117 0.10673902 -0.084913775 0.11520203
0001e0 1f cf 3f be f7 f8 7e 3b 8b 20 30 be b6 80 06 bc
       -0.18731354 0.0038905719 -0.17199914 -0.008209398
0001f0 27 f3 95 bd 82 d8 7c be 18 3f 1a 3e e3 38 8a 3e
       -0.07321768 -0.24691966 0.15063131 0.26996526
000200 ad 85 45 be fd c0 2d be 33 c0 60 bd 07 d0 00 be
       -0.19289275 -0.1696815 -0.054870795 -0.12579356
000210 25 78 0c 3e 42 b6 29 be 88 63 1b 3e bf cd 3f be
       0.13717707 -0.16573432 0.15174687 -0.1873083
000220 95 f7 81 3d 92 de 98 3e 4d 3a db bc 12 0f 75 be
       0.06346051 0.29857308 -0.026761198 -0.2393153
000230 b8 6a 70 bc 18 44 94 3d 8d 42 f0 bc 75 b6 19 3d
       -0.014673881 0.0723955 -0.029328609 0.03752752
000240 4a 1b 35 3d de b2 2a bd 84 70 92 be cf 6a 10 3e
       0.044215478 -0.041674487 -0.28601468 0.14103244
000250 f6 d9 29 3e 08 99 c5 bc 2f 6b 97 3e 96 72 db bd
       0.16587052 -0.024120823 0.29573962 -0.10715215
000260 34 f4 13 be d0 97 16 be 21 4a 9a 3d e9 7c b7 bd
       -0.14448625 -0.1470635 0.0753367 -0.089593716
000270 1c 27 0e 3d c4 89 44 bd db ab 46 3d 9f 44 b0 3b
       0.034705266 -0.047982946 0.048503738 0.005379274
000280 8a c0 22 bc 5a d0 e2 3c b1 6c 88 bd 2e d2 8c be
       -0.0099336 0.02768724 -0.06661356 -0.27504104
000290 19 c3 4a be 58 20 7e bc 1b 60 05 be de 58 28 3e
       -0.19800986 -0.015510641 -0.13024943 0.1644015
0002a0 75 1d b1 3d 6f 47 c6 bc 01 5f d0 bd 39 1a 21 3d
       0.086481966 -0.024203984 -0.101743706 0.03933165
0002b0 90 ab 92 be 8d 1f 40 be eb d3 47 3c bd d0 22 bd
       -0.28646517 -0.18762036 0.012196521 -0.03974985
0002c0 cd 05 4f 3e 35 af 12 3e 27 a6 83 be 03 ca 26 bd
       0.20217057 0.14324649 -0.25712702 -0.040719997
0002d0 b0 55 41 3e a1 d2 80 3c f4 f6 0d 3e c5 8c c2 bd
       0.18880343 0.015725436 0.13863736 -0.09499506
0002e0 09 57 b4 bd 5f ea 57 be e1 d1 c3 3d ce c0 8d bd
       -0.08805663 -0.21085499 0.095615156 -0.0692154
0002f0 60 ab 86 bd ad 2e bf bd af 75 38 bd 1d 3e c0 bd
       -0.06575656 -0.093350746 -0.045034107 -0.09386847
000300 6e 74 3c bc b6 d0 81 bd 7a 01 42 3e 62 24 10 be
       -0.011502368 -0.063386366 0.18945876 -0.14076379
000310 da 39 06 be a5 ad 76 3e 1e 83 81 3d 10 e1 ff bd
       -0.13108006 0.24089678 0.06323837 -0.12494099
000320 3a 4b 16 3b a0 e3 c5 3d c1 c8 12 3e 80 6c f1 3d
       0.0022933022 0.09662557 0.14334394 0.11788273
000330 63 db 10 be 63 86 e3 3d 9d 1d ac bb e4 15 53 3e
       -0.1414619 0.111096166 -0.0052525536 0.2061382
000340 7d 15 15 3e 0e d6 78 be 67 56 25 3e 9d 68 c7 3c
       0.14558978 -0.24300405 0.16146241 0.024341876
000350 6b 5a 4c be 3d 54 5b be 6f f3 fc bc 33 5a 3f 3e
       -0.19956367 -0.21418853 -0.030877797 0.18686752
000360 2a 8a 74 be 5b a1 19 be 20 38 f6 3d f4 fa 8f be
       -0.2388083 -0.15002958 0.12022424 -0.2812115
000370 a5 9d 15 3d 10 28 bf 3d 21 9a 48 bd 07 6b 53 3c
       0.036527295 0.09333813 -0.048975114 0.012903935
000380 d6 ff 03 bd 37 32 59 be 7b 1d 32 3d 88 b7 37 be
       -0.032226406 -0.21210562 0.043485146 -0.17941105
000390 a5 cf b9 3c bc b1 13 be 9e ac 07 3e f8 c0 3c 3e
       0.02268202 -0.14423269 0.13249442 0.18432987
0003a0 61 a7 fb bd ff 18 25 be 0b a0 18 be 72 eb 10 be
       -0.12287784 -0.16122817 -0.14904802 -0.14152315
0003b0 af 25 74 bd b1 dc d9 bd c6 73 f0 bd 69 2c 36 be
       -0.05960625 -0.10637797 -0.11740832 -0.17790379
0003c0 17 54 e9 bc 33 3e 48 bd 3c 3d 0c bc cd ab 35 bd
       -0.02848248 -0.048887443 -0.008559521 -0.044353295
0003d0 72 29 4b bd 88 e0 e6 b9 b7 12 24 bd f5 0d 60 3a
       -0.049600072 -0.00044036307 -0.04005691 0.00085470016
0003e0 3b de 1d bd 98 89 23 be 05 78 74 bd 7a 08 54 3c
       -0.038542014 -0.15970457 -0.059684772 0.012941474
0003f0 8e 12 1f bd ff 57 40 3d 31 17 34 be 11 f3 de 3d
       -0.038836055 0.04695892 -0.17586972 0.10886205

module.decoder.gru.weight_hh_l0 f4 [48, 16]
000000 1e 60 4d 3d 8b c5 f7 3d 55 f4 88 be a3 e2 db 3d
       0.050140493 0.12098225 -0.2674891 0.10736587
000010 a2 a6 68 3e 10 36 45 3d 1c 32 2c 3e 4d ae 98 bd
       0.22719815 0.04814726 0.1681599 -0.0745512
000020 a3 86 05 be 71 45 91 3e 4b 88 e8 3d 8b c1 95 be
       -0.13039641 0.28373292 0.11354121 -0.29249224
000030 b7 7e cf bd c0 3c 5f 3d 05 2d 24 3d 09 98 ab 3c
       -0.10131591 0.054501295 0.040081996 0.02094652
000040 b8 7e 8c 3e 5f 6f d1 bd da cc a0 bd 98 e5 16 bb
       0.2744043 -0.102263205 -0.07851572 -0.0023025032
000050 e7 f2 5c be 90 39 c9 3d 21 ca 49 3b a0 93 d7 bd
       -0.21577035 0.09825432 0.0030790644 -0.10526204
000060 0a c8 39 3e 65 06 0f 3d ac 87 0a be 4b 3c 79 3e
       0.18142715 0.034918208 -0.13528317 0.24339406
000070 67 5c 00 bd 24 c4 bf 3d ed 0f 16 be e0 a5 27 be
       -0.03133812 0.09363583 -0.14654513 -0.1637187
000080 78 48 70 be c5 09 4c bd 82 7c 18 3e e2 14 98 3e
       -0.23465145 -0.049814004 0.14891246 0.29703432
000090 ca c4 d0 bd eb 6e 52 3e 14 bf e8 3c de 40 ee 3d
       -0.101937845 0.20550124 0.028411426 0.11633466
0000a0 0a 0f 75 be 68 75 a5 3e 9d 08 07 be 78 e3 0f be
       -0.23931518 0.32316136 -0.1318688 -0.14051616
0000b0 36 73 fc 3d 98 a4 8c 3d a2 78 e4 3d a4 2b 58 3e
       0.12326662 0.06867331 0.111558214 0.21110398
0000c0 c4 98 3b 3d c3 61 94 39 c8 d3 9d be 65 2d 1e be
       0.045799986 0.00028301598 -0.3082564 -0.15447004
0000d0 e1 62 49 be 85 aa d3 bd bc cf e5 3d c0 e5 b7 bd
       -0.19666626 -0.103352584 0.11221263 -0.08979368
0000e0 51 81 da bd 4a 84 70 3e c0 ca 0b 3e 90 52 98 be
       -0.106691964 0.23487964 0.13651562 -0.2975049
0000f0 d6 2d 9a be 73 7e 23 3e be 1c 08 3e f2 6d 97 3e
       -0.30113095 0.15966205 0.13292214 0.2957607
000100 06 b9 53 3d 5c c3 4d 3e ce c5 1d be d5 55 c2 bd
       0.051690124 0.20094055 -0.15407488 -0.094890274
000110 99 68 87 3e 9c 76 1a 3e ca 68 38 3e d9 52 1c 37
       0.2644699 0.15084308 0.18008724 9.317614e-06
000120 b0 cb 3b 3c 69 30 28 3e f6 09 27 3e b1 3c 32 3c
       0.011462137 0.16424717 0.16312394 0.010878728
000130 c9 01 51 bd bd 7f 98 be cb cd ba 3d 4f 60 02 3e
       -0.051027093 -0.29784957 0.09121283 0.12732051
000140 1d 74 65 3d 7e 1c a7 bd 7c 12 60 3d 27 e4 87 3d
       0.056018937 -0.08159731 0.054705128 0.066353135
000150 7d e6 0c 3d 1f 9e 54 3e 9d 3f a0 bd f9 37 02 be
       0.0343995 0.20763443 -0.07824633 -0.12716664
000160 ef 37 c3 3d c7 bb ea bd a3 50 c9 bd 10 93 89 be
       0.09532153 -0.11461597 -0.09829833 -0.26870012
000170 1d a8 63 be 70 93 37 3d 4c 18 c0 3e 6e 81 b7 bd
       -0.22232099 0.04481834 0.37518537 -0.08960234
000180 30 59 69 ba 8d 5b 37 3e 01 77 bc be a5 7c 4e 3e
       -0.00089015346 0.17906018 -0.36809543 0.20164736
000190 52 ca d2 bb 95 37 fd 3d 6c b3 8c 3e c4 e8 07 bc
       -0.00643281 0.12364117 0.27480638 -0.008295242
0001a0 cc 95 9f 3d 28 d2 4f 3e 61 c8 ef 3d f0 f2 0a be
       0.07792243 0.20295012 0.11708141 -0.13569236
0001b0 e5 36 b1 be 6e 30 84 be f6 e0 72 3e 0d 80 07 3e
       -0.34612194 -0.258182 0.23718628 0.13232441
0001c0 ab 0a e8 bd ec 7b e3 bd 64 be 2a 3d 0e 49 7b 3e
       -0.1133016 -0.111076206 0.041685477 0.24539587
0001d0 30 35 8a 3e 0e 38 8a 3e e2 34 aa bd af 41 61 3e
       0.26993704 0.2699589 -0.08310868 0.21997713
0001e0 58 87 cf bc 14 ea ca bd 6f 41 71 3e c1 66 cc 3d
       -0.025333092 -0.09907928 0.23560117 0.09980536
0001f0 bb 73 32 be df db 9d bd 19 c1 90 3e f6 6a 90 3e
       -0.1742696 -0.07707953 0.28272322 0.28206605
000200 a0 b1 0f 3e a7 db b4 bd 2a 64 75 3d 38 8e 61 3e
       0.14032602 -0.08830958 0.059909977 0.22026908
000210 f5 a1 2d 3e 59 19 d1 bc 3e 0f d6 3d 49 63 c3 3b
       0.16956313 -0.025524782 0.10452126 0.0059627634
000220 17 30 34 3e 7b 47 c5 3d d4 3e a9 3d 8f a0 03 be
       0.1759647 0.096327744 0.08263937 -0.12854217
000230 8b 1f c7 bc 6e 0e d8 3d e3 5b 89 3e 4e 86 68 bd
       -0.024307033 0.10549627 0.26827917 -0.056768708
000240 5a 70 30 3e c5 2a cd 3c 14 81 0b bd ae f1 e7 bd
       0.17230359 0.025044808 -0.034058645 -0.113253936
000250 7f e9 5d 3e db 8f 76 bd a8 62 57 3e 05 0a 08 bc
       0.21671103 -0.060195785 0.21033728 -0.00830317
000260 4e 2a 3b 3e 9b 6c a9 bd 66 70 2c be 89 90 80 bd
       0.18277857 -0.08272668 -0.16839752 -0.06277568
000270 a1 94 45 3d 91 e9 08 be e4 f3 6f 3d 64 81 3a 3e
       0.048237447 -0.13370349 0.0585822 0.18213421
000280 c9 5e 54 be ec a9 35 3e 13 d0 3a be fb 2a 00 3e
       -0.20739283 0.17740601 -0.18243437 0.12516396
000290 87 2c dc 3c 2e ca a9 3d 02 38 2d be fb 75 a7 bb
       0.026876701 0.08290516 -0.16915897 -0.0051105
0002a0 e3 37 34 bd 89 b5 9c 3e 16 17 5b 3d b9 f0 26 3e
       -0.04399861 0.3060725 0.053488813 0.16302766
0002b0 05 49 f9 3d 8c 9e a7 bd 1c fc ab bd 61 ad 11 be
       0.121721305 -0.08184537 -0.083976954 -0.14226295
0002c0 82 45 4d be 57 15 6d 3e ae 91 ba be 58 05 90 3e
       -0.20046046 0.23152672 -0.3643927 0.28129077
0002d0 87 33 2c 3e a2 ea 47 3e 20 54 4e 3e 45 0a 8d 3d
       0.16816531 0.19523099 0.20149279 0.068867244
0002e0 28 5d f0 bd 13 54 68 3e b1 6b 18 be 2c 07 ee bd
       -0.11736518 0.22688322 -0.14884831 -0.11622462
0002f0 69 3d f3 3c 8b c5 f8 3d bb 0e 9f 3d 7a ba 39 3e
       0.029692369 0.12147053 0.077664815 0.18137541
000300 b4 0c 77 be 1a f3 54 bd f3 ae 23 3d 4e 6f 74 3e
       -0.2412594 -0.051989652 0.039961766 0.23870584
000310 67 c4 aa 3d e3 3c 14 3e ac 02 31 bd f9 bc 1d 3e
       0.08338242 0.14476351 -0.04321544 0.15404119
000320 d5 b2 db bd b7 44 92 3d 28 74 38 3c 07 85 87 bd
       -0.10727469 0.071420126 0.011258163 -0.0661717
000330 a6 a3 06 bd 85 56 f1 bd de 18 68 3e 90 87 03 be
       -0.03287091 -0.117840804 0.22665736 -0.12844682
000340 e1 bd da bd 94 d2 55 3b cc 75 40 be 6a fc 92 3e
       -0.10680748 0.0032626735 -0.18794936 0.28708202
000350 de 14 c5 3d da bc 1b bc a4 0e 02 be f1 fc 2e bd
       0.09623121 -0.009505475 -0.12700897 -0.042721692
000360 44 a9 36 3c 1e 31 9d 3e 15 8c 41 3e dd 2e ce bd
       0.0111487545 0.30701536 0.18901093 -0.10067532
000370 3e 3e bf be af 18 72 bc 83 a9 36 3e 75 3d ba bd
       -0.37352175 -0.014776393 0.17838101 -0.09093753
000380 9e ec 32 3e 3b 30 e7 bd 2b 18 aa be 26 19 e9 3d
       0.17473075 -0.11288496 -0.33221564 0.1138175
000390 ec c1 86 3e a4 d8 6b bd fe d3 92 3e fe 5d 70 3e
       0.26319826 -0.05757965 0.28677362 0.23473355
0003a0 aa ad b6 bd ca dd a8 3e 9b a8 34 3e cc 98 cb bd
       -0.089198425 0.32981712 0.17642443 -0.09941253
0003b0 9a 34 82 be b5 80 dd bd ca 9e 15 bc 54 6d dd 3d
       -0.25430757 -0.108155645 -0.009132097 0.10811868
0003c0 12 7d 5a bb fb ce a0 bd ba c9 07 be ce 40 11 3e
       -0.0033338708 -0.078519784 -0.13260546 0.14184877
0003d0 5b ac 0e 3d a8 2d 80 3e 56 3d cf bc 2b d4 51 3e
       0.03483234 0.25034833 -0.025297802 0.20491092
0003e0 f8 c3 c1 3d 64 4b a7 bd 29 5e f5 3d 98 08 07 3e
       0.09461206 -0.081686765 0.1198085 0.13186872
0003f0 f0 4a 4a 3d d0 5e f2 bd 43 c4 6f 3d 9a ec 98 3c
       0.049387872 -0.1183449 0.05853678 0.018667508

module.decoder.gru.bias_ih_l0 f4 [48]
000000 a6 d3 1b be 5f e8 ff 3d 8b ce 3e 3e f4 b7 1e be
       -0.15217456 0.12495493 0.18633477 -0.1549986
000010 89 16 61 3e 13 c2 5e 3d d9 4d 0e 3e 8c 1f f2 bd
       0.21981253 0.054384302 0.13896884 -0.11822423
000020 56 13 30 3e d9 18 af 3d 31 74 8a 3d bd b4 90 bd
       0.17194876 0.08549661 0.06760443 -0.07065723
000030 9f a0 2d bd b3 39 0e 3d 8b d9 86 bd ad 35 14 3d
       -0.04238951 0.034722995 -0.06584462 0.036184
000040 d3 6c 94 3d 7d 0d f1 bc 5f 46 c9 bd e9 84 4a be
       0.07247319 -0.029425377 -0.09827875 -0.19777264
000050 f3 bd ef bd 79 70 b3 3e 1d 58 3e be 75 14 46 3e
       -0.11706152 0.35046747 -0.185883 0.19343741
000060 f0 f7 72 3d 43 d7 a9 bc 55 1f 41 be 1e 7d 9a 3e
       0.059318483 -0.020732528 -0.18859608 0.30173582
000070 aa 37 70 3e 52 53 33 3e 5b 72 e6 3d c1 f1 1a 3d
       0.23458734 0.17512253 0.1125228 0.03782821
000080 a3 52 ba 3d 00 5f 10 3e 16 1e 3b 3d 50 56 08 be
       0.09097793 0.1409874 0.04568299 -0.13314176
000090 38 c1 4e 3e d4 81 3e 3d a2 4d ba 3e e1 59 df 3d
       0.20190895 0.046510532 0.36387354 0.10905815
0000a0 96 e8 af 3d c7 e9 b3 3d e0 2d bb bd c8 b4 ad 3d
       0.08589284 0.08784824 -0.09139609 0.08481747
0000b0 ee b9 83 bd a9 92 d4 3d e3 05 6d 3c 5c b7 38 3e
       -0.06431948 0.10379536 0.014466736 0.18038696

module.decoder.gru.bias_hh_l0 f4 [48]
000000 7c 43 61 3e be 84 e8 bd 49 27 61 3e cf 02 04 3e
       0.219984 -0.113534436 0.21987642 0.12891696
000010 36 f4 94 3e 9b 48 be 3e 9b 18 d7 3d 73 4f 86 bd
       0.29092568 0.3716477 0.1050274 -0.065581225
000020 29 6b 81 bb e3 b8 a6 bd 5b 63 28 3e 66 66 c2 bd
       -0.003949542 -0.08140733 0.16444151 -0.09492187
000030 ad bf c3 3d 4d 60 b2 bd 81 92 1e 3a 79 f9 56 3e
       0.09558044 -0.08709774 0.00060490525 0.20993604
000040 37 11 41 bd 8b 2d 34 be cd 30 82 3d 0d 60 ba 3c
       -0.047135558 -0.17595498 0.06356964 0.022750879
000050 f9 40 49 be 31 d9 df bd 91 90 ea 3c 3d 9d 62 be
       -0.19653691 -0.10930098 0.028633388 -0.22130294
000060 61 b0 99 be d5 cf d2 bd 8f a9 00 bd ce 07 a1 3e
       -0.3001738 -0.10293547 -0.031411704 0.31451267
000070 f3 c2 4d 3e c3 bd 81 3e a8 84 16 bc 20 52 87 be
       0.20093898 0.2534009 -0.009186901 -0.26429844
000080 9e 3f cb 3d d2 28 af bd a0 e7 83 bd b4 0d f7 3d
       0.099242434 -0.08552708 -0.06440663 0.120631605
000090 19 8f 1c 3e 60 b6 bc 3e 8a b6 0b 3e d2 39 a9 bd
       0.15288962 0.3685789 0.13643852 -0.082629815
0000a0 c2 11 9d 3d 5a 59 5c 3e 67 5a 9d 3e d9 0b b6 be
       0.07669403 0.2151846 0.30733034 -0.35555914
0000b0 4a ef 94 be e0 d8 af be aa 26 82 bc 6a d2 8b 3e
       -0.29088813 -0.3434515 -0.015887577 0.2730897

module.decoder.embedding.weight f4 [993, 64]
000000 90 a7 2a be 98 b2 be 3f a5 e8 0f be 08 bf 30 bf
       -0.16665483 1.4898252 -0.1405359 -0.6904149
000010 81 0c d6 3e 0f af 4e be be 6e a2 be 01 4c dd 3e
       0.41806415 -0.20183967 -0.31725115 0.4322205
000020 9e e7 89 be 00 a9 93 bf 19 07 df bf 8b ff 59 bf
       -0.26934522 -1.153595 -1.7424041 -0.8515555
000030 b6 b6 a5 bf 14 2a 25 3f 9b 92 97 bf a0 9c a1 3e
       -1.2946384 0.6451733 -1.1841615 0.31564808
000040 14 90 3f bf b3 8b a6 3c 83 6d be bf 75 2e 10 bf
       -0.7482922 0.020330286 -1.487717 -0.5632089
000050 c0 e7 b4 3f a1 1a 76 3e b3 24 55 3f f3 37 b1 be
       1.4133224 0.24033596 0.83259124 -0.34612998
000060 f1 ad e2 bf ef ea 96 bf 6a 62 6f bf e2 16 71 3c
       -1.7709333 -1.1790446 -0.9350954 0.014714928
000070 af af 53 3f 1d 79 3d 3f f7 8e 3b 3f d6 e7 6b bf
       0.82689947 0.7401293 0.7326502 -0.9215063
000080 0d 63 0b bf 7b d2 5e 3f ad 01 ce bf 89 21 17 3f
       -0.54448014 0.8703992 -1.6094261 0.59035546
000090 17 cd f3 3f e1 b8 b7 bf 30 14 97 bf 96 0f 59 bf
       1.9046963 -1.4353296 -1.1803036 -0.8478941
0000a0 fa 08 d3 3e 87 6c a7 bf 28 9b f7 be 17 09 0f 40
       0.41217786 -1.3079995 -0.48360562 2.2349298
0000b0 91 d1 50 3e 1a 29 ad 3f e6 cb 75 3e 74 cb 6c 3e
       0.20392443 1.3528168 0.24003562 0.23124486
0000c0 09 cf 81 3f 87 36 ea 3e b3 bf 9e bf 9c 52 41 be
       1.0141307 0.45744726 -1.2402252 -0.18879169
0000d0 57 25 8f bf 6e d5 72 bf 27 ee 30 3f 94 d9 75 bf
       -1.118327 -0.9485692 0.6911339 -0.9603512
0000e0 d7 cd 4d 3e 43 56 04 40 dd 06 c0 3e 35 26 d6 bf
       0.20098053 2.067765 0.37505236 -1.673041
0000f0 49 c9 67 bf 5d b3 89 bf 21 9b 15 40 41 c7 c3 3c
       -0.9054151 -1.0757862 2.3375933 0.023898723
000100 21 14 ee be e6 be c3 3f 9f d1 29 3f b8 4c 3f 3f
       -0.46499732 1.5292633 0.6633548 0.7472644
000110 b4 18 e8 bf 4c 8b 9c bd 05 99 a9 be df 57 78 3d
       -1.8132539 -0.07643756 -0.33124557 0.060630675
000120 6a d7 53 be 43 b0 00 3e 1e 1a 2a bf d1 23 3b bd
       -0.20687643 0.12567239 -0.664461 -0.045688454
000130 f5 95 d7 3f 18 84 8c be f9 4e c4 3f f7 b5 eb bc
       1.6842638 -0.2744453 1.53366 -0.028773291
000140 7e 95 b2 bf 03 40 84 bf d6 c5 87 3e 17 ea ec bf
       -1.3951871 -1.0332035 0.26518124 -1.8508939
000150 c9 70 13 c0 b8 95 44 bf f5 5b d2 3e 1e b7 f7 3f
       -2.3037589 -0.7679095 0.41085783 1.9352758
000160 b7 48 ac 3d 6e cc d0 bf 49 e8 a1 bf c3 3b 87 bf
       0.08412307 -1.6312387 -1.2649013 -1.0565113
000170 a3 8b 91 bf 26 13 0b 3f 1f 8a 63 3f 41 fd 41 bf
       -1.1370739 0.54326093 0.8888263 -0.7577706
000180 26 3f 7a 3f 4d d5 71 bf 93 9c b7 3f 43 79 02 bf
       0.97752607 -0.94466096 1.4344658 -0.5096628
000190 23 cf af 3f 63 44 38 3f 1f a5 9c 3f 09 d1 26 3d
       1.3735088 0.7197935 1.2237891 0.040726695
0001a0 25 5d 5a 3e 12 1e a1 3f 45 e9 cd 3d 55 1f 95 3f
       0.21324594 1.2587302 0.10054258 1.1650187
0001b0 19 cc 7d 3d ad 00 47 bf ea 51 04 be e9 df fb bf
       0.06196222 -0.77735406 -0.12921873 -1.9677707
0001c0 6e 48 5b bf b1 bd a8 bd ba a3 17 c0 c1 5c 35 3f
       -0.85657394 -0.08239306 -2.369368 0.70844656
0001d0 2c 93 01 3f 82 92 45 c0 2e d5 fb 3f 3a 38 f0 3f
       0.5061519 -3.0870671 1.9674432 1.8767159
0001e0 36 2d 96 3e b4 f7 dc 3e 1a 82 10 3f 09 79 4b 3f
       0.29331368 0.43157732 0.5644852 0.7948156
0001f0 ef 61 9c 3e 24 4c 3c 3f 57 f2 19 3f 95 9b 84 bf
       0.30543467 0.7355368 0.60135406 -1.035998
000200 c2 09 af 3f 4f 0e 0d 3f 28 26 1e c0 b8 ef 80 be
       1.3674853 0.5509996 -2.4710789 -0.2518289
000210 ce a0 82 3f 2e 26 c9 3f 5f b5 d5 3f 05 f5 df bf
       1.0205324 1.5714777 1.6695975 -1.7496649
000220 f8 57 14 bf 2e d2 22 3d 0d 6a a2 3f f8 b7 9f 3c
       -0.5794673 0.039751224 1.2688614 0.019496903
000230 b9 f9 76 bf e6 4f 5d 3f 52 68 b7 bf 0d 68 4e bf
       -0.96474797 0.8645004 -1.4328711 -0.8062752
000240 41 3e 72 3f 8f 1a f6 3f 62 0f 7d 3e f4 0a 1b 40
       0.9462624 1.9226855 0.247129 2.4225435
000250 8b 05 23 bf 75 e0 12 bf 98 6d d9 3e 42 fb 2b bf
       -0.6368033 -0.57373744 0.42466426 -0.67180264
000260 ad 2b 75 bd b8 b7 30 bf 4b ff 98 3e 2b 7b 6d 3d
       -0.059856106 -0.6903033 0.29882273 0.05797879
000270 91 65 99 be c7 44 a8 bf 0a 45 1b 3f 14 0c 3d 3e
       -0.29960302 -1.3145989 0.6065222 0.18461639
000280 09 46 11 3f b7 a7 6e 3f 80 60 8f 3f 84 87 e1 be
       0.5674749 0.9322466 1.1201324 -0.44048703
000290 c5 38 83 3f 8f 72 15 40 d9 37 7c 3f a4 05 ac 3f
       1.02517 2.335117 0.98522717 1.3439221
0002a0 23 94 8f be 4a a1 a5 3e fb fc bd 3f fe 4f 6e 3e
       -0.28042707 0.32349616 1.4842829 0.23272702
0002b0 75 4a 13 bf fe 84 93 3e 70 95 26 3f f2 f6 8f be
       -0.5753549 0.28812402 0.65071774 -0.28118092
0002c0 0e c4 c3 be f2 fb 8a be 9e 98 e0 3e ba 92 25 3f
       -0.38235515 -0.27145344 0.43866438 0.6467701
0002d0 4e 83 67 3f 55 6a 34 3f c1 76 01 c0 85 fc bb bf
       0.9043473 0.7047475 -2.0228732 -1.4686438
0002e0 ee 8b 57 bf 48 f4 0d c0 d1 58 1f bf 6c df 0b 3f
       -0.8419789 -2.2180347 -0.622449 0.5463779
0002f0 0f a7 89 bf 16 8f 51 3e 8f d8 fb be 81 bd 93 bf
       -1.0754107 0.20464739 -0.4918866 -1.1542207
000300 78 21 40 bf 9b e5 27 bf 2b f2 7a be fd 2f 1f bf
       -0.7505107 -0.65584725 -0.24506442 -0.621826
000310 d2 bc bf be b5 b6 b5 bf 71 35 2e 3f 6d 14 52 bf
       -0.37448746 -1.4196383 0.68050295 -0.8206242
000320 ab 67 77 3f c6 0e 2b bf 0c e8 04 bf bd b3 1d 3d
       0.9664256 -0.6681942 -0.51916575 0.03850149
000330 6c 59 87 bf 1d d7 bb be 7a aa dc 3f 1c 75 33 3f
       -1.0574164 -0.36687556 1.7239525 0.7010057
000340 42 0c b1 3f 24 1c 69 3f dc 65 72 be 99 f0 80 be
       1.3831866 0.91058564 -0.23671669 -0.2518356
000350 fc 24 40 be 37 a9 aa 3f d3 f9 ba be e0 5c 6f bf
       -0.18764108 1.333289 -0.36518726 -0.9350109
000360 a6 0e df 3f d3 a4 8e 3d 97 ee 4c bf d3 50 07 bf
       1.7426345 0.069650315 -0.8005156 -0.528577
000370 07 05 8c bd 3e a8 f7 3e 93 12 61 3f 5e 38 32 bf
       -0.068368964 0.48370546 0.87918967 -0.6961726
000380 7d 19 7f 3b 76 23 f4 be f9 f3 2e bf 13 07 44 be
       0.0038925104 -0.47683305 -0.6834102 -0.19143324
000390 04 bc df 3e 61 42 c8 3e 6d 8a d9 3e d8 61 26 3f
       0.43698132 0.39113143 0.42488423 0.6499305
0003a0 f0 49 fa 3e 00 85 57 3b 6c d0 e1 3f 21 a2 17 3f
       0.48884535 0.003288567 1.764173 0.59231764
0003b0 8f 67 ae bf 48 e3 c5 3d d2 19 06 40 44 bb 1b bd
       -1.3625354 0.09662491 2.095326 -0.038020387
0003c0 05 8b 56 bc a8 35 c7 3e cc a8 1f 3f f4 3b 63 bf
       -0.013094668 0.38908124 0.6236694 -0.88763356
0003d0 b9 8c 31 be a5 77 e4 3e fa aa 81 3f fa 2f bd 3e
       -0.17338838 0.44622532 1.0130303 0.36950666
0003e0 be 1b 6f bf 53 9b 6b 3f 39 3d a0 3c 0e ae f8 be
       -0.93401706 0.9203388 0.019560443 -0.48570293
0003f0 ac b2 34 3c e0 b0 0f 40 d4 8b 3d 3f 5b c1 a9 bc
       0.011028927 2.2451706 0.74041486 -0.020722082
